ML-Agents/results/rollerball001/RollerBall/RollerBall-500008.pt (torch, 447963 bytes, 36 tensors)

network_body._body_endoder.seq_layers.0.weight f4 [128, 8]
00000000: 650b 173f 25aa 313f 402d a2be c74c 62be
00000010: da81 683e 0741 173f bc6c 9cbe 020c df3c
00000020: 9aad 9fbd 5836 f23e 15fe d5be 721d e8bd
00000030: fcd0 873e e10f 193f ddda 6abe f4f6 ee3e
00000040: eb05 95bc 25fe 57be 8d0f 813e f013 13bf
00000050: eb49 02bf f4b3 2dbe 0b6e a4be 1251 0ebe
00000060: 8a5a 3f3f f7ef bcbe b541 433e cea7 82bd
00000070: 9002 9d3e ce3b a73e 0108 60be ff20 3d3e
00000080: 8b51 163f cbfc c93e 9d39 703c 424e 81be
00000090: a014 c83c a354 7c3f 6362 b5be bf71 3f3d
000000a0: 756d df3e 4b1d 60bf 101e d23d 7962 e13d
000000b0: 5253 bdbe 358e bb3c 403b 42be b905 ce3d
000000c0: 3fa1 27bf 6858 b03d b5e6 4cbe 61c7 433f
000000d0: 92b6 83bd c6fd 6e3e 21fd 983e 6c79 223e
000000e0: 29d3 233e b9cc 25be 8d56 f13d 0926 f6be
000000f0: b6e7 eebe 7cb6 77bc d0c4 233e e6b9 dfbe
00000100: 6021 0ebf e27b 65bc ed82 cc3d e8f7 c3bd
00000110: 21f0 0fbf e358 8ebe 95fe 0c3f ab24 763e
00000120: 6ba7 373f 9550 123e 9ad4 99be ff39 303d
00000130: fa93 a43b 8afe a23e f4f2 03be 5243 98be
00000140: fafa 17be c843 c9be d028 e0be 439d 073e
00000150: b47e 073f 6985 b53e d3e0 1e3e 6f06 683e
00000160: eda6 80be fb5c 173e abb3 22bd 090d 293e
00000170: d355 11be 1e1a 8fbd 7c89 0a3e 46b0 74be
00000180: ada2 913e 8714 473e 7954 2e3e 4518 8ebc
00000190: ccf2 d2be 14cf 063f b360 87be b51f c23e
000001a0: bad8 6fbe d2a2 7ebc 412c 4d3e fc0c e43e
000001b0: 0b7b f73e 14c3 a3be 25c7 a23e 0172 0f3f
000001c0: 479b 6abe ac76 a23e 0027 01bf b4d5 eb3d
000001d0: 3049 5e3e 3b05 833d 0559 d3be efac 8e3e
000001e0: 0e2d 403e 6032 00bf 4e35 18bf 8e6b a6be
000001f0: ccff 51be 77d2 8e3e f369 2d3f c7a4 d73e
00000200: adf8 8ebc 310e 283e 42a0 3dbe d37c 21bf
00000210: c143 bebe 347b a53d 4ce5 c43b 03b8 623e
00000220: 6f2e e3bd 45ac 823e db01 143d 092f 0d3e
00000230: 134f e03d 4a93 7bbe 1212 72be 8c60 89be
00000240: 9b8b ed3e 77ec 44bc db23 343d 0894 bcbe
00000250: c762 9cbd a75d 79be 768c cabe 2be1 eabe
00000260: dced edbd 5c0a 683e 0802 d9be 3732 41be
00000270: bbda 613e 80de c1be 92e7 65be b94f 67be
00000280: c55c 31be af32 86be d69d 003e 03e6 453f
00000290: 5c75 b5be 032a f83e 3df1 d2be c263 b33d
000002a0: 1fd0 5abf 2ab4 873d 1ae6 0ebf 7bdb 40bf
000002b0: 7358 09be c95d 03bf 1a3b c13e aa35 733d
000002c0: a968 273e 8adb f53d a208 a0be 19ae ecbc
000002d0: cf50 0b3d bf20 5e3e 8189 313d cbbe 803e
000002e0: eaaa 403e 1147 bd3e f03f 463f bb95 33bd
000002f0: 274c 123f 596f 73bf 7e82 aabc cb00 f7be
00000300: 8a65 71be 63c9 dd3e 40b0 c73e 993d aebd
00000310: 834b 28bd e382 8b3e b5a8 a0bc cefd 503f
00000320: 5912 59be 5eb2 2cbf 5777 e5be e63a ac3e
00000330: 625d 4abf 1e98 a5bd 2987 553e 366b c4be
00000340: 7791 ba3e de4f 2cbf 913e fb3e f144 523e
00000350: 23cd 1abc e8cd 0abf 8a74 23be 9345 803e
00000360: d9aa 503d 89fc e33d af2d 34bf 1546 a03e
00000370: 012a 113f a033 5b3f 042f 4fbe 4a1d 3dbd
00000380: 8e62 8a3e a412 2e3d 16bc d3be 30e4 d6be
00000390: 2066 f93d 7a96 f93d 3a6f edbd 4721 22be
000003a0: 2ae9 133e c481 aa3e b3c9 99bc 959d bd3e
000003b0: 3a76 593e 736f 19bf 5ee2 b63e 3b11 2e3d
000003c0: 86e9 03bf 75fd 223f 0fcd 29bf 09ca 013f
000003d0: 5087 053f 493e fd3d aabf 273f 2dd6 b93e
000003e0: 1d22 56be e090 0cbe 9532 a83e d3ad e53e
000003f0: 39e0 01bf 57a2 a6be 5b60 013f 9709 8e3e
0.5900176 0.69400245 -0.31675148 -0.220996 0.22705784 0.590836 -0.30551708 0.027227405
-0.07796784 0.47307086 -0.41795412 -0.11333741 0.2652663 0.59789854 -0.22935052 0.46672785
-0.018191298 -0.21093042 0.25207177 -0.574523 -0.5089404 -0.16963178 -0.32115206 -0.13898113
0.74747527 -0.3690183 0.19068034 -0.063796625 0.30666018 0.32662815 -0.21878053 0.18469618
0.58718175 0.39450678 0.014662174 -0.25255018 0.024423897 0.98566645 -0.35426626 0.046739336
0.43638197 -0.875447 0.1025964 0.1100511 -0.3697763 0.022894958 -0.18967915 0.10059685
-0.65480417 0.08610612 -0.20009883 0.76476103 -0.06431307 0.23338994 0.29880622 0.15866631
0.1599852 -0.16191377 0.117840864 -0.48075894 -0.46661156 -0.015119191 0.15993047 -0.43696517
-0.55519676 -0.014006587 0.099859096 -0.09568769 -0.5622578 -0.2780219 0.5507596 0.24037425
0.71739835 0.14288552 -0.30045015 0.04302406 0.005022523 0.31834823 -0.12885648 -0.2973886
-0.14841834 -0.39309525 -0.43781137 0.13243584 0.5292771 0.35453346 0.15515451 0.22658704
-0.25127354 0.14781563 -0.039722126 0.16508879 -0.14192896 -0.06987403 0.13529009 -0.23895368
0.28444424 0.19441424 0.17024411 -0.017345557 -0.41200864 0.52659726 -0.26440963 0.37914816
-0.23422518 -0.015541749 0.20036413 0.44541156 0.48336062 -0.3198477 0.3179256 0.5603333
-0.22910796 0.31731164 -0.50450134 0.1151537 0.21707606 0.06397482 -0.41278854 0.27866313
0.18767187 -0.50076866 -0.59456336 -0.32503933 -0.20507735 0.27894947 0.6773979 0.42117903
-0.017452562 0.16411664 -0.18518165 -0.6308109 -0.37161067 0.0808014 0.0060087796 0.22140507
-0.11092841 0.25522056 0.036134582 0.13787474 0.10952582 -0.24567905 -0.23639706 -0.26831472
0.46395573 -0.012019268 0.043979507 -0.3683169 -0.07636028 -0.24352132 -0.39560288 -0.45874915
-0.11617634 0.22660202 -0.42384362 -0.18866812 0.22056095 -0.37865067 -0.22451618 -0.22589006
-0.17320545 -0.26210544 0.1256021 0.77304095 -0.354411 0.48469552 -0.41199675 0.08759262
-0.8547382 0.066261604 -0.5581986 -0.753349 -0.13412647 -0.5131498 0.37740403 0.05937735
0.16348518 0.120047644 -0.31256586 -0.02889161 0.034012612 0.21692179 0.043344025 0.25145563
0.18815199 0.36968282 0.7744131 -0.043843966 0.5714745 -0.9509178 -0.020814177 -0.48242792
-0.2357389 0.43317708 0.39001656 -0.085078426 -0.04108764 0.27248296 -0.019611696 0.81637275
-0.21198405 -0.67459667 -0.44817612 0.33638686 -0.7904874 -0.08085655 0.20852341 -0.38363045
0.36439106 -0.6730937 0.49071172 0.20534112 -0.0094483225 -0.5422044 -0.15962425 0.2505308
0.050944183 0.11132152 -0.7038221 0.31303468 0.5670472 0.8562565 -0.20232779 -0.04617051
0.27028316 0.042498246 -0.41354436 -0.41970968 0.12177682 0.12186904 -0.115934804 -0.15833007
0.14444414 0.33302128 -0.018772935 0.37034288 0.21236506 -0.59935683 0.3571958 0.0424969
-0.51528203 0.63667995 -0.6632852 0.50698906 0.52159595 0.123653956 0.6552683 0.36296216
-0.2091145 -0.1372714 0.3285109 0.4485918 -0.5073276 -0.3254573 0.5053765 0.2774169

network_body._body_endoder.seq_layers.0.bias f4 [128]
00000000: 6e64 c33d e28c 4c3d f625 77bd 798e a53c
00000010: f5d7 ba3c f2b4 cfbd fd1d 7f3e 1f4f ab3c
00000020: 4db9 d6bc 598f bc3d 9233 9abc 8620 0ebb
00000030: b1b7 91bd b501 8d3c 7929 223d 6572 20bd
00000040: 02a0 dbbc 38d7 86bd c552 ca3d d9a0 60bc
00000050: 8fa0 b13d 37bb e8bc 8bda d43c 1a6f 0d3e
00000060: 9057 26bd 576a 1fbe ca03 babc 7903 143e
00000070: 4062 5cbb d5a0 c1bc bb61 c43d 6307 e4bc
00000080: d1cf d1bd b005 203d 6930 0f3b 98bc ed3c
00000090: 4012 e23b e621 ad3c 38fd 8abd 169a 193d
000000a0: 490d 79bd 643b aa3c 0781 89bd 5d2a 843b
000000b0: a1c6 093d 7184 b33b 6a00 09be 6aa6 d5bd
000000c0: 4b5a 9e3d a71b 193e 6b90 92bb 258e b9bd
000000d0: 8d6f 193d a757 d73d eaaf 9abb f6ca 2d3b
000000e0: 832c cabc 46cc 9c3c 72ce 2f3d e754 4c3d
000000f0: 8e07 8e3a 7b13 de3d 175b 45be f861 ef3c
00000100: c160 803c d27d cf3d 3073 8b3c 900e 723d
00000110: d6bb 5fbd 2b7b 17be f8c8 aabc 7387 5fbd
00000120: b516 95bd d2e8 2abd 70c9 85bd bd33 43bd
00000130: b8b5 9fbd c10e 853d 96a8 ce3d ccd8 8d3d
00000140: cd22 7cbd 8ed5 e73c 5e5d 5a3b bd73 99bb
00000150: f243 eb3b 0ed7 1a3d 25c4 3a3d f9c0 4e3d
00000160: a066 54bd d7db 793c 40fd 90bd 1ede ebbd
00000170: c642 ee3d b16f 803c b696 b93d 2bee 99bd
00000180: 6cd2 d7bc 9585 9bbd 4650 dd3c 2f23 5cbd
00000190: 8cb4 b7bc deda 86bd 78d0 1b3e c31c debc
000001a0: 4f28 903d 635e e0bd e50e dabd f942 343d
000001b0: 463b babd 532e e9bd f70b 303d d4ac a23d
000001c0: 56f6 89bd 6ac5 7ebd cc72 1cbd 7389 4b3c
000001d0: f5e9 be3d d281 61bd 0f49 5c3c 8d0d 343d
000001e0: 1678 0bbd 8fed 8d3d aa78 5cbb 94b7 14be
000001f0: 2d64 813d dcd8 41bd 0eff 0a3c b806 b83d
0.0954064 0.049939044 -0.060338937 0.020209538 0.022808054 -0.101419345 0.24913783 0.020911751
-0.026211405 0.09207029 -0.018823419 -0.0021686866 -0.071151145 0.017212728 0.039590333 -0.039171595
-0.026809696 -0.065840185 0.09879068 -0.013710224 0.08673202 -0.028409583 0.025983116 0.13811913
-0.04061085 -0.15567909 -0.022706885 0.1445445 -0.0033627898 -0.023636261 0.09588953 -0.027835554
-0.10244716 0.039067924 0.0021848923 0.029020593 0.006899148 0.021134328 -0.06786579 0.037500463
-0.060803685 0.020780273 -0.06714063 0.0040333704 0.033636693 0.0054784347 -0.13379064 -0.104321316
0.07732066 0.14951955 -0.0044727824 -0.09060315 0.0374599 0.10514765 -0.0047206776 0.002651868
-0.024679428 0.019140374 0.04292149 0.049885657 0.0010835992 0.10843559 -0.1927303 0.02922152
0.015671136 0.1013142 0.0170227 0.05909592 -0.054622494 -0.14793079 -0.020847782 -0.054572534
-0.07279722 -0.04172594 -0.06532562 -0.047656763 -0.07798332 0.06496955 0.10090749 0.06926116
-0.061556626 0.028300073 0.0033319811 -0.0046829865 0.0071797306 0.03780275 0.045597214 0.050477
-0.051855683 0.015250168 -0.070795536 -0.11516975 0.1163383 0.015678259 0.09061949 -0.0751613
-0.026345454 -0.07593838 0.027015816 -0.05374449 -0.022424959 -0.06584714 0.15216243 -0.027113324
0.07038938 -0.10955503 -0.10647372 0.044009183 -0.09093337 -0.11385789 0.04298016 0.079431206
-0.06736438 -0.062199987 -0.038195416 0.012422907 0.093219675 -0.055055447 0.013445153 0.043958236
-0.03405007 0.06930076 -0.0033641257 -0.14523154 0.06317935 -0.047325954 0.008483661 0.089856565

network_body._body_endoder.seq_layers.2.weight f4 [128, 128]
00000000: 047e febd 31b2 ab3d 74b9 e3bc b66a f63d
00000010: be91 7d3c a372 013e 3936 473e e5c9 e6bd
00000020: ab16 de3c 08a6 183e cb62 b73d 59e9 4e3e
00000030: 0550 2b3e ef04 093d 93fc 953d 51eb c53d
00000040: ca36 47bd 2ddd 3b3e db57 3dbe 4b4c 63bc
00000050: 5e2e 3d3e f4f7 913b 1a04 233e 29e1 f1bd
00000060: a8f3 0c3e 1dbe e4b8 2977 773a e522 9c3d
00000070: ce55 93bd 8e74 9b3c 97bc 5e3e f30c 0ebe
00000080: 834b bc3c 3c3f 6f3e 6ffe 133e 1da4 883d
00000090: fa97 5b3e 981c 053e 13e7 15be edef 85bd
000000a0: 2d39 0cbe 2e2b 0f3d 3a2f cdbd cd82 b83c
000000b0: b226 2abe 75ee 093c 4514 77be d330 b23c
000000c0: 0c4c cf3c 106f 6abd b29a db3d 960a 9b3d
000000d0: cc84 ce3c 7ba9 2d3e 8138 563c d863 bc3d
000000e0: 97a3 4e3d 4dc3 ce3d 20b6 253d abe3 01be
000000f0: 940b 4c3d db00 033e 3dbf abbd 1097 b53d
00000100: 0bef dabd e30e e7bd 44f1 8f3e 7031 2abd
00000110: f9bb 923c 0bb1 de3d 1f41 3d3d 660e 1dbb
00000120: d950 09be 64c7 0f3e 5b8e 1cbe 66ab a23d
00000130: a79a efbd 387c ffbd 6be3 213e f95e 2ebd
00000140: 33f6 59bd c554 aa3b 6fd5 fc3d 8c41 543d
00000150: 1a36 353b 6940 83bc bc23 64bb 1b48 483e
00000160: 2db1 0f3c dbe0 fe3c 9adb 273d eb0a 72bb
00000170: 9c28 833e 62e0 6bbc b391 08be aaf6 b13d
00000180: fc52 e23c bf6d 67bd 2bb3 c3bc 89b9 df3d
00000190: f1c2 19bd abb9 a2bd b6bd 7bbd 1dc3 e43d
000001a0: cdf9 16bd 085b 343d 324d 063d f91c 033e
000001b0: bddc bfbc a396 1cbd 553b 82bd 83f8 e53d
000001c0: 78d0 a03d af10 e43d e4c7 a53d b75c f23b
000001d0: 5103 333e 5e13 a0bd f53e df3d 9afa 92bc
000001e0: d9d3 8c3c cab7 073e 001b 58bd 6636 abbd
000001f0: dd5f 003e 646a bdbd 6a5e cf3d fac5 793d
00000200: 6be5 6dbd 4847 903c e27c 94bd 7c61 4d3e
00000210: 3a78 56bd daaf 8b3d 5c06 d3bc e443 0b3d
00000220: b017 f5bd f5ef 29bd 0f35 4e3d b167 4c3d
00000230: 8207 bf3d 487b 3dbe 54cf 173e 1797 bf3d
00000240: 4861 42be 2daf 413d 7d4f 3cbe 7061 d7bd
00000250: fd5f 30bd d69e 6a3e f424 343c e94e fbbd
00000260: f829 cabd 5b5e c7bd 3c15 26be 906a 243d
00000270: 9f22 c2bd 5f10 9c3c 3c18 32bc 1f4a 183d
00000280: dfb7 2cbe 0ce2 48bd be8a 5e3e cb58 09bd
00000290: 3803 a8bd 54cf 703d e146 bebd beb0 4ebe
000002a0: e01f 473e 9f17 443d 727b 8ebd aee9 00be
000002b0: bd67 90bd 66cc c03d 68ce ce3c 4d2b b83d
000002c0: a5bb dcbd 7f12 14be b1e2 c1bd f4d6 0abe
000002d0: 811c 853d 421b 273d fd79 b23d 692f 913d
000002e0: 7e33 ccbd 928a b9bd 5aa1 923d f57e 8dbd
000002f0: 4d19 22bd 3050 14bd f6ae 1abe dc59 633e
00000300: c039 2a3b 7d70 95bd 6066 02bd b418 8d3c
00000310: a946 cbbd fd47 9ebd 6291 f7bd 1d49 073e
00000320: 79f3 07be 6376 38be cfcc 833c 3c1e 43bd
00000330: 919c 4ebc 425d 14bd a976 36bd 7b77 cdbd
00000340: efc8 3cbe a97c bebd 8f7a 9dbe 63c0 453b
00000350: 3d4b 32be 700d 9cbd 7b5d 843d 9bbe 36be
00000360: 6edc 58be b0fe 563d 4820 42bc 080a 30be
00000370: 81de b0bd 6606 5cbd 2509 86bc 3399 05be
00000380: b714 6f3d 2a7f f2bd e911 a3bc c6a5 563d
00000390: 0471 23be 1310 f5bd 9a12 c7bd d987 0a3e
000003a0: 79dd 033e d326 1dbb 0344 37bd b855 94bd
000003b0: 765c 05bd b48d 803c 84fe ad3d c906 a53d
000003c0: 3c5c 7a3d dfdc 01be e11d f5bc a7d2 a5bd
000003d0: 3b74 2b3e 5204 8abc a247 3bbe ff03 a2bc
000003e0: 570a 633e 940a 913d e115 f53c 50f4 9639
000003f0: aa92 c0bd dbaa dc3d 010e 33be 3660 19bd
-0.12426379 0.08383597 -0.027798392 0.12032072 0.015476642 0.12641387 0.19454278 -0.11268977
0.027110418 0.14907086 0.0895439 0.20206203 0.16729744 0.03345197 0.07323565 0.09664024
-0.048636235 0.1834609 -0.18490545 -0.01387317 0.18474719 0.004454607 0.15919533 -0.11810524
0.13764822 -0.000109072986 0.00094400585 0.07623843 -0.071941 0.018976476 0.21751629 -0.13872127
0.022985226 0.23363966 0.14452527 0.06671927 0.21444693 0.12999189 -0.14638929 -0.06539903
-0.13693686 0.03495329 -0.100187734 0.022523308 -0.16616324 0.008418669 -0.24128826 0.021751797
0.025304817 -0.057234824 0.10722865 0.075703785 0.025209807 0.16959183 0.013074995 0.09198731
0.05044898 0.100958444 0.04045689 -0.12684505 0.04981573 0.12793295 -0.08386085 0.088667035
-0.10690125 -0.11282136 0.2811376 -0.041551054 0.017911898 0.10873612 0.046204682 -0.002396488
-0.13409747 0.14040905 -0.1528868 0.07942848 -0.116994195 -0.12474865 0.1580941 -0.04257104
-0.05321331 0.0051980936 0.12345397 0.051820323 0.0027650655 -0.016021924 -0.0034811338 0.19558756
0.008770269 0.031113079 0.040980913 -0.0036932777 0.2561692 -0.014396759 -0.1333683 0.086896256
0.02762746 -0.056501146 -0.023889145 0.1092406 -0.037539426 -0.079455696 -0.06146022 0.111700274
-0.036859322 0.044032127 0.032788463 0.12804021 -0.023420686 -0.038229596 -0.06358973 0.112290405
0.07852262 0.11135995 0.08094767 0.0073963064 0.17481734 -0.07816194 0.1090068 -0.017941762
0.01719086 0.13253704 -0.052760124 -0.08359985 0.12536569 -0.09248808 0.1012543 0.06097982
-0.05808012 0.017612115 -0.07250382 0.20056719 -0.05236075 0.068206504 -0.025759868 0.034000292
-0.11967409 -0.041488606 0.05034357 0.049903575 0.09327604 -0.1850406 0.14825183 0.0935499
-0.18982422 0.0472862 -0.18389697 -0.105166316 -0.04306029 0.22912154 0.010995138 -0.1227091
-0.09871286 -0.09734794 -0.16219038 0.04014069 -0.0947926 0.019050775 -0.010870036 0.037180062
-0.16867016 -0.0490437 0.21732613 -0.033531945 -0.08203739 0.058791474 -0.09290863 -0.2018461
0.19445753 0.04787409 -0.06957139 -0.12589142 -0.070510365 0.09413986 0.025244907 0.08992634
-0.10777978 -0.1446018 -0.09467066 -0.1355856 0.06499577 0.04079748 0.08714674 0.07089121
-0.09970759 -0.09059633 0.071596816 -0.06908981 -0.03957491 -0.036209285 -0.15105805 0.22202247
0.0025974363 -0.07296846 -0.031835914 0.017223693 -0.09925587 -0.077285744 -0.120882764 0.13211484
-0.13276471 -0.18013911 0.016088871 -0.047636256 -0.0126105705 -0.03622175 -0.044546757 -0.10032555
-0.18436025 -0.09301121 -0.30757567 0.0030174486 -0.17411514 -0.076197505 0.064631425 -0.17846148
-0.21177837 0.052488983 -0.011848517 -0.17191327 -0.08636189 -0.05371704 -0.016361782 -0.13046722
0.058369365 -0.11840661 -0.019906001 0.052404188 -0.15961081 -0.119659565 -0.09720345 0.13528384
0.12877454 -0.002397944 -0.044742595 -0.07242912 -0.03255888 0.01569257 0.08495811 0.08057935
0.061123118 -0.12681912 -0.029921474 -0.08096819 0.16743557 -0.016847763 -0.18289044 -0.019777296
0.22171913 0.07082096 0.02991766 0.00028792256 -0.09402974 0.107747756 -0.17485811 -0.03744527

network_body._body_endoder.seq_layers.2.bias f4 [128]
00000000: 72f3 853d 1c00 913c d486 77bd e026 16bd
00000010: c798 4dbd c741 dc3d 55f8 e2bc f349 0a39
00000020: d3d0 44bd 03b7 45bd 90d2 7a3c 8fe5 36bc
00000030: f8b8 7fbd 7626 ceb9 0b71 8b3d e862 aa3d
00000040: ffa9 c23c 8ab6 d03d 7e81 bf3c 368e ad3d
00000050: aa58 cd3b 488a 093e a24a a7bd 59ae 023e
00000060: fea9 563d 4c1d a33d 5efa f9bc 4925 ae3d
00000070: 40ad f33d 8cb3 a6bc 9652 98bc 9636 bd3d
00000080: ed1a 5b3d 4dbd 223d 7d50 e73c c2a4 1fbd
00000090: 0cec d83d 76dc 6c3d a11e 983d 769d 9f3c
000000a0: f85c 8abb 41b0 a03d fba7 a23d 588c 97bc
000000b0: 0723 503d 98bb 243d 70f0 84bd 1b71 083d
000000c0: 71e5 a3bd eeb6 093d 870a 17bd 557c 01bb
000000d0: f5cd 1ebd f12a 9a3d ed85 f4bd 4532 30bd
000000e0: c71c b73c d241 78bc 3416 d43d 8602 d53d
000000f0: 0b20 d83c c36a 25bc c28d 783d cd2b 37bd
00000100: eb27 193d 9dcf cdbd 9f5d 523d 15e5 6abd
00000110: c99e ca3c 4037 9f3d 5ba5 963d 329c 05bd
00000120: b3f1 2bbc 44f1 193e 87f8 c5bc 638a 93ba
00000130: 2641 ed3d acc1 cd3b a5ad 9e3d f66f fb3c
00000140: fa6f 9d3d 5f43 a1bb b336 bc3d ea86 2dbd
00000150: fc2c af3d a3ca 963c 176e f0bc ba96 2b3d
00000160: 27ae 21bc 79ee 033e d11e 36bd c49b 14bd
00000170: b9eb b13c cc76 86bd 5402 2f3c f36a 343d
00000180: 9df9 ab3d c0b6 60bd 87e6 e0bc 3413 06bd
00000190: 79ab fabc a88a 113e e572 2e3d 15c4 f53c
000001a0: ecb4 a33d 3d6a 79bc 4e43 1b3c 1ce1 a53d
000001b0: 6f2a dbbc b612 eebc e1b5 7a3d 0b95 9f3d
000001c0: e820 a23b 316c 5b3d eb11 da3d a1cf 99bd
000001d0: 922c 98bb aa18 b73d 71cb bfbd d53d e8bb
000001e0: c7cc 9b3b fac4 223d 6c87 ad3d a6e9 093d
000001f0: 8fc0 793d acb7 8b3d c93d 1e3c 0731 d23d
0.06540574 0.017700247 -0.060431316 -0.036658168 -0.050194528 0.107547335 -0.027706305 0.00013188254
-0.048050713 -0.048270237 0.015308991 -0.0111631295 -0.06243226 -0.00039320037 0.068086706 0.08319646
0.023762701 0.101910666 0.023377176 0.0847439 0.006266673 0.13431656 -0.08168532 0.12761821
0.05240821 0.07964572 -0.030514892 0.08503205 0.11898279 -0.020349286 -0.018594068 0.09238927
0.053492475 0.039731313 0.028236622 -0.038975485 0.10591897 0.057827435 0.07427717 0.019484263
-0.0042225085 0.07846118 0.07942196 -0.018499538 0.050814655 0.040217966 -0.06491172 0.03331099
-0.08002747 0.03362172 -0.036875274 -0.0019757946 -0.038770635 0.07527722 -0.11939607 -0.04301669
0.02235259 -0.015152412 0.103557974 0.10400872 0.026382467 -0.010096255 0.060682066 -0.044719506
0.037391584 -0.10049365 0.051358815 -0.057347376 0.024733918 0.0777421 0.07355758 -0.032619663
-0.010494637 0.15033442 -0.024166359 -0.0011256452 0.11584692 0.006279191 0.07747964 0.030693036
0.076873735 -0.0049213613 0.091901205 -0.042364992 0.08553502 0.018407172 -0.02934937 0.04189179
-0.009868181 0.12883939 -0.044462983 -0.036281362 0.021718847 -0.065656275 0.010681707 0.044047307
0.08397219 -0.054861784 -0.027453674 -0.032733157 -0.030599343 0.1421305 0.04259004 0.030000726
0.079934925 -0.015223083 0.009476496 0.08099577 -0.026753632 -0.029061656 0.06120861 0.077920996
0.0049477704 0.053569976 0.10647949 -0.07510305 -0.004643985 0.08940251 -0.09364975 -0.007087449
0.004754636 0.039738633 0.08473095 0.03367009 0.060974654 0.06822142 0.009658285 0.102632575

action_model._continuous_distribution.log_sigma f4 [1, 2]
00000000: 8f41 14bf 8cd3 0cbf
-0.57912534 -0.55010295

action_model._continuous_distribution.mu.weight f4 [2, 128]
00000000: c1c2 d4bd b4a9 ddbb 05a5 c4bb 019f bf3d
00000010: 9e72 55bd 104e a0bd d1f4 9dba c156 ffbc
00000020: c16f 1abd e7cd 56bd 8879 b93c 993a 70bc
00000030: c87b 39bb 0bfe d63d 949d 57bd 10d8 ea3d
00000040: b7f8 3fbd 8e2f 603d d9f7 afbd 0b09 1ebd
00000050: 2dd9 77bd 4bbb cebd 6cf7 90bc 4474 8c3c
00000060: 4a72 eebc e98b 42b8 e774 aabc 6c60 013d
00000070: 476d c5bd 1036 3c3c 55b9 a43d 1c06 a23d
00000080: f3ed ddbd 8d26 9f3c 517a 9fbd 8c53 5fbd
00000090: 39fa c1bd 1a6e 373d bd90 f0bc fa88 abbd
000000a0: 5d3b b63c b6cf 27bd 6459 9ebc 4d5c c53d
000000b0: fb43 a8bd f02e 83bb efc3 b3bb a0c1 d53d
000000c0: d118 e5bc 0111 c43d c8e8 e3bc 8429 313d
000000d0: ec57 a1bd 9f77 fc3d 3bb0 383c 3268 3bbc
000000e0: 5b58 a73d 7330 59bd f2da f93d 55ab 423c
000000f0: 8932 a7bd 9847 79bd 9309 e5bd 7c75 413d
00000100: 7a75 b43d 8623 95bd c203 9f3c cae5 38bd
00000110: 7777 c73c 9b1f a13d 38a0 ac3d 0b0c 7abd
00000120: fd90 963d 7d21 39bd fc8c d63c 6d49 7dbd
00000130: 527f 8dbd 0140 e13d 429b 4c3c db41 8bbd
00000140: 1753 d1bc 9bc3 17bc 8c06 49bd 161a 7dbc
00000150: 4e20 0a3c d47c 893d 14ab 3f3d 363d 88bd
00000160: 3488 e3bd 52dd 14be 1788 0bbd c277 d03c
00000170: 3a85 d53d 881f bd3d 3231 023d f6fb 303d
00000180: 7211 fbbd bb26 19bd 97de 8c3d f414 cfbc
00000190: 7f67 7f3d ce35 1b3d 7a70 373c 208e a6bd
000001a0: 46cf 613d f930 8bbc ebf6 933d 3b42 7dbd
000001b0: 7bdb c63d 028a efbd a122 cebb 124c fd3d
000001c0: 1a11 aebd 409d cb3d 667e 12be 14f0 1839
000001d0: 1d12 4c3d ebac 0d3e 7050 ec3b 5f6d 023e
000001e0: 9922 153d ab9e 813d 7720 b5bc 42d0 113d
000001f0: 5a8a 0cbd 51c2 c9bd 9b4b a83d 3844 ad39
00000200: df75 31bd 2cad 04bd 1aa8 cb3c 9ebb ac3c
00000210: 8ebf 563c 3154 283e 34f1 4a3d 96f7 7d3c
00000220: f6f3 533d 168d 0fbd 1cb0 85bc 6b70 8abb
00000230: 576e 4e3d 444c 713c 6e96 b0bd a24d 1c3d
00000240: 0dca 13bc 2804 013e 31f6 8bbd f7d2 acbd
00000250: fcfd 08bd 598f 083e 5e85 573c 5210 03be
00000260: 6c1e c03d 33af a2bd 6e00 3f3c e5ea b1bd
00000270: d8c9 b6bd 20e4 8a3c 1bc4 493c e3aa a13d
00000280: d8bd bebd 5229 b53d 0f01 2c3d 2c4a 543d
00000290: dd14 f53d e010 523d f4b9 98bd d661 1b3d
000002a0: 54e2 0d3c 5794 ef3d 1995 d93d 83a1 4e3b
000002b0: 05dc a53d 83fa e63d 9174 9a3d 58ea 6d3d
000002c0: 3729 973c 310f 953b dd95 003c d37b 313d
000002d0: bb92 6c3d 3f77 23bd cadd 6a3d 733b e63c
000002e0: 184b b83b 6990 823d d1f5 22bd 58ed d5bd
000002f0: e8b3 9abd 4d1a 00bd b3c6 3b3d 4ecb 73bc
00000300: c7c9 2c3c cd40 33bd 016d 33bd 092f 0a3d
00000310: deac 0bbd 4424 a3bc 95f6 11bd f761 183e
00000320: 4cb2 eeba 54ac e8bd 288b 1eba 3514 6e3c
00000330: b23b c6bd c621 253c 8fcf 49bd fabf bf3c
00000340: e281 b5bc 2001 793d b9a7 9cbd aada b73c
00000350: 2d28 853d 1f5a c53d 0a2f cfba 4af7 cabd
00000360: 2859 0c3d 696a 8fbc 2133 3cbd af85 633d
00000370: 1fe3 183d 3e6e 7fbd 9312 113d bf66 dd3c
00000380: ed53 88ba 4250 08bc 0804 e43b 82ae 603c
00000390: 4b24 883c 753d a1bd a657 18bd 0e44 b73d
000003a0: 6c92 74bd 5673 e1bc d8b1 073d 09e4 e6bd
000003b0: 29d6 163d 071a e13d 6c8a 083e 12e4 a53d
000003c0: a6a4 dfbb 15a0 9cbd 6931 9f3c 1278 fc3c
000003d0: e904 5f3d 41e9 32bc 07b1 b33c 29f8 6f3c
000003e0: 057a 8ebb 0d0f 41bd 47c9 9fbd 5407 debb
000003f0: 5fe5 b53d 16f5 c53d e863 c03d a8a2 c9bd
-0.10388709 -0.006764615 -0.006001117 0.093564995 -0.05211126 -0.07827389 -0.001205111 -0.031169297
-0.037704233 -0.052442458 0.022640958 -0.014662408 -0.002830254 0.104976736 -0.052640513 0.11466992
-0.046868052 0.05473285 -0.08592195 -0.038582843 -0.06050985 -0.10094317 -0.017696105 0.017145284
-0.029107232 -4.6383506e-05 -0.020807697 0.031586096 -0.096399836 0.011487499 0.08043162 0.079113215
-0.10836401 0.019427562 -0.07787002 -0.054523036 -0.09471554 0.044782735 -0.029365892 -0.083757356
0.022245103 -0.040969573 -0.019329734 0.096367456 -0.08216091 -0.004003398 -0.0054860036 0.10437322
-0.027965935 0.09573556 -0.02782096 0.043252483 -0.07878098 0.123275034 0.011272485 -0.011438416
0.08171149 -0.05302472 0.12199964 0.011881669 -0.08163936 -0.060859293 -0.11183467 0.047231182
0.088114694 -0.07282166 0.019410972 -0.04514102 0.024348957 0.078673564 0.08428997 -0.06104664
0.07351873 -0.045197953 0.026190273 -0.061837602 -0.0690905 0.10998536 0.012488188 -0.0679967
-0.025552316 -0.009262945 -0.04907851 -0.015448114 0.008430554 0.06713262 0.046794012 -0.066523
-0.11109963 -0.14537552 -0.034065332 0.02544773 0.104258016 0.0923453 0.031785198 0.04320904
-0.12259187 -0.037390452 0.06878393 -0.025278546 0.06235456 0.03789311 0.01119625 -0.08132577
0.055129312 -0.016991125 0.0722483 -0.06183074 0.09709831 -0.11696245 -0.006290749 0.12368025
-0.084993556 0.099421024 -0.1430603 0.00014585286 0.04982196 0.13835494 0.0072117373 0.12737034
0.036409948 0.06329092 -0.022110207 0.035599 -0.03431163 -0.09851516 0.082175456 0.00033047958
-0.0433253 -0.032391712 0.02486043 0.021085557 0.013107194 0.16438366 0.049546435 0.015500924
0.05174633 -0.03504666 -0.016319327 -0.004224827 0.050398197 0.014727656 -0.08622442 0.038159974
-0.009020341 0.12599242 -0.06834067 -0.08438676 -0.033445343 0.13335933 0.013154356 -0.12799194
0.093808025 -0.07943573 0.011657817 -0.08687381 -0.089252174 0.016954482 0.012314822 0.07893922
-0.093135536 0.08845772 0.041993197 0.05182855 0.1196687 0.051285625 -0.07457343 0.0379351
0.008659918 0.116982155 0.10624141 0.0031529374 0.08098606 0.1127825 0.075417645 0.058084816
0.01845227 0.00454893 0.00784823 0.04333098 0.05775712 -0.039908644 0.05734042 0.02810452
0.0056241862 0.063752 -0.03978521 -0.1044566 -0.07553846 -0.031275082 0.04584379 -0.014880015
0.010546154 -0.04376297 -0.043805126 0.033736262 -0.034100406 -0.019914754 -0.03563555 0.1488112
-0.0018211096 -0.11360994 -0.00060479576 0.014531185 -0.09679355 0.010078853 -0.04927021 0.023406971
-0.02215666 0.06079209 -0.07649178 0.022443134 0.065018035 0.0963633 -0.0015806865 -0.09910448
0.034264714 -0.017506795 -0.045947198 0.055547412 0.037325975 -0.062360995 0.035418104 0.027026532
-0.0010400988 -0.008319916 0.0069584884 0.013713481 0.016618868 -0.0787305 -0.037192963 0.08948527
-0.05970995 -0.027520817 0.03312859 -0.11273963 0.036825333 0.109912924 0.13334054 0.081001416
-0.0068250475 -0.07647721 0.01943274 0.030818973 0.054448042 -0.01091987 0.021935 0.014646568
-0.004348042 -0.047133494 -0.078020625 -0.006775776 0.0888164 0.09665887 0.093940556 -0.09845477

action_model._continuous_distribution.mu.bias f4 [2]
00000000: 191e d9bc 92be 1dbd
-0.02650361 -0.03851182

exp_avg f4 [128, 8]
00000000: c52b ea3b 26dd 9abb 5f1b b8bc 849f 5abc
00000010: 42b2 95bb c523 afbb 6e0a 2c3d 9360 0dbd
00000020: 3e05 043c d3bc 24bb cbd4 bebb 420e 683c
00000030: ec94 30bb 8618 fbbb e508 0f3c 6ffa 0ebc
00000040: 1f0b 91bc 9794 433b f97d a8bc 1818 61bd
00000050: 24cd 663b fbeb a43c 2ff6 ba3c 9f24 0bbd
00000060: a867 363c 4cf9 1dbb 52d5 c2bb 43f4 7f3a
00000070: 920c 16bb 5334 04bc 4d93 4f3c 225a 9fbc
00000080: 33ef 793c 1883 85bb 7824 e4bb fa44 103c
00000090: ff1b 84bb ddf7 7ebc 4597 c63c ea0e b1bc
000000a0: ec95 7d3b dbdf 55ba 6efb 27bb 34d0 3fbb
000000b0: ba22 44ba 014d d4ba 542b e33a 9d23 32ba
000000c0: a6d5 43bc 7523 783b 131c 483b 5576 f7bb
000000d0: 05b8 753b 96ba 963c e4cd 8fbd a7d2 9c3d
000000e0: 7dd3 64bd 4e8e 043c 28b2 57bc d322 abbc
000000f0: ca4a 093c 0b7e f83c 674b ab3c 7765 f9bc
00000100: 69e7 863c fb98 99ba f0c1 f9bb f4a6 56bc
00000110: 6fee 99ba 04fd 0c3c e188 b9bb ff3b 903c
00000120: c4ea 8b3b 6dae e9ba 5169 fcbb b737 5cbc
00000130: 4f32 e0ba 2ada d53a 07a5 0abb 51e5 6b3a
00000140: 89e4 f5bc f3f2 633b 13c8 ab3c f306 ee3c
00000150: 49ce 583b b518 a83b 05a0 a13c b470 bfbc
00000160: 664f 7d3d e540 1abc 07bf 03bd ab10 3bbd
00000170: 19b8 1bbc dc56 153b 5c7b 63bd 624e 3a3d
00000180: 4bc0 253b cd4b 72ba 4426 b4bb 1da8 3f3b
00000190: 820a 68ba 989b 58bb 3cdd fdbb 4fd5 463b
000001a0: b293 5d3d 5ad7 b3bb b0d3 a1bc b746 6abd
000001b0: 313f b3bb 7e17 8e3c 4c3e 76bd a2ab 863d
000001c0: 7b85 09ba 9be1 0cb9 c5ac 54bb bd65 e13b
000001d0: ba66 43b9 3978 9639 2b3a 16bc f43e d13b
000001e0: 88c1 ab3c 9ebc 85bb c66c 9f3c eebc 0a3d
000001f0: d595 8cbb 7a8e c6bc 8c69 c9bb 9388 da3b
00000200: ced0 08bc a893 353a 5ee7 a3bc d0db 11bd
00000210: 2683 8b3a f66b e73b 171d d43c 9cf1 44bd
00000220: e887 223d 5f04 b0bb ea83 07bd 0812 40bd
00000230: 8537 b1bb 0637 843c 05b3 8dbd 1e27 383d
00000240: 1813 acbc a124 393b 58d5 d1bc affc 7abd
00000250: 3b1f 6c3b 5e66 bd3c 76b0 dbba adee 69ba
00000260: 09a4 c6ba 979c cc39 3e93 ed39 c37f 163a
00000270: ce69 d039 4874 ffba 83aa 70bb 18bd 923b
00000280: fd61 78bd 9cd5 263c 7839 3dbd 4a0f 32bd
00000290: 4f90 273c 72ed 693d 00a8 bebd 7b1e 853d
000002a0: 2e25 a8bb f5cd 903a e6d7 683b 3f81 583a
000002b0: 732d 953a a7c7 4c3a d930 833c e3e9 83bc
000002c0: bfba 933c 403c cbbb af7e e5bb dbe3 473c
000002d0: fc3d d0bb f4c6 81bc 1c3f 3fbc b6e5 fabb
000002e0: 25ee 933d 702a edbb 6bec 32bd 8fc3 a2bd
000002f0: 4e60 eabb 2855 8e3c 2931 cabd e60e a23d
00000300: d864 e53b 19cf 543a 5674 843c 1f40 4d3c
00000310: ebff 543a b8d9 08bc cd53 debc 29b1 073d
00000320: 44b0 893c ff3a 2ebb bbb8 38bc 35c8 84bc
00000330: ee22 31bb 517e 9b3a 30b4 81bc 248a 2e3c
00000340: 6fe8 213c 269f d23a 521a f33b 5b0f 90bc
00000350: 3d6f d83a e43d de3b 23da 91bc b010 b83c
00000360: 031d 583c 49af 69bb a815 893c 9fb6 ee3c
00000370: 0933 85bb cdbc 9ebc e799 68bc de20 ae3c
00000380: 83c0 c93b 2d88 96ba 9f51 96ba 8aa8 57bc
00000390: 25b0 83ba 67b5 083a d618 963c 13f9 36bc
000003a0: aca8 f03c 0d09 80bb 66fe bebc 1266 1abd
000003b0: 9e37 80bb b1af c33b 6f2b 1abd 6599 183d
000003c0: 6fc6 0abc 360d 9d3a 6ffb 523d 4752 9a3d
000003d0: e4e4 863a e5bc eebc 0300 663c 637c d73b
000003e0: fba7 c53c eba8 21bb 5391 84bc 25c7 debc
000003f0: 7432 21bb 94d4 2e3c bca1 e1bc 6132 0d3d
0.007146331 -0.00472607 -0.022473989 -0.013343696 -0.004568369 -0.00534484 0.042002134 -0.03451593
0.00805789 -0.0025136962 -0.0058237067 0.014163556 -0.0026944233 -0.0076628355 0.008730148 -0.0087267
-0.017705498 0.0029843205 -0.020567881 -0.05495462 0.0035217488 0.020132056 0.022822468 -0.03397047
0.011133112 -0.0024104891 -0.00594584 0.0009763876 -0.0022895676 -0.008069116 0.012669397 -0.019452158
0.015254783 -0.0040744655 -0.006962355 0.008805508 -0.0040316577 -0.015562025 0.024242053 -0.021613557
0.0038694097 -0.0008158662 -0.0025632042 -0.0029268386 -0.00074819813 -0.0016197265 0.0017331638 -0.0006795468
-0.011952793 0.003786293 0.0030534312 -0.007551948 0.0037493717 0.018399518 -0.070216924 0.07657366
-0.055865753 0.008090569 -0.013165034 -0.020890629 0.0083796475 0.03033354 0.020909978 -0.03044389
0.016467767 -0.0011718565 -0.007621996 -0.013101328 -0.0011744032 0.0086052455 -0.005662069 0.017606733
0.0042699296 -0.0017828472 -0.0077029844 -0.013441018 -0.0017104837 0.0016315628 -0.0021155493 0.00089987094
-0.0300162 0.003478226 0.020969426 0.029056048 0.003308194 0.0051298984 0.019729624 -0.02336917
0.0618433 -0.009414886 -0.0321646 -0.045670193 -0.0095043415 0.0022787368 -0.055537567 0.045484908
0.0025291617 -0.00092428626 -0.0054977257 0.002924449 -0.00088516634 -0.0033051725 -0.0077473205 0.0030339544
0.05409593 -0.0054883184 -0.01975426 -0.057196345 -0.0054701795 0.017345186 -0.060118005 0.06575705
-0.00052460254 -0.00013435485 -0.0032451611 0.006878583 -0.00018634918 0.00028699802 -0.009169142 0.0063856784
0.020966306 -0.004081323 0.019461047 0.033871584 -0.0042903223 -0.02423786 -0.0061466154 0.006669113
-0.008350564 0.00069266045 -0.020007785 -0.03561002 0.0010643944 0.0070624305 0.025892777 -0.04808198
0.03968039 -0.005371615 -0.033084787 -0.046892196 -0.00540823 0.016139518 -0.06918911 0.04495918
-0.021005198 0.0028250592 -0.025614426 -0.061276134 0.0036029357 0.023120102 -0.0016760963 -0.000892381
-0.0015155087 0.0003902658 0.00045313867 0.0005741084 0.00039751682 -0.001948961 -0.0036722727 0.004478108
-0.060640324 0.010182764 -0.046197385 -0.043471612 0.010227277 0.05711121 -0.09309387 0.06499954
-0.0051313853 0.0011047708 0.0035529076 0.0008259005 0.0011381343 0.0007811733 0.016014503 -0.016102737
0.018033383 -0.0062022507 -0.0070036273 0.012200321 -0.0063550454 -0.015841939 -0.011672761 -0.007656778
0.07223157 -0.007237725 -0.043682497 -0.07947456 -0.0071525937 0.01737459 -0.09872658 0.07912998
0.007000547 0.0008118018 0.016168755 0.012527495 0.0008125293 -0.008352689 -0.027139569 0.033127937
0.016807683 -0.0026585457 -0.011274512 -0.016208747 -0.0027028876 0.0011863207 -0.01583299 0.0106530525
0.009882077 0.0016069158 0.007418909 -0.017585447 0.0016512644 0.0067822803 -0.017804211 0.022468895
0.013190511 -0.0035657457 0.01673396 0.029139815 -0.0040649218 -0.019377137 -0.014196849 0.021255907
0.0061569824 -0.0011484675 -0.0011468417 -0.013162741 -0.0010047002 0.00052150193 0.01832239 -0.011167782
0.029377304 -0.003907329 -0.023314666 -0.037694998 -0.00391288 0.005971872 -0.037639078 0.037255663
-0.008470162 0.0011982087 0.051509317 0.075352244 0.0010291603 -0.029142806 0.014038089 0.0065761073
0.02412795 -0.0024667333 -0.016182577 -0.027194569 -0.0024596723 0.0106708 -0.027542941 0.034471873

exp_avg_sq f4 [128, 8]
00000000: a74a 863c 191d 433a 42e6 8e3c 6279 e53c
00000010: 76b5 443a 45e4 d33c a9bb 373d 679a e73c
00000020: 804b 273c b8bf 0b3a 0f6b 353c 8772 c03c
00000030: 48eb 083a 81e3 983c 8b14 a73c a8a1 b03c
00000040: 55b5 313c a9f8 163a 28a3 503c 9fd6 f53c
00000050: 5934 123a 352f 953c 18d2 0b3d 16b5 703c
00000060: 5423 bc3b f9a4 9e39 c689 c23b b730 403c
00000070: fd39 9f39 d388 3f3c 9c45 793c 3e75 3a3c
00000080: 6509 0d3c 9da8 c839 d230 063c 97ea 603c
00000090: 6e96 c839 181f 773c 781c 9b3c 6e8d 823c
000000a0: 7d1a 4d3a 5eed ff37 eb25 133a 9792 913a
000000b0: 1d0b fb37 25bd 973a 2e06 db3a 1d52 4d3a
000000c0: 7a4e e13c 787a af3a 1dc0 d93c 0d89 803d
000000d0: 530d b23a d5c4 123d 661e bd3d 6844 c63d
000000e0: 4967 0a3c 28d0 c439 3957 053c 3f44 a43c
000000f0: 99ac c139 5bcb 383c fc3a 133d 3082 0f3d
00000100: 7171 b63b 1f5b 8939 825b b43b e55e 4a3c
00000110: 54c4 8739 ac3b b23b 6240 843c c58c 8e3c
00000120: 29ad 033c 5cc8 c939 a099 c73b 63ec a13c
00000130: 0986 cb39 2523 193c cec2 d33c 238e a33c
00000140: b034 493c 46b9 2d3a be33 243c c639 fc3c
00000150: c2b9 293a f0ee 833c cb63 033d 88e5 ef3c
00000160: eeb4 5d3c 1263 3c3a 4318 393c 4cbc 3b3d
00000170: 74f9 403a aea9 753c b6c4 4e3d 5ceb 4e3d
00000180: a163 473b 8999 1d39 1798 163b 9f8c 9a3b
00000190: dd44 1b39 4111 013c 3c29 b33b f078 e93b
000001a0: 883d 873c f06a 4d3a 0b8f 6f3c c051 1e3d
000001b0: 55cb 4c3a f82a b23c a369 2d3d add7 403d
000001c0: dd6e 163b c7c9 0639 3a74 333b ae68 a63b
000001d0: 8dc4 0839 e100 9e3b 7cd8 a53b 8a98 7e3b
000001e0: 959f e13b 2ddc a939 ab81 bb3b 5efe 6a3c
000001f0: 818f a639 bc9c 303c 9f78 393c 0c01 763c
00000200: a2da 383c c4f2 193a fe95 6b3c a6dc d53c
00000210: 4ea2 173a 614f b23c d924 063d 4e07 9b3c
00000220: d0fc 063c 40d1 df39 bdad ec3b 67ec d33c
00000230: 979c e139 3427 443c 25a1 f33c 8a4e d73c
00000240: cfe4 dd3c c8da c13a e9c1 fd3c b74f 8e3d
00000250: 2672 bc3a b53f 3e3d 00d4 c93d 505d 563d
00000260: 8e72 2e3a cc11 ed37 44cd 353a a417 af3a
00000270: a6bb f837 c44c 213a b557 c53a 5329 ad3a
00000280: e3cf 083d a209 bb3a 0021 cb3c 6711 2d3d
00000290: 33ed b23a aa91 7d3d 0140 a73d 9f86 5b3d
000002a0: f691 023a c1b8 cc37 792f 023a 14bd 8d3a
000002b0: c7f7 c937 aa9d 533a 04f2 b33a e49a 8c3a
000002c0: b92a 473c cd5c 1b3a 09cd 2a3c 4aea c53c
000002d0: 6e61 1a3a 0327 893c 5f2c c13c 7a08 e33c
000002e0: bf8f 033d 56de db3a 5920 fd3c 9301 b63d
000002f0: 3496 d93a 5184 213d 3b87 d63d 3841 9d3d
00000300: e324 263b aa9e 0039 2fc0 353b 6b6f 823b
00000310: c29f fd38 6624 9e3b d37b 933b 701e 9b3b
00000320: b1db b43a 3db2 9e38 4da7 a33a 473d 9d3b
00000330: 6317 a438 7f65 bf3a e1d4 a93b ef2d b03b
00000340: 2f48 d23b 41c2 a639 950f f63b 002a 623c
00000350: d1f9 a539 5817 083c b25b 323c b88d 593c
00000360: a357 0d3d 59c1 de3a 8166 023d e92c 983d
00000370: 913e db3a 2480 573d aab4 c53d 1fe8 b53d
00000380: 2ec1 673b c72d 4639 048f a63b e04e 113c
00000390: c93d 4739 ad35 cf3b 0b2c 633c 3368 f53b
000003a0: ff87 aa3b e65d 9739 bf28 873b 6145 8d3c
000003b0: 15bb 9639 d7fa db3b bc25 8b3c b5c8 753c
000003c0: 4f7c 9b3c 14ae 893a c489 9d3c d1c6 5a3d
000003d0: eb60 8a3a 3f87 023d c523 6d3d fc18 753d
000003e0: fbd2 dc3b e8ba 9639 79e1 a63b 3865 703c
000003f0: 3369 9539 adae c23b a881 ad3c c7a6 9c3c
0.016393019 0.00074429956 0.01744378 0.028011981 0.00075038464 0.025865683 0.0448567 0.028271867
0.010210872 0.00053309975 0.011072888 0.02349211 0.0005223048 0.01866317 0.020395538 0.021561459
0.010846456 0.0005759099 0.012734212 0.030009566 0.00055772584 0.018210987 0.034135908 0.014691612
0.005741516 0.00030259023 0.005936834 0.0117303645 0.00030370048 0.011690336 0.01521435 0.011380492
0.008608197 0.000382726 0.008190351 0.013727806 0.00038259052 0.015083097 0.018934473 0.01593658
0.00078240765 3.0508902e-05 0.0005613255 0.0011106309 2.9926707e-05 0.0011576755 0.0016710216 0.0007832365
0.02750324 0.0013387939 0.026580865 0.0627614 0.0013584293 0.035832245 0.09234314 0.09681016
0.008447477 0.00037539122 0.008138471 0.020052074 0.00036940424 0.0112789525 0.035944924 0.035036266
0.0055677225 0.00026198567 0.0055040726 0.012351726 0.00025895482 0.0054392423 0.016143981 0.017401109
0.00803689 0.00038486987 0.0060913116 0.019766038 0.0003881904 0.009346758 0.025849726 0.019965237
0.012280628 0.0006627034 0.010022102 0.030789267 0.00064745184 0.016105145 0.032077592 0.029284254
0.0135319065 0.00071863935 0.011297288 0.04583387 0.000736139 0.014994068 0.050480567 0.050517425
0.0030424374 0.00015029883 0.0022978836 0.0047164704 0.00014807605 0.007877649 0.005467562 0.0071250126
0.016508833 0.00078360643 0.014621506 0.03865218 0.0007812281 0.021749005 0.04233707 0.047080684
0.0022954263 0.00012854404 0.002738251 0.0050783968 0.00013043192 0.004821882 0.0050612073 0.0038848245
0.0068854787 0.00032398236 0.0057222447 0.014342872 0.00031768906 0.010779556 0.011320262 0.015014898
0.011282595 0.0005872662 0.014379023 0.02610619 0.0005784378 0.021766366 0.032749984 0.018924382
0.008238986 0.00042689778 0.0072228597 0.025869561 0.00043032013 0.011972237 0.029739926 0.026282568
0.027086644 0.0014789933 0.030976253 0.06948798 0.0014377281 0.046447475 0.09854889 0.052335083
0.0006654643 2.8260889e-05 0.0006935189 0.0013358486 2.9651284e-05 0.00061531016 0.0015056046 0.0013211168
0.03340138 0.0014269839 0.024796009 0.042252924 0.0013651013 0.061906494 0.08166505 0.05359518
0.00049808563 2.4404728e-05 0.00049661804 0.0010813796 2.4076448e-05 0.0008072505 0.0013728742 0.0010727313
0.012156182 0.0005926609 0.010424861 0.02415957 0.0005889152 0.016742235 0.023580728 0.027714003
0.03211951 0.0016774635 0.030899214 0.08887019 0.001660055 0.039432827 0.10475012 0.07678455
0.0025351576 0.00012266138 0.0027732959 0.003980567 0.00012093737 0.0048261164 0.004500845 0.004733853
0.0013798383 7.5672266e-05 0.0012485773 0.0047985646 7.8244855e-05 0.0014602392 0.005182848 0.0053765695
0.0064172964 0.00031806718 0.0075091817 0.013803959 0.0003165738 0.008306347 0.01088612 0.013278417
0.034507405 0.0016994878 0.031836037 0.07430441 0.001672702 0.05261244 0.096535996 0.08882164
0.0035362947 0.00018899805 0.0050829668 0.008868903 0.00019001136 0.0063235373 0.013865481 0.007489228
0.0052042003 0.00028870924 0.0041247304 0.017244997 0.00028749616 0.006713252 0.016985767 0.015001466
0.018980173 0.001050415 0.01923073 0.053412262 0.0010557448 0.031867262 0.05789544 0.05983828
0.006739018 0.00028749486 0.0050927964 0.01467257 0.00028497874 0.005941233 0.021179989 0.019122494

exp_avg f4 [128]
00000000: 27dd 1abc d3bc a4bb 9994 c33b 4cf9 9dbb
00000010: 1783 05bc dbdf d5ba 7423 f83b 4e8e 843c
00000020: fb98 19bb 6cae 69bb f3f2 e33b e540 9abc
00000030: c54b f2ba 5dd7 33bc 9be1 8cb9 9dbc 05bc
00000040: a893 b53a 5e04 30bc a224 b93b 969c 4c3a
00000050: 9dd5 a63c f5cd 103b 403c 4bbc 722a 6dbc
00000060: 14cf d43a ff3a aebb 249f 523b 4baf e9bb
00000070: 2e88 16bb 0d09 00bc 360d 1d3b eba8 a1bb
00000080: 68c5 9eba c7a8 36bc 0eae 8fbb 3ba2 133a
00000090: b685 b6bb ba36 78bb 3de2 0fbc 5a66 a8bc
000000a0: 4b44 703b ec18 84b9 25a4 9bbb 753b 08ba
000000b0: 6f6c 51b9 690d 81ba d2a3 a6b8 9d42 bd39
000000c0: ff11 50bc 8eb0 863b 273e 34bc f124 1c3b
000000d0: 7c40 0bbc 8758 66bc 52af f23a 6638 e9ba
000000e0: c347 2fbb 4fc3 f7bb ce10 24bc 7b88 90ba
000000f0: c250 8abc a2fe aabc af7b 4fba ac8b 90bb
00000100: e775 863b 3e25 62bc fe3c 4f3c 7093 edba
00000110: 49d0 893b bdc9 4c3b 5c48 14ba dc5d 7b3b
00000120: effe 26bc f03b 443a ed88 343b 04aa 423a
00000130: 8809 353a c16b bf3b d25d a4ba 724b 95bb
00000140: ca47 b73a e94d a6b9 4e1f 55bc 2ea7 59bb
00000150: 0333 a33a 67ab 18bc 3725 19bb c980 6fbc
00000160: a83a aeba fafd ebbb aae0 f73a 70d9 773a
00000170: b7c1 87bc 184a 1fbc bd80 913b 44e1 69ba
00000180: cde0 47b9 8fee 0b3b 5838 8bbb 0db4 c83a
00000190: 10bd f13b b5bd f23b 1a0d 2abb bbba 3fbb
000001a0: 8f69 4dbb f2eb 66bb d3ef 4c3b 2e9f 913b
000001b0: 951d 46bb dd26 dc3a bd87 303b 539a 0ebc
000001c0: a1c5 5cba a32d 5bba bb8b 503b 7732 85b8
000001d0: 0675 b9bb 37c9 14b8 6780 efbb 7928 2fbb
000001e0: 7f2a d7b9 2318 efba e2bb a5bb 2c28 ffb9
000001f0: bb84 08bb 204b c5bb ce8b 6bbc c274 19bc
-0.009452141 -0.0050273924 0.005968642 -0.0048209783 -0.00814893 -0.0016317324 0.0075725857 0.016181137
-0.002343713 -0.0035656942 0.006956452 -0.018829772 -0.0018485716 -0.01097664 -0.0002687097 -0.008162645
0.0013853209 -0.010743229 0.005650119 0.00078053155 0.02036553 0.0022095416 -0.012404501 -0.014475452
0.001623603 -0.0053170915 0.0032138312 -0.0071314923 -0.0022969353 -0.007814658 0.0023964173 -0.0049334667
-0.0012113275 -0.011148638 -0.0043847626 0.0005631779 -0.005570139 -0.0037874416 -0.008781967 -0.020556618
0.00366618 -0.0002519557 -0.004749792 -0.0005196848 -0.00019972188 -0.0009845915 -7.946011e-05 0.0003609852
-0.012699603 0.0041104024 -0.011001146 0.002382573 -0.008499261 -0.0140591925 0.0018515384 -0.0017793297
-0.0026745654 -0.0075611244 -0.010013772 -0.0011027002 -0.016884211 -0.020873372 -0.00079148536 -0.0044111814
0.0041034105 -0.013802825 0.012648819 -0.0018125605 0.0042057377 0.0031248175 -0.00056565343 0.0038355505
-0.010192617 0.0007485738 0.0027547434 0.0007425847 0.00069060223 0.0058417027 -0.0012540168 -0.004556113
0.0013983187 -0.00031720035 -0.013007952 -0.003321122 0.0012451116 -0.009318209 -0.002336813 -0.014618107
-0.0013292627 -0.007201907 0.001891156 0.0009454703 -0.016571863 -0.009722255 0.0044403956 -0.0008921812
-0.00019061864 0.0021351909 -0.00424866 0.0015312448 0.0073772743 0.0074078687 -0.002594775 -0.0029255587
-0.0031343435 -0.003523585 0.0031270876 0.0044440245 -0.0030230035 0.001679625 0.0026936375 -0.008703786
-0.0008421783 -0.00083609874 0.0031821567 -6.351334e-05 -0.0056597022 -3.5473346e-05 -0.007309008 -0.0026727004
-0.00041039658 -0.0018241446 -0.005057798 -0.0004866732 -0.0020831067 -0.0060209185 -0.014376594 -0.009366216

exp_avg_sq f4 [128]
00000000: 191d 433b b9bf 0b3b a9f8 163b f9a4 9e3a
00000010: 9da8 c83a 5eed ff38 777a af3b 26d0 c43a
00000020: 1f5b 893a 5cc8 c93a 47b9 2d3b 1363 3c3b
00000030: 8a99 1d3a ef6a 4d3b c7c9 063a 2cdc a93a
00000040: c3f2 193b 40d1 df3a c7da c13b c911 ed38
00000050: a109 bb3b c1b8 cc38 ce5c 1b3b 54de db3b
00000060: aa9e 003a 3db2 9e39 40c2 a63a 58c1 de3b
00000070: c52d 463a e55d 973a 15ae 893b e7ba 963a
00000080: a286 9739 a3e1 c03a 7914 013b 9fe2 e43a
00000090: 18e9 9d3b 0715 083a 153c 353a 9de8 833b
000000a0: 52bc 603a 45be 0c3b 9e8e 843a aaac c439
000000b0: 6f91 103b ffca 843a 7151 0e39 24e0 1f39
000000c0: d38d ac3b 1e8d da3b 8d9a 3f3a 34bb 3039
000000d0: b6c4 3e3b 6b0b 893b e81b 893a b8ad 833a
000000e0: 01e7 7d3a fb2a 593a 9f4e 743a e1ac d539
000000f0: e0ea 3f3b 58c9 613b 2c50 f038 ba25 f63a
00000100: 9061 603b ce27 ca3b 2d93 e33b b11e 4f3b
00000110: e1a6 bd3a 5314 ef39 2dee e83a 2976 cb39
00000120: 0d50 8a3a ef17 8c3a be22 4a3a f74c 5c3a
00000130: 62a7 1f39 be14 a03a dc4b a93a f9d5 923a
00000140: 4680 b939 f600 0a3a 4dae 643b 3758 233a
00000150: b72d cf3a 4c0a bd3a 8772 293a 3ac5 833b
00000160: 105e b038 ab92 cb3a 07bd f639 6592 e038
00000170: 94db a73b 8758 d63a d33a a73a ee29 9c3a
00000180: 637e 263a 51c4 ea39 be5b 343a 5596 203a
00000190: 5d22 db3a a139 2f3b 5604 1e3b bcad d43a
000001a0: 70c0 1f3b b927 fd39 c8f9 2a3a 6345 4c3b
000001b0: c8d3 043a 91d0 d738 3add dd3a 541a 383b
000001c0: 5924 8d3a d801 f439 8dea 963a 7393 d13a
000001d0: e03d 363b 2966 9139 42f6 633b db8c f33a
000001e0: 3001 853a 677d 0c3a 0cfc 7e3a 33a1 8838
000001f0: e944 703a 1c8a e73a fcb9 383b 072d 933b
0.0029771982 0.0021323992 0.0023036397 0.0012103609 0.001530904 0.000122035606 0.005355175 0.0015015646
0.0010479427 0.0015394795 0.002650814 0.0028745576 0.0006011954 0.0031344255 0.00051417615 0.0012959293
0.0023490645 0.0017075911 0.005915973 0.000113043534 0.005707935 9.761891e-05 0.002370644 0.006709853
0.0004906455 0.00030268906 0.0012722686 0.0067979507 0.0007559921 0.0011548368 0.0042016604 0.0011499793
0.00028901274 0.0014715682 0.001969604 0.0017462558 0.0048190467 0.00051911216 0.0006913555 0.0040255324
0.0008572984 0.0021475714 0.0010113304 0.00037512678 0.0022059341 0.0010131298 0.00013572515 0.0001524692
0.00526593 0.0066696545 0.00073091016 0.00016854407 0.0029108948 0.0041822693 0.0010460587 0.0010046279
0.00096856063 0.00082842977 0.0009319577 0.0004075533 0.0029284284 0.0034452286 0.00011459025 0.0018779554
0.003423784 0.006169296 0.006945035 0.0031603987 0.001446929 0.00045600775 0.0017771177 0.00038807213
0.0010552421 0.0010688285 0.00077108655 0.00084038026 0.00015225777 0.0012213213 0.0012916285 0.0011202685
0.0003538152 0.00052644254 0.003489393 0.00062311016 0.0015806471 0.0014422624 0.0006463904 0.004021314
8.4098545e-05 0.0015531381 0.00047061613 0.000107084205 0.0051226113 0.0016353288 0.001275862 0.0011914351
0.00063512305 0.00044778225 0.0006880126 0.0006125917 0.0016718615 0.002673723 0.002411147 0.0016226093
0.0024376176 0.00048285516 0.00065222057 0.0031169287 0.0005066958 0.000102908474 0.0016926893 0.0028091865
0.0010768279 0.0004654068 0.0011513993 0.0015989378 0.0027807876 0.0002773267 0.0034784232 0.0018581407
0.0010147449 0.00053592626 0.0009726889 6.515011e-05 0.0009165542 0.0017665061 0.0028187027 0.0044914517
