ML-Agents/results/rollerball001/RollerBall/RollerBall-499995.pt (torch, 447963 bytes, 36 tensors)

network_body._body_endoder.seq_layers.0.weight f4 [128, 8]
000000 12 1b aa bd 60 40 80 3d 88 73 d3 3c 04 a6 50 be
       -0.083059445 0.062622786 0.025811926 -0.2037583
000010 88 de a8 3e 45 bf 95 bd 67 43 b4 3e 34 9c 6e be
       0.32982278 -0.073118724 0.35207674 -0.23301774
000020 04 6c 48 bd c0 3a 2f be db 4d 93 be c4 40 29 be
       -0.048931137 -0.17112255 -0.28770337 -0.16528612
000030 5b b6 fb 3e 80 0b 03 3e 96 8e fd 3e 24 36 bc bd
       0.49162564 0.12797356 0.49522847 -0.09190014
000040 a7 46 4a 3d a0 97 14 3e fc 1a 76 be 34 19 70 3e
       0.049383786 0.14510965 -0.24033731 0.23447114
000050 9f 88 d7 be 1b ae e4 be 5d 1a a4 3e 55 65 c2 3d
       -0.4209642 -0.44664082 0.32051364 0.09491984
000060 d5 a0 e5 bd d2 64 57 3e ef 37 d7 bd fc 45 10 3f
       -0.11212317 0.21034554 -0.10508715 0.5635679
000070 ed 7a 80 3d 0f ff 8b bf 38 74 cf 3e da e0 4b be
       0.06273446 -1.0937213 0.40518355 -0.19909993
000080 1a db 0a 3e 4b eb 0d 3e cb c3 06 3e b7 23 e1 3d
       0.13560143 0.13859288 0.13160627 0.1099314
000090 80 32 00 be 0f 33 92 be 3b c1 62 bd ab 33 86 bc
       -0.12519264 -0.2855458 -0.05536006 -0.01638206
0000a0 5e 3f 9c 3e 1e b5 bf be 3f ba ab 3e cc ab f4 3d
       0.30517095 -0.3744287 0.33540532 0.1194683
0000b0 f8 b5 84 bf fc 02 1d 3e 80 1a 6f be 06 0b b6 be
       -1.0368032 0.1533317 -0.23349953 -0.35555285
0000c0 2d 5c 2a bf 29 c4 93 be e0 a4 8c bf 71 99 5f be
       -0.665469 -0.28860596 -1.0987816 -0.21835877
0000d0 6b 98 7f 3e 67 42 f8 bd 99 75 e2 3e 50 68 26 be
       0.24960487 -0.1212204 0.44230345 -0.1625073
0000e0 da 54 55 3f 6d ba 43 3f 6e 5b d1 be c7 e4 ef be
       0.833326 0.7645634 -0.40890068 -0.4685423
0000f0 88 29 af 3e e8 bd 28 3f 08 fe 16 3e 91 13 12 bd
       0.34211373 0.65914774 0.14745343 -0.03566319
000100 dc 00 b8 bd c6 62 48 3f 0c af 2c 3e ff 06 8b 3d
       -0.08984539 0.78275716 0.1686365 0.06788444
000110 da 4b 9e be f6 cb 8d be f0 56 0a bf a0 79 d1 be
       -0.30917245 -0.27694672 -0.54038906 -0.40913105
000120 81 76 d4 3e 7e af 41 bf 9f 8b 57 3e 11 6f 11 3e
       0.4149666 -0.75658405 0.21049355 0.14202525
000130 72 cc 1c bd c0 20 45 be fa 3a 13 bf 7c 3c 02 3d
       -0.03828091 -0.19250774 -0.57511866 0.031795964
000140 3f 1c 88 be 89 9e 7f 3e 75 f1 01 be 9d 65 89 3d
       -0.2658405 0.2496282 -0.12689765 0.06708834
000150 07 27 d0 be da 91 5f be f5 db 14 3c 0c b1 3d 3f
       -0.40654776 -0.21832982 0.009085645 0.7409828
000160 7a 00 01 bf bb cc be 3e 7a 3a 80 3e d3 1b de 3e
       -0.5039135 0.37265572 0.25044614 0.43380603
000170 0c fb 19 3f 79 8d 9d be 1b b1 43 3f 5a 21 e0 3e
       0.6014869 -0.30771998 0.76442116 0.43775445
000180 08 4a a9 bb 86 ef f1 3e fb 6b d6 3d bd f7 9c 3e
       -0.005166296 0.47253054 0.104698144 0.3065776
000190 d8 88 45 3d eb bd c8 3e 75 d7 08 be ec cd 17 3f
       0.048226207 0.39207396 -0.1336344 0.59298587
0001a0 9e 57 08 bf 0c 21 26 be 94 d5 de 3e cd 0b 59 bd
       -0.53258693 -0.16223544 0.43522322 -0.05298977
0001b0 4f d0 77 be 9a 6c 8e 3e 08 b6 19 3f 10 3e 9a 3e
       -0.24200557 0.2781723 0.6004338 0.30125475
0001c0 8c 79 a8 be b6 8e ba be 58 3f df be 63 d4 10 3d
       -0.32905233 -0.36437005 -0.43603015 0.035358798
0001d0 c9 da d3 be c2 63 f0 be 7e f7 f1 3e 32 88 d3 3d
       -0.41377857 -0.4695111 0.47259134 0.103287116
0001e0 36 0a b4 be 90 c7 af bc 53 b8 58 be d8 ba 70 3c
       -0.3516404 -0.021457464 -0.21164064 0.0146929845
0001f0 80 42 59 3e d6 38 22 3d 6f c5 89 bd e2 8f d4 3d
       0.21216774 0.039604984 -0.067271106 0.10379006
000200 7a f9 28 bf 79 8b 64 3f 54 30 7a 3e 11 7e 6a be
       -0.6600567 0.8927532 0.24432498 -0.22899653
000210 6e 09 3b 3f 49 35 0d be 6c b7 9d be bf 1f 1e be
       0.73061264 -0.13789858 -0.30804002 -0.15441798
000220 69 11 88 3e 7e e3 69 be 9b fb 0c bf b5 ec 2e 3f
       0.26575783 -0.22840688 -0.5507142 0.68329936
000230 d6 97 24 bd 35 34 14 be 9a ae 0b be f0 ee 14 3e
       -0.040183865 -0.1447304 -0.13640824 0.14544272
000240 66 ce e4 be 83 cb 0a 3e a4 d8 a3 3e 1e c9 ba be
       -0.4468872 0.13554196 0.3200122 -0.36481565
000250 82 0c 5f bd 38 c1 db be 86 ae 09 3f 74 8a 4a 3e
       -0.054455288 -0.42920852 0.53781927 0.19779378
000260 d6 53 a7 3e 2a d1 b4 be b7 3b ce 3e 09 13 0a 3d
       0.3268115 -0.3531583 0.40279934 0.03370956
000270 29 59 8c 3d 07 1d 91 3e 52 b0 97 be ab 65 fd 3e
       0.068529435 0.2834246 -0.2962671 0.4949163
000280 a9 34 c1 3e 6f d2 e8 bb b0 82 b9 3e be 12 53 be
       0.3773549 -0.0071051638 0.3623252 -0.20612618
000290 bc 57 0d 3f de 5b ef be 9f 03 7f 3e 75 3b d8 3d
       0.55212 -0.46749777 0.24903725 0.105582155
0002a0 bc 0a 61 be de 23 61 3f 91 5b 28 3d 49 ee b3 3e
       -0.21976751 0.87945354 0.04110295 0.35142735
0002b0 2e ee 79 bc 6b f3 00 3f f1 44 28 3c 80 dc 8a 3e
       -0.01525454 0.50371426 0.010270343 0.27121353
0002c0 d7 83 82 be ab 4e cc 3c 1c 9b 16 bf f8 c0 d7 3c
       -0.2549121 0.024939856 -0.5883043 0.026337132
0002d0 93 fe 67 3f b8 ad 47 bd 64 1d 89 3e 6f f9 b4 3d
       0.90622824 -0.048749655 0.26780236 0.08836638
0002e0 5d 26 94 bd 65 8d a7 3d 9c d6 a5 3e da c1 89 be
       -0.0723388 0.08181266 0.32390296 -0.2690571
0002f0 1f f1 f5 3d 4d 25 5a be 18 f9 90 be 44 59 ad 3e
       0.12008881 -0.21303292 -0.28315043 0.33857167
000300 d0 1e 4e 3e 0e ea 16 3f 21 b0 b0 3e eb 66 ce bd
       0.20128942 0.5895089 0.34509376 -0.10078224
000310 51 22 26 bc e5 ea 32 be 16 91 87 bd 3b 48 88 3e
       -0.010140018 -0.17472418 -0.0661947 0.26617607
000320 6d f0 b2 be 01 6b 00 3f 4e 3a eb be 39 81 d8 be
       -0.34949055 0.50163275 -0.4594292 -0.4228609
000330 79 42 80 bc c6 31 91 bd 7e d9 a8 3e e6 0f 18 bf
       -0.015656697 -0.07089572 0.32978433 -0.5939926
000340 bd 89 53 bd ca 0a 8e 3e fb 00 12 3e b1 a7 9a bb
       -0.05164503 0.27742606 0.14258187 -0.0047196974
000350 98 5b 57 3d bf 8e 16 bc a8 c6 12 3e f7 8a 02 bf
       0.052577585 -0.009189307 0.14333594 -0.50993294
000360 79 07 87 3f 20 db 38 3f a6 79 c4 3d d9 5c d7 be
       1.0549155 0.7220936 0.09593515 -0.42063025
000370 1e e4 3f 3e a5 a3 dc 3d 83 19 a0 be 8d 09 84 3e
       0.18739364 0.107734 -0.31269464 0.25788537
000380 0c ca 62 be 84 51 d5 be 3d 9e f6 be 89 81 49 be
       -0.22147387 -0.41663754 -0.481676 -0.1967832
000390 58 7c 70 3e ca 48 0c 3f 8d f2 7b 3c 38 1e 72 3e
       0.23484933 0.5479857 0.015377653 0.2364434
0003a0 d1 f1 89 3e 59 77 8d 3d e8 84 dc 3d 69 94 c6 3e
       0.26942304 0.069075294 0.10767537 0.38785103
0003b0 f8 0f 81 3e b9 e5 95 3e 4f 0e a4 be 88 b5 a0 be
       0.25207496 0.29276827 -0.32042167 -0.31388497
0003c0 b0 79 43 3f 32 b3 cc 3e b8 f6 04 3f 77 b8 94 be
       0.76357555 0.39980465 0.5193896 -0.29046986
0003d0 2b 37 3d 3f 88 2a f2 be 0f cc 43 bf 4f 57 e5 be
       0.73912305 -0.47298074 -0.76483244 -0.44793174
0003e0 3d 81 bd bc d8 10 0f 3d cd 7e 9d be 9d f3 77 3e
       -0.023132915 0.034928173 -0.30760804 0.24214025
0003f0 ca c8 7d ba bb 2c 3e bf 62 9d d8 3d b4 03 cc be
       -0.0009681104 -0.74287003 0.105768934 -0.39846575

network_body._body_endoder.seq_layers.0.bias f4 [128]
000000 f9 2d 12 3d cb 66 9f bb 9e ce 42 3c fd 92 5c 3b
       0.035688374 -0.004864549 0.011890082 0.0033656948
000010 b8 30 23 bc 29 05 d7 3c 45 95 aa 3d f5 5a c0 3d
       -0.009960346 0.026247578 0.08329252 0.09392349
000020 77 93 28 3d ca 32 03 3d 22 3b 99 bc 63 20 2b 3d
       0.04115626 0.032030858 -0.018704955 0.041778933
000030 18 40 a2 3c b7 1f a3 3c 7b ef 95 bb 9f e3 7b 3c
       0.019805953 0.019912584 -0.0045756674 0.015374093
000040 d3 b5 96 3d d7 f2 5c 3d 56 23 79 bd b3 20 c7 3c
       0.07358899 0.053942528 -0.060824715 0.024307584
000050 41 67 80 3d 0b dc 8c 3b 92 8f 87 3d 16 dd 8c 3c
       0.06269694 0.004298692 0.06619181 0.017195266
000060 43 fd 0a 3d 41 11 47 3d 58 35 61 3d 7d 3c e6 3d
       0.033932935 0.04860044 0.054982513 0.11242006
000070 c8 09 3e 3d e5 09 68 3d e7 c3 d1 3d a9 88 1d 3c
       0.046396047 0.05665006 0.102424435 0.009615102
000080 08 20 ac 3a 3c ea 88 3c 2d 43 12 ba 7d 3e 24 3d
       0.0013132105 0.016713254 -0.0005579468 0.040098656
000090 f7 88 bc 3b 61 ff 93 3c 89 81 11 3d 3b 3d 9b 3d
       0.005753632 0.01806611 0.035523925 0.07580038
0000a0 7d 7f 2d 3c 19 e0 89 3d cb e8 3b 3d a5 a4 5f 3d
       0.010589478 0.06732196 0.045876306 0.054600377
0000b0 18 8c c0 3c d5 3e 69 3d 09 bb 7b bc 66 2a 80 3c
       0.023504302 0.056944687 -0.015364417 0.015645217
0000c0 86 dd 08 3d b2 62 e8 3c 5c 74 0e 3d ab 72 9a 3d
       0.033414386 0.028367374 0.034778938 0.075414024
0000d0 ca ef a0 3d 80 4e 8c 3b 55 9d 80 3c 07 41 0a 3d
       0.07858236 0.004281819 0.015700022 0.03375342
0000e0 49 51 2a 3d b4 fc b5 3d 35 28 c4 bb 36 d8 1c 3c
       0.041581426 0.0888609 -0.0059862384 0.009573033
0000f0 8e 70 09 3c eb 6b 35 3d d6 72 96 3d a0 28 5a 3d
       0.008388652 0.04429237 0.07346122 0.0532614
000100 91 57 54 3d ae 32 f7 3c 9e 56 9f 3d 81 55 07 3d
       0.051841322 0.030175533 0.07780193 0.033040527
000110 c7 23 93 3d 04 f6 65 3c 20 19 b0 3c f8 a0 f1 3d
       0.07184558 0.0140357055 0.021496356 0.117982805
000120 13 60 94 bc 36 41 55 3d 1b 75 89 3d e1 7c 0e 3d
       -0.018112218 0.052064143 0.06711789 0.034787063
000130 62 b6 f5 ba c7 32 ad 3c 1e 95 33 3d cd 64 ed ba
       -0.0018746371 0.021142377 0.04384338 -0.0018111706
000140 b7 32 74 3d 84 16 48 3c 49 02 82 bc 5e 52 0d 3d
       0.059618678 0.012212399 -0.01587023 0.03450238
000150 da 17 1f bc 95 0c 0e ba aa 79 7d 3d 64 ea a0 3d
       -0.0097102765 -0.0005418745 0.061883606 0.078572065
000160 cf ab 1a 3d f4 f3 98 3c 66 16 0a 3b 88 76 25 3d
       0.037761506 0.018671013 0.002107048 0.040396243
000170 5a b8 58 3d 19 bf 28 3b c8 82 af 3c 44 97 bd 3c
       0.052910186 0.0025748669 0.021424666 0.023143418
000180 35 8b 5f bc 6a 4a ba bc cc 46 3f 3c e3 20 f0 3c
       -0.013644029 -0.022740562 0.011674594 0.029312557
000190 02 36 86 ba fb cb c3 3c d2 3b 4b 3d b7 4e 8d 3b
       -0.0010239484 0.023900976 0.049617596 0.004312362
0001a0 15 68 8f bd 93 77 7b 3d ca 14 90 bc 80 56 41 bc
       -0.07002274 0.06139333 -0.017588038 -0.011800408
0001b0 b8 f7 ef 3a 4b 56 b1 3d a3 6d 57 3c 3b b5 a6 3d
       0.0018308079 0.08659037 0.013148698 0.08140036
0001c0 e8 a0 7b bc d6 f7 51 3d 9a db 80 3c 6e 11 3a 3d
       -0.015358187 0.051261745 0.015729714 0.04542678
0001d0 d7 83 09 bd 51 5f 71 3d ad 78 6d 3c e1 1b 6e 3d
       -0.033572998 0.05892879 0.014494103 0.058132056
0001e0 c1 e9 5e 3d 59 14 2e 3d 00 39 be 3d db 7c 0b 3d
       0.054422144 0.042499874 0.09288216 0.03405462
0001f0 fa d7 b4 b9 f9 3b 8a 3b 91 e2 12 3d b4 2c 07 bb
       -0.0003449319 0.004218575 0.0358606 -0.002062601

network_body._body_endoder.seq_layers.2.weight f4 [128, 128]
000000 36 45 33 be e5 bd 93 3d 6c 45 5a 3c 8e 39 10 bd
       -0.1750687 0.07213954 0.0133222155 -0.03521114
000010 c4 a0 bb bd f9 f2 3a be 58 6f 31 3e 4f 12 2e bd
       -0.09161523 -0.18256749 0.1732763 -0.04249793
000020 00 8d c0 bd 95 0b 4b be 86 40 f4 3d f6 73 7e 3d
       -0.094018936 -0.19828637 0.11926369 0.062122308
000030 0a ea 66 3d 47 c9 45 be 1c 0b d5 bd 3d 9d 43 bd
       0.05637554 -0.19315062 -0.104025096 -0.047757376
000040 aa af af 3d c9 a7 90 3d d2 ad 28 bd 32 d0 36 bc
       0.08578427 0.070632525 -0.041181393 -0.011158036
000050 32 d8 b0 bd f2 cc 55 3d 6e 0f b8 3b 26 83 59 bd
       -0.08634986 0.052197404 0.0056170737 -0.05310359
000060 bf b9 59 bd f2 cc d0 bd b8 1a ca bc f5 dc d1 3d
       -0.053155657 -0.1019534 -0.024670944 0.10247222
000070 bb 42 37 bc 1b 8e 4c be 16 7c f9 bd 16 e9 e3 3d
       -0.011185343 -0.19976084 -0.12181871 0.11128442
000080 f3 c0 7c bd 98 3b 08 bb f0 d1 29 be f1 71 14 bd
       -0.06170745 -0.0020787474 -0.16583991 -0.036241475
000090 08 57 21 bd 10 db bc bb de 6d 48 be 2e ad c6 bd
       -0.03938964 -0.005763419 -0.19573161 -0.09701
0000a0 77 11 b5 3d 4d 8f 3c 3d a7 e5 b3 3d 7a b4 80 3c
       0.08841222 0.0460351 0.08784037 0.015711058
0000b0 20 2c b4 3d 83 19 24 bd b1 ff 12 be 64 33 f6 3b
       0.08797479 -0.040063392 -0.14355351 0.0075134505
0000c0 ac 62 5a bc 29 fa 61 3d 94 56 bc 3d 4b cc 0d 39
       -0.013329189 0.055170212 0.09196201 0.00013522913
0000d0 ae c1 b6 3d 37 56 68 bd f8 56 5f 3d 83 15 25 3e
       0.0892366 -0.056722846 0.0545263 0.16121487
0000e0 11 46 22 be 0e 27 98 bc b6 df a3 bd c3 6f 20 bd
       -0.1584704 -0.01857331 -0.08001654 -0.039169084
0000f0 7b c9 8b bd 7d 9e 88 3b 96 ed 58 3c 08 21 27 3c
       -0.06825539 0.004169284 0.013240239 0.010200746
000100 b2 c3 8f bd 55 39 38 3d 52 bb bf bd 81 67 df bc
       -0.07019748 0.04497655 -0.093619004 -0.027271034
000110 52 92 97 3d da 34 0b 3e ee 1a 3a 3d fa e7 0a 3e
       0.07400955 0.1359438 0.04543584 0.13565055
000120 4e a8 ab bd 1a bc 77 be ec 86 ce 3d 26 40 aa bd
       -0.08381711 -0.24192849 0.10084328 -0.083130166
000130 76 e7 86 3d 35 68 10 bd 54 be 13 3d 42 3f 51 bd
       0.065871164 -0.03525563 0.036070183 -0.051085718
000140 4c 8c 2d 3e 4b 94 1f 3d ab 20 c2 bd 8f 7a 37 bc
       0.1694805 0.038959783 -0.09478887 -0.011198654
000150 a9 b2 48 3d 64 95 87 bd 49 12 fe 3d e4 54 57 3e
       0.04899851 -0.06620291 0.12405831 0.21028477
000160 18 ed e1 3d be 35 50 bd 2d 35 02 be a2 d3 0e bc
       0.1103155 -0.050832503 -0.12715597 -0.008717449
000170 82 81 17 3b c4 83 8c 3a a6 a9 7b 3c 01 36 c7 bc
       0.0023117964 0.0010720422 0.015360272 -0.024317743
000180 5d 0a a1 bc 19 d0 e5 3c 3b 44 0e 3c c4 af 3e be
       -0.019658262 0.02805333 0.00868326 -0.18621737
000190 f3 d3 5f bd e8 6e cb 3d a3 10 da 3c da 4e d4 bc
       -0.05464549 0.09933263 0.026619261 -0.025916506
0001a0 f9 4a 8c 3d ce 83 94 bd e2 a6 fd bd cf d1 27 be
       0.068502374 -0.07251702 -0.12385346 -0.1638863
0001b0 c6 24 84 3d 13 bf 30 bd 0e 29 ac bc 77 c0 39 bd
       0.064523265 -0.043150973 -0.02101567 -0.045349564
0001c0 f0 ad 93 bd 7d 58 99 bd e6 4c 02 3e 70 26 ed 3a
       -0.0721091 -0.07487581 0.12724647 0.001809312
0001d0 e5 2f ab bd 74 05 32 bd b1 f2 61 bd 7d bd b5 3d
       -0.083587445 -0.04346223 -0.05516309 0.08874033
0001e0 a1 c9 e8 3d 93 b2 ec bd 9b ab 7d 3e 58 ad 0e 3e
       0.11366583 -0.11557498 0.24772494 0.13933313
0001f0 bf 38 12 3e a9 5b 5d b9 9c b7 7d 3d 84 27 68 3d
       0.1427946 -0.00021110348 0.06194268 0.05667831
000200 60 84 07 bd 51 33 2a be 1b 96 07 bd bf 99 e0 bb
       -0.033085227 -0.16621138 -0.033102136 -0.0068542655
000210 ac 88 3f 3e 84 6b 2d 3d ed 3d c1 3d d6 23 0d bd
       0.1870448 0.042338863 0.094356395 -0.034458004
000220 d8 30 8a bd 55 98 83 3c 13 e2 44 bd 34 23 88 3d
       -0.067475975 0.016063849 -0.048067164 0.066473395
000230 b6 bc 1f be 82 eb d0 bc dd ae 7d bd ab ee 81 bd
       -0.15599331 -0.025502924 -0.06193434 -0.063443504
000240 50 ec fa bd 02 e0 2d be 80 9c 62 bd 6b 48 72 bd
       -0.12252104 -0.16979983 -0.05532503 -0.059151094
000250 66 b4 0c 3e 4a a9 0e bd a5 b2 7f 3e 31 e5 17 3e
       0.13740692 -0.034829415 0.24970491 0.14833523
000260 34 ff 5e bc d0 e6 ab bc 6d fc 66 3c d3 3c 15 be
       -0.01361065 -0.020984083 0.014098269 -0.14573984
000270 e1 dd 53 3d 09 fe 03 bd b7 fd e0 3d f8 61 a8 bd
       0.051725272 -0.03222469 0.10985892 -0.08221811
000280 8f ea 0f 3d 34 12 1b be cf f1 49 bc 3b 90 0b 3e
       0.035135802 -0.15143663 -0.012325718 0.13629238
000290 80 58 24 3e 73 9a 22 be 4f 81 75 bc 1a 09 6e 3c
       0.16049385 -0.1587923 -0.014984443 0.014528537
0002a0 76 46 ab 3d 70 e3 89 bc 11 32 a1 bd 55 77 2c be
       0.08363049 -0.016832083 -0.078708775 -0.16842397
0002b0 2d 73 8a 3d 9a e3 bf bd 18 ac 40 bd 6d 3f 93 bd
       0.06760249 -0.093695834 -0.04703912 -0.07189832
0002c0 2c 92 45 bc b6 4f 58 be c7 ab da 3c d4 c4 37 3d
       -0.012058776 -0.21124157 0.026693238 0.044865444
0002d0 e6 99 66 3d eb 37 4d bb f5 3d 0f bd 7c b2 2f 3c
       0.056299113 -0.0031313847 -0.034971196 0.010723706
0002e0 cf 5c a4 ba 7b 3a bf bd 4e 04 e0 bc 3e e5 6d bd
       -0.0012539866 -0.09337326 -0.027345803 -0.05807995
0002f0 7b 2b d2 bb 9c 65 a4 3e 62 6a c4 3d a8 a1 98 3a
       -0.0064138747 0.32108772 0.095906034 0.0011644857
000300 d5 63 84 3d 32 58 0b be 43 2c 3c bd 04 d0 9d bd
       0.06464354 -0.13607863 -0.04594065 -0.077056915
000310 48 98 b5 bd a4 98 92 3d 1a 25 1a bd fa 57 85 bd
       -0.08866936 0.0715802 -0.03763304 -0.06510921
000320 f3 e3 2c bd 0b 07 01 ba d6 39 0a be ec 58 d6 bc
       -0.042209577 -0.0004922009 -0.13498625 -0.026165448
000330 c4 72 aa 3d c4 03 02 3d 94 3a f3 bc 03 c1 31 3d
       0.08322671 0.031741872 -0.029691018 0.04339696
000340 88 03 ad bd db b1 85 bc c2 f8 cc 3d b5 7f 0e bd
       -0.08447939 -0.01632016 0.10008384 -0.03478976
000350 4a ab 2e bd 1f 41 cf 3d 47 13 49 3c 78 d1 ed 3d
       -0.042643823 0.10119843 0.0122726625 0.116122186
000360 b0 dc 55 bd 1d a2 0b bd 5f 5d 20 3c 15 13 a3 bc
       -0.052212417 -0.03409015 0.009787886 -0.01990656
000370 ee 96 05 be ba 4b eb bc 0d 1e 8a bc ef 2e 02 bd
       -0.13045856 -0.028722633 -0.016860032 -0.03178304
000380 b4 1e 0a 3d 35 3a ff 3d 80 d6 99 bd 58 de 43 3d
       0.033720687 0.12462274 -0.07511616 0.047819465
000390 c1 f2 0f be 49 07 5e bd fe 56 7c 3d 62 bf ca 3d
       -0.14057447 -0.054206166 0.0616064 0.098997846
0003a0 e0 bd eb 3c 09 fd 3a 3d 74 91 a5 bc 59 ef 1c be
       0.028777063 0.04565147 -0.020210959 -0.15325679
0003b0 c9 f8 ca 3d 31 23 49 be 9a 06 41 3d 28 1a ab 3d
       0.09910733 -0.1964233 0.047125436 0.08354598
0003c0 c2 ba 86 3d fd e8 74 3d c3 d5 fa bb d3 62 81 3d
       0.0657859 0.059792507 -0.007654877 0.06317677
0003d0 0a ad 86 3d 98 9f b4 bd 34 94 53 3e ba 4e b2 3c
       0.06575973 -0.088195026 0.20662004 0.021766055
0003e0 04 62 93 bd 39 59 32 be ea 03 e2 bc be 11 ce 3c
       -0.07196429 -0.17416848 -0.027589757 0.025154945
0003f0 59 e0 73 3d ad c2 27 3d 5d 75 70 bd 08 23 55 bd
       0.059540126 0.04095714 -0.058705676 -0.05203536

network_body._body_endoder.seq_layers.2.bias f4 [128]
000000 b8 67 88 3c a4 fc bf 3b b8 db 96 3c 67 6d 8a 3d
       0.01665102 0.0058589745 0.018415317 0.06759148
000010 a0 0f 0a 3b f3 82 9c 3d 08 46 0a 3d 02 13 fb 3c
       0.0021066442 0.07642164 0.033758193 0.030648712
000020 eb bd 05 3d 54 7c bc 3c f6 fd 1f 3d 28 f5 1f 3d
       0.032651823 0.023008503 0.039060555 0.03905216
000030 04 f8 38 3c 99 d5 19 3d f8 92 13 3d d9 c9 31 3d
       0.0112896 0.03755722 0.036028832 0.043405388
000040 96 1f 53 3c 52 97 aa 3b 73 7f 70 bc 1b 16 2c 3d
       0.012885949 0.005206027 -0.014678824 0.04201327
000050 44 df 78 3d 1d 59 c8 3c 6a d2 78 3d 25 eb 7b ba
       0.060759798 0.024456555 0.06074754 -0.00096099294
000060 26 c0 94 3c 39 0e 14 3d 64 9c e4 3c 2a 9e 91 bc
       0.01815803 0.036146376 0.027906604 -0.017775614
000070 46 53 81 3a 0b 5f dd bb 1a 48 0d 3d f5 31 b4 3c
       0.0009866736 -0.006755715 0.03449259 0.021996478
000080 fb a8 be 3c 99 5e 9f bb 58 ee 0f 3d 00 26 70 3d
       0.023273936 -0.004863572 0.03513941 0.05862999
000090 b5 e9 c3 3c 0a 8e 8b 3b 5a 5c 7b 3d ea 76 ed 3c
       0.023915151 0.0042588757 0.06136737 0.028987367
0000a0 62 96 b6 3d 95 18 2d 3d f6 91 9c 3d f0 6e 0a 3d
       0.08915402 0.04225977 0.07645027 0.033797204
0000b0 c7 f6 66 bc e2 51 fb 3c f7 90 7d 3d 62 87 28 3d
       -0.014096922 0.030678693 0.061905827 0.041144736
0000c0 ec 4e bb 3d 91 05 34 3d 2c 05 cf 3c 79 7b a9 3d
       0.091459125 0.04395062 0.02527102 0.08275504
0000d0 fd 93 2c 3d 6f 11 b6 3c f8 3a 7f 3c 97 db 4e 3d
       0.04213332 0.02222511 0.015578024 0.050502386
0000e0 7f 10 8e 3c c6 41 87 3d 0c 06 50 3d db 37 14 3d
       0.01734185 0.06604342 0.050787017 0.03618608
0000f0 d2 88 85 3d 76 51 3b 3c 9c 21 4d 3d e7 5e 27 3c
       0.06520237 0.011432996 0.05008088 0.010215498
000100 99 cc 61 3d 60 a8 8e 3c 1b 69 c2 3c 35 6e 1c 3c
       0.05512676 0.017414272 0.023731759 0.00954776
000110 a2 b1 6b 3d e5 a4 49 3d 6a 89 44 3d 52 f9 2f 3d
       0.05754245 0.04922952 0.04798261 0.04296238
000120 e3 30 bd 3d d8 b3 68 3d ea c4 0c 3d 61 88 43 3c
       0.0923784 0.056812137 0.03436748 0.011934371
000130 01 c1 a1 3a 4c 35 d6 3c f8 c6 3b 3d 01 0b 1a 3c
       0.0012340845 0.02614846 0.04584405 0.009402038
000140 e8 0d 18 3d 7b b1 1a 3d 6e 21 1d 3d 3b fe 0a 3d
       0.037122637 0.037766915 0.03836196 0.03393386
000150 1c 1a 47 3d 37 d9 1b 3d 0e 97 1a 3d bc 02 c9 3c
       0.048608884 0.03804895 0.037741713 0.024537437
000160 31 ca d1 3c 63 4e 28 3d a1 37 95 3d 08 d9 97 3d
       0.025609108 0.04109038 0.07286001 0.07414442
000170 93 71 ff 3b 38 cc 8a 3d 81 54 38 3d da 95 64 3c
       0.0077955215 0.06777233 0.045002464 0.013951743
000180 b9 26 77 3c d7 da 58 3d 22 d5 c9 3c 91 94 1b 3b
       0.015084916 0.052943077 0.024637762 0.0023739676
000190 c6 dd 1d 3d bb ce 1d 3d 54 2a 52 3d 63 94 13 3d
       0.038541578 0.03852723 0.0513099 0.036030184
0001a0 20 11 62 3c eb 26 ff 3c c5 ea 1a 3d 10 63 42 3d
       0.013798028 0.031146487 0.03782155 0.047457755
0001b0 61 7b 8a 3d 01 63 54 3c bc dc ad 3c a4 74 19 3d
       0.06761814 0.0129630575 0.021223418 0.037464753
0001c0 ce a3 96 3d 87 4c 07 3d 5c 6c 62 3c 1a d2 61 3c
       0.07355462 0.033031967 0.01381978 0.013783002
0001d0 11 0f c9 3c 45 c7 79 3c a4 8e f5 3c ae a6 99 3d
       0.024543317 0.015245263 0.029975243 0.07502495
0001e0 94 55 10 3d 45 7a 00 3d 17 fc 37 3c da b5 8b 3c
       0.035237864 0.031366605 0.0112295365 0.017054487
0001f0 6e 33 36 3d 30 3e 2d 3d 22 a5 cf 3c d6 f0 1f 3d
       0.04448264 0.042295635 0.025347296 0.03904804

action_model._continuous_distribution.log_sigma f4 [1, 2]
000000 5c 9d ce bd 0b fd fa bd
       -0.10088608 -0.12255295

action_model._continuous_distribution.mu.weight f4 [2, 128]
000000 fd 92 2b 3c 4e d6 f0 3c cf 9a 72 3c 1d 9f a7 bd
       0.010472056 0.029399063 0.014807417 -0.08184645
000010 57 f2 c5 bb 94 00 6a bd 57 81 3d 3d dc 05 2d 3d
       -0.006040852 -0.057129458 0.046265926 0.042241916
000020 d5 be 3e bc 87 02 de 3c 43 e0 39 3d 51 a9 a7 3d
       -0.011642178 0.027100815 0.04537989 0.081865914
000030 36 14 cb 3b 21 f4 dc 3c 7d cf 0d 3d d7 74 b6 bc
       0.0061974777 0.026971878 0.034621704 -0.02227251
000040 91 34 76 bd 70 7e 1e 3d a1 90 56 bc 84 09 3d 3d
       -0.060108725 0.0386948 -0.013096006 0.046151653
000050 f3 ae 5e bd 4b 60 8b bb d4 e2 e3 bb 24 de c9 3c
       -0.054366063 -0.0042534224 -0.0069545303 0.024642058
000060 6f 3c 61 3d 0d 08 98 3d ec 0e 8c 38 8e f2 3c 3c
       0.054989275 0.074234106 6.6784996e-05 0.011532439
000070 91 b2 99 3c a2 82 b9 3c 8a 9d ad 3c 99 52 3f bd
       0.018761905 0.022645298 0.021193285 -0.04670963
000080 28 38 47 bd 30 7b 19 3c 1a 26 6b 3d 75 33 5a bd
       -0.04863754 0.009367749 0.057409383 -0.05327173
000090 a5 c9 fb bb c8 1c 2d 3b 8c 8b 7b 3b 01 d1 2b 3d
       -0.00768395 0.002641486 0.0038382737 0.04194737
0000a0 c3 08 fd 3d 51 42 26 bd 4b 1b 6d 3d 6e be 56 3d
       0.12355187 -0.040590588 0.057887357 0.0524277
0000b0 c9 7a 57 3b ea 57 8a bc 74 7e c9 bc d5 22 24 3d
       0.0032879582 -0.016887624 -0.02459643 0.04007228
0000c0 d2 31 93 3d 01 35 80 bb d5 e0 45 3b 7a 89 b7 bd
       0.07187237 -0.0039125686 0.0030193825 -0.089617684
0000d0 1f 40 80 3d 06 1b 1c bd 95 2d c7 bc 7a 6a 99 3d
       0.0626223 -0.03811171 -0.024313727 0.07491012
0000e0 14 51 3c bd fb ae 2c 3d 5e 53 63 3d ba 25 f7 3c
       -0.04597576 0.042159062 0.055499427 0.030169357
0000f0 16 c9 76 3d ad 4d 2c bd a5 be 57 bd b7 a9 11 bd
       0.060250364 -0.042066265 -0.052672047 -0.035562243
000100 f4 29 a7 bb f5 c0 ca bc e0 be d7 bc d2 8b df bc
       -0.0051014367 -0.024750212 -0.026336133 -0.027288351
000110 20 67 c5 bd 35 e5 53 bd 1b a6 cb 3d d6 30 66 3d
       -0.0963881 -0.05173226 0.099437915 0.056198917
000120 e0 64 e3 3d 8a 70 a7 3d e1 28 9f 3d 15 7e 33 bd
       0.11103225 0.08175762 0.07771469 -0.043821413
000130 58 1d fb 3b c8 8c 71 bd 82 e0 5f bd 75 0d e3 bc
       0.00766341 -0.05897215 -0.054657467 -0.027716378
000140 9e bb 9f 3c d4 58 5d 3d 8e 35 7d bc ab e4 d0 bb
       0.019498643 0.05403979 -0.015454663 -0.0063749156
000150 2a 29 48 3d 81 41 32 bd b7 55 55 bc e0 1c 58 bd
       0.048867382 -0.0435195 -0.013020924 -0.052761912
000160 87 c3 c8 3c a3 4f f6 3c eb a8 1f bd 59 b3 c8 3d
       0.024507297 0.03006727 -0.038979452 0.09799833
000170 be df b8 bc 80 8d 20 3d 16 ff 5a 3d d2 68 35 3c
       -0.022567626 0.039197445 0.053465925 0.011072354
000180 26 23 d8 bb 37 98 42 3d 1d 33 10 bd 23 dc 0a 3d
       -0.006595987 0.047508445 -0.035204995 0.033901345
000190 48 4e 2b bd 8f 21 30 bd 85 b9 30 3d 9f 7e 1b 3d
       -0.0418227 -0.043000754 0.043145675 0.037962552
0001a0 a8 75 5a bc 4b b2 88 bc dd 62 73 3d 04 18 5d ba
       -0.0133337155 -0.01668658 0.059420455 -0.00084340596
0001b0 12 d3 76 bd 7d 2f 51 3b 92 c8 35 3d f0 ee 41 3d
       -0.060259886 0.0031919174 0.044380732 0.04734701
0001c0 7d b1 b5 bd 9e 6c 81 3d 38 b6 a3 bc 60 6f 2e 3d
       -0.08871744 0.06319545 -0.01998435 0.042586684
0001d0 4c 92 94 bb 8c 58 87 bb 3e 3a 9d bd d2 94 1b bd
       -0.0045340415 -0.0041304287 -0.076771244 -0.037983723
0001e0 a9 67 05 bd 59 ee 51 bc 53 38 da 3c ad c0 16 bd
       -0.03256956 -0.012813174 0.026638186 -0.036804844
0001f0 a9 c0 fd bc 64 08 85 3c 34 ad 08 bd 1c 5b 6e bc
       -0.030975657 0.016239353 -0.033368304 -0.014548089
000200 cd dd f7 bc 32 37 b5 bc 3f 5e dc 3c 1a c3 37 bc
       -0.03025713 -0.022121046 0.026900409 -0.011215949
000210 43 45 a6 3c 82 c3 da 3c 72 19 b5 3c 98 72 fb 3c
       0.020296698 0.026704554 0.02210686 0.030694291
000220 c4 21 79 3d 8e f8 b4 3c 53 53 1a bd 4c b2 c2 ba
       0.060823217 0.022091176 -0.03767712 -0.0014854162
000230 e1 5c 58 bd 76 76 47 3d d7 41 61 3d 28 81 a4 bd
       -0.05282295 0.048696958 0.05499443 -0.08032447
000240 dc e1 ae 3c 24 7b 13 3d c1 19 8e 3b e5 e8 2c 3d
       0.021347933 0.036006108 0.004336566 0.042214293
000250 3f ed 48 bd 8e 5e 33 3d 42 a2 69 bd 70 40 f5 bc
       -0.04905438 0.043791346 -0.057039507 -0.029937953
000260 3c 72 2e bb f6 85 a7 bc de 32 30 bd 4f 5a 4a 3c
       -0.0026618382 -0.02044962 -0.04301726 0.012350633
000270 68 02 00 3a 9f 15 66 3c 27 e2 2c 3d 32 49 93 bb
       0.0004883171 0.014043241 0.042207863 -0.0044948095
000280 75 ee 1c 3d c4 c6 81 3c 77 57 58 3d e2 d3 12 3a
       0.038313348 0.01584185 0.052817788 0.0005601031
000290 b5 48 87 bd c2 2f ed bc a6 00 d2 3d c1 09 82 bd
       -0.06605665 -0.028953437 0.1025403 -0.06349517
0002a0 d2 b6 08 3d ff c2 cf bc c7 ac 37 bd a5 e0 0a 3c
       0.033377476 -0.025361536 -0.044842508 0.008476411
0002b0 5a fb 9d 3c b8 74 0e bd 93 66 79 bd 47 d7 47 bd
       0.019284893 -0.03477928 -0.060888838 -0.04878929
0002c0 64 6f 94 bd 13 b5 9e bd f4 7d 93 bd 8f b7 72 3c
       -0.072478086 -0.07749381 -0.07201758 0.014814272
0002d0 c0 f4 58 bb a0 ec 19 3d 45 e9 da 3b 0d 95 e1 3c
       -0.0033104867 0.03757918 0.00668064 0.027536893
0002e0 b5 48 09 bd 87 02 d8 3d 81 73 bf 3c 2e b7 84 bd
       -0.033516604 0.10547357 0.023370506 -0.06480251
0002f0 74 46 37 bd 5b 1c f8 ba d7 e1 59 bd f0 f1 f7 3a
       -0.044744924 -0.0018929349 -0.053193893 0.0018916707
000300 1c b9 9c 3d 5d 08 1d 3d 23 1d 81 3d c9 a4 aa bc
       0.07652494 0.038338054 0.063043855 -0.020830529
000310 a6 42 b1 3c 44 e7 22 bd 8c 2d f4 bc be c5 b4 bc
       0.021638226 -0.039771333 -0.029806875 -0.022066947
000320 cb 77 30 3d 0b d2 2b bd 1c 70 7c bd 95 1c c5 3c
       0.043082993 -0.04194836 -0.061630353 0.02406148
000330 7d 60 fc 3c a5 74 fc 3c e7 37 cf bc ee 9b 92 bb
       0.030807728 0.03081734 -0.025295211 -0.0044741547
000340 b4 b9 97 3d 03 a5 00 3c 88 85 11 bd 3f cf ad bd
       0.07408467 0.007851842 -0.035527736 -0.08486795
000350 04 ef 57 bd 60 7d 41 3d df fb 62 3d e9 f9 c4 3a
       -0.052718177 0.047238708 0.055415984 0.0015028092
000360 db 83 aa bd c5 5b 70 bd da b6 a3 3d 76 61 6f bd
       -0.08325931 -0.05868127 0.079938605 -0.058442555
000370 aa 73 05 bc 8b e8 b3 3d bb 7a 6b 3d 04 43 58 3c
       -0.008145252 0.087845884 0.05749009 0.0131995715
000380 22 53 6a 3d 72 22 64 3d b8 40 7b bd 68 b3 6d 3c
       0.057208188 0.055696912 -0.061341017 0.014508106
000390 4d 82 66 bd 08 22 34 bd 8a dc a1 3d c8 f5 2d 3d
       -0.05627661 -0.043977767 0.079033926 0.042470723
0003a0 e0 ae 85 3c 21 a2 6b bd 98 cf 3b bd c2 a1 66 3d
       0.016318738 -0.057527665 -0.045852274 0.056306608
0003b0 8f 32 41 bc 4b 1c 97 bc 91 57 a4 bc c7 1a 29 3d
       -0.011791839 -0.018446108 -0.020061286 0.041285302
0003c0 31 b4 41 3c e7 15 93 bd a5 25 f2 3c bd 4d ec bc
       0.011822746 -0.07181912 0.029558966 -0.028845662
0003d0 0f 13 40 3d 2a 95 f6 3c da d5 19 bc f5 8c a2 3d
       0.046893176 0.030100424 -0.009389365 0.07937042
0003e0 53 d4 8b bc 29 1b 01 3c 90 f2 4b bb 79 1d a7 bc
       -0.017069018 0.007880011 -0.003111992 -0.020399796
0003f0 6d 16 67 3d 3e 39 95 bd 66 2a a9 3c 8b db 3c 3d
       0.05641787 -0.07286309 0.0206501 0.04610781

action_model._continuous_distribution.mu.bias f4 [2]
000000 87 62 48 ba fe e2 a5 3a
       -0.0007644076 0.001265615

exp_avg f4 [128, 8]
000000 63 b8 8b ba 6c f4 a5 b9 8d 63 37 ba d2 c8 00 3a
       -0.001065981 -0.0003165336 -0.000699573 0.0004912737
000010 3d fb a5 b9 a5 3e e9 b9 ae c4 af ba a5 0c 86 3a
       -0.0003165844 -0.00044487897 -0.0013410056 0.0010227157
000020 1d 45 d7 38 a5 ce 65 39 24 76 e5 b9 c9 22 26 ba
       0.00010264872 0.00021916123 -0.00043766305 -0.0006337581
000030 10 de 65 39 d3 45 4b 3a 9d 41 cc 3a f9 dd 58 ba
       0.00021921867 0.000775424 0.0015583519 -0.00082728226
000040 eb 23 97 b9 14 e8 05 b9 37 f3 2f b9 be 2c f8 b9
       -0.00028827725 -0.00012770324 -0.00016779905 -0.00047335582
000050 2c f0 05 b9 49 75 54 3a 34 2c e9 b9 ab 02 ad 39
       -0.0001277334 0.0008104635 -0.00044474157 0.0003299912
000060 92 87 22 3b c3 32 21 b9 f3 e5 41 ba cb f7 98 ba
       0.0024800044 -0.00015373067 -0.0007396631 -0.0011670528
000070 e0 4c 21 b9 d2 19 ec 3a 33 98 72 3a f2 42 1d 3a
       -0.00015382795 0.0018013066 0.0009254247 0.00059990503
000080 4c 5f e8 3a fe 0e ba b8 ed 21 06 bb 5d 94 0a 3a
       0.0017728596 -8.871964e-05 -0.0020466999 0.000528639
000090 8a 20 ba b8 61 64 51 3a 7c 27 c6 39 60 3f 04 3a
       -8.875232e-05 0.0007987675 0.0003779492 0.0005044844
0000a0 1a a9 6e 39 81 43 e1 b7 f9 2f 8d ba 3e 4c a6 39
       0.00022760444 -2.6853524e-05 -0.0010771743 0.00031718792
0000b0 ad c4 e1 b7 26 cc 1f ba 13 b1 e0 b9 20 62 74 39
       -2.6913674e-05 -0.0006095789 -0.0004285654 0.00023306208
0000c0 c8 32 2b ba 61 bf b5 b7 44 a1 78 37 51 f9 b2 39
       -0.00065306993 -2.1666e-05 1.48194995e-05 0.0003413656
0000d0 17 c4 b5 b7 d5 25 44 39 9a 5f 14 3a af 29 93 39
       -2.1668193e-05 0.0001870611 0.00056599977 0.00028069082
0000e0 bc e3 3b ba ce 71 2e ba 59 14 1b 3b ab 6b c4 ba
       -0.0007167419 -0.00066545315 0.0023663251 -0.0014985701
0000f0 46 72 2e ba b6 4a 29 bb 04 be 87 3b 16 a1 89 3a
       -0.00066546013 -0.0025831885 0.0041425247 0.0010500278
000100 54 a6 3f 3a 1c dd 1c ba de c7 39 bb 4f ff 02 bb
       0.00073108566 -0.00059838756 -0.002834789 -0.0019988602
000110 bf de 1c ba e8 3c bd 3a 34 e1 a0 39 1f d5 51 ba
       -0.00059841195 0.0014437707 0.00030685368 -0.0008004475
000120 fa 46 9f ba 82 67 bb b9 16 03 a3 ba e7 46 0d b9
       -0.001215189 -0.0003574454 -0.0012436833 -0.00013473221
000130 ec 6b bb b9 0f bc a1 39 96 f4 21 3a 1b 29 07 bb
       -0.00035747827 0.00030848428 0.0006178109 -0.0020623866
000140 6a aa 18 ba 05 e6 eb 37 57 4d 92 b8 ff 35 31 ba
       -0.00058237335 2.8121294e-05 -6.976228e-05 -0.000676006
000150 48 e6 eb 37 5a a4 32 39 7d 52 89 38 f7 ee bd 39
       2.8121416e-05 0.00017036629 6.548034e-05 0.00036226932
000160 6e 13 a5 3a eb d0 a2 b9 a2 1c 02 bb 76 02 10 3b
       0.0012594291 -0.00031054704 -0.0019853492 0.0021974123
000170 3f d1 a2 b9 1d 7e ed b8 3a 74 93 ba e6 e3 0a 39
       -0.00031054948 -0.00011324531 -0.0011249848 0.00013245604
000180 e2 f8 a9 ba dc 3e 38 39 76 47 b9 3a b9 40 38 ba
       -0.001296785 0.00017571024 0.0014135677 -0.00070286874
000190 ad 42 38 39 a2 f9 12 b9 a0 24 fa b9 dd 76 1c 39
       0.00017572446 -0.0001401664 -0.00047711004 0.000149216
0001a0 5e 02 7e 3a 62 7b df b9 9f a9 03 bb 17 2d 54 39
       0.0009689684 -0.00042625802 -0.0020090116 0.00020234693
0001b0 55 7a df b9 61 57 37 b8 ad d7 97 ba ad 50 11 ba
       -0.0004262502 -4.3711978e-05 -0.0011584662 -0.00055433327
0001c0 99 8f 8b 3a 0d ea 2b b9 83 49 6e b9 09 1a ac b9
       0.0010647654 -0.00016395022 -0.00022724834 -0.00032825794
0001d0 4c ea 2b b9 e1 f2 bc 39 f1 7d 1a b9 bf 14 cf 38
       -0.00016395113 0.00036039113 -0.00014733501 9.8743934e-05
0001e0 5a 2d dd b9 5a cc 03 39 69 99 b5 b9 42 f1 a7 3a
       -0.00042186194 0.0001256926 -0.0003463731 0.0012812989
0001f0 09 c3 03 39 34 35 71 ba e2 f7 05 3a 06 43 58 3a
       0.0001256579 -0.00092013483 0.0005110485 0.00082497334
000200 1d 7a 01 3b 73 04 04 ba cd 9b 96 ba f9 39 27 ba
       0.0019756623 -0.00050360634 -0.0011490524 -0.0006379183
000210 95 04 04 ba 91 a9 71 39 15 0c 02 3b ab 4c b6 39
       -0.0005036083 0.0002304672 0.0019843627 0.00034770867
000220 ad 7b 97 ba da 68 23 b8 0f 48 00 3a 58 f5 bc 39
       -0.0011557244 -3.895988e-05 0.000489355 0.0003604095
000230 7e 32 23 b8 25 90 2a ba ff 4a e8 39 7b b3 3f 39
       -3.8909253e-05 -0.00065064646 0.00044306365 0.00018282041
000240 7c 96 5a 39 90 2d 80 b9 70 f7 34 ba cf 49 dc 39
       0.0002084616 -0.0002444801 -0.0006903326 0.00042016662
000250 5c 2b 80 b9 cd e3 2a b6 93 3d 14 ba da f0 8e ba
       -0.00024446368 -2.5464572e-06 -0.0005654927 -0.001090552
000260 6b 20 05 b7 27 ba a3 b8 00 52 98 39 8e b8 17 ba
       -7.934966e-06 -7.807119e-05 0.00029052794 -0.00057876937
000270 f1 b6 a3 b8 0f 65 3a b9 64 2a c8 39 91 4d d7 b9
       -7.806521e-05 -0.0001777599 0.00038178556 -0.00041065787
000280 8a a9 a0 ba 28 1c 48 b9 f7 95 e1 ba 92 a9 43 3a
       -0.0012257558 -0.00019083975 -0.0017210831 0.00074639276
000290 fa 45 48 b9 76 c4 4b 39 51 12 a0 39 96 b3 86 3a
       -0.00019099555 0.00019432776 0.00030531225 0.001027691
0002a0 b3 8a b3 39 c4 a6 0e 3a 97 fb b1 3a 7a 24 9f 39
       0.0003424488 0.000544172 0.0013579008 0.0003035402
0002b0 47 ac 0e 3a 8f 35 89 3a 65 69 ca 37 ef 2f ff 38
       0.00054425414 0.0010468232 2.4129355e-05 0.00012168276
0002c0 bd 56 30 ba 11 ea 00 b9 76 f6 72 b8 73 58 05 3a
       -0.0006726792 -0.00012294228 -5.792683e-05 0.00050867273
0002d0 d4 db 00 b9 d3 44 3d b9 c8 24 d5 3a e1 b6 e3 39
       -0.00012288924 -0.00018050084 0.0016261572 0.0004343307
0002e0 2e 84 83 ba 9a 0f 10 b9 0f ab 51 b9 92 be 1f 38
       -0.00100339 -0.00013738722 -0.00019995518 3.8086037e-05
0002f0 e8 0f 10 b9 e2 50 30 b9 38 cc 65 3a 9f 67 e0 b9
       -0.00013738836 -0.00016814799 0.00087660877 -0.00042801813
000300 0d ab f5 ba 9e cb c9 b9 a4 c1 db ba bb 6a 3a 3a
       -0.0018742994 -0.00038489414 -0.0016766083 0.0007111241
000310 c4 d1 c9 b9 bb e4 c2 38 37 86 79 39 3a da c9 b9
       -0.00038493995 9.293245e-05 0.0002379649 -0.000385003
000320 29 b9 d5 b9 0d 90 42 37 b3 db 06 ba 55 96 7a 39
       -0.0004076448 1.15968405e-05 -0.0005144432 0.00023897861
000330 70 54 43 37 ab 0d 53 3a 4c 5b 2b 3a 71 a0 45 39
       1.1642565e-05 0.0008051048 0.00065367366 0.00018847153
000340 f7 6d f2 b8 23 07 de b9 db d0 c1 ba 9f 8a bd ba
       -0.00011559942 -0.00042348457 -0.0014786975 -0.0014460868
000350 12 16 de b9 2c dd 4e 3a 51 05 b1 ba 83 c0 13 3b
       -0.00042359583 0.00078912335 -0.0013505613 0.0022545166
000360 3f c4 aa bb 14 01 63 ba 8e 38 d5 3a e1 57 c4 ba
       -0.0052113826 -0.00086595234 0.0016267465 -0.0014979803
000370 a9 04 63 ba a9 95 a8 ba 79 5b 4f 3b e1 1f f8 39
       -0.0008660057 -0.0012861985 0.0031640215 0.00047325998
000380 d9 89 48 3b 64 35 6e 38 6b da 7d 3a 12 8c 82 b9
       0.0030599742 5.6793346e-05 0.0009683731 -0.00024899893
000390 69 69 6e 38 f0 82 04 3b 2e 3d 83 3a fa d6 02 3a
       5.6841793e-05 0.0020219646 0.001001274 0.00049911404
0003a0 f9 54 f0 39 a4 e6 57 b8 6d e4 cd 38 8f bf 1f 39
       0.00045839677 -5.1474795e-05 9.817709e-05 0.00015234783
0003b0 28 cc 57 b8 e4 e4 07 39 3a a9 23 3a 9a 28 99 3a
       -5.145013e-05 0.00012959872 0.0006243173 0.0011685074
0003c0 51 1c 96 bb 9e 81 4c ba f4 98 39 bb f4 09 aa 39
       -0.0045810123 -0.0007801297 -0.0028319927 0.00032432342
0003d0 73 88 4c ba 7e 45 c8 ba 2f d8 19 ba 54 d7 36 bb
       -0.0007802315 -0.0015279499 -0.00058687007 -0.0027899342
0003e0 ab f3 0e 3a 1b 15 44 b9 d3 7b 6f b9 54 12 52 ba
       0.00054531795 -0.00018699879 -0.00022838944 -0.00080135954
0003f0 3a 1f 44 b9 3a 11 c3 3a 35 0c 22 38 62 2b bf 3a
       -0.0001870365 0.0014882453 3.863518e-05 0.0014585073

exp_avg_sq f4 [128, 8]
000000 8d 68 18 37 8b 8a c9 34 c8 a9 0b 37 5d de fe 36
       9.084249e-06 3.753997e-07 8.324576e-06 7.5956764e-06
000010 7f 89 c9 34 e5 6d 01 37 51 cd 1d 37 85 32 0a 37
       3.753921e-07 7.714586e-06 9.405733e-06 8.2372035e-06
000020 0b 95 31 37 0d cc f1 34 dc 88 2f 37 d5 a2 22 37
       1.0584724e-05 4.5038215e-07 1.0462678e-05 9.693865e-06
000030 81 cc f1 34 10 81 09 37 e3 96 19 37 88 20 2d 37
       4.5038544e-07 8.195886e-06 9.154642e-06 1.0319178e-05
000040 b3 5b 56 36 59 2e 1f 34 7b 58 5d 36 a8 6a 3d 36
       3.194186e-06 1.482489e-07 3.2983069e-06 2.8225277e-06
000050 e3 30 1f 34 7d cd 8b 36 33 9f 63 36 98 27 67 36
       1.4825814e-07 4.166445e-06 3.3918302e-06 3.444473e-06
000060 b5 8e e0 37 44 ba 9b 35 3c 8d df 37 9c 04 ca 37
       2.6769334e-05 1.160261e-06 2.6649439e-05 2.4082423e-05
000070 8b bd 9b 35 ec 71 eb 37 a8 7c f0 37 d2 0f e7 37
       1.1603564e-06 2.8067232e-05 2.8668277e-05 2.7544713e-05
000080 d4 a8 84 37 da 89 20 35 d0 3c 7d 37 b2 f5 64 37
       1.5814243e-05 5.9805245e-07 1.5094134e-05 1.3647064e-05
000090 4f 8d 20 35 da b8 49 37 89 e7 61 37 ab 58 91 37
       5.9810276e-07 1.2023573e-05 1.3464954e-05 1.7326636e-05
0000a0 47 83 85 36 41 d7 08 34 24 be 57 36 a5 9a 83 36
       3.9789916e-06 1.2744296e-07 3.2148173e-06 3.922107e-06
0000b0 36 d8 08 34 e7 a2 66 36 5a 42 4f 36 f2 79 42 36
       1.2744644e-07 3.4367492e-06 3.0884025e-06 2.8979234e-06
0000c0 06 30 5b 36 3e 3f 10 34 a4 9c 72 36 dd a2 47 36
       3.2661496e-06 1.3434052e-07 3.6151987e-06 2.974811e-06
0000d0 8f 3f 10 34 9a 55 25 36 e4 1c 2f 36 3c bd 35 36
       1.3434168e-07 2.4636743e-06 2.6093849e-06 2.708125e-06
0000e0 f3 cb 90 38 d1 da 45 36 2f 08 98 38 c1 bf 7d 38
       6.9044436e-05 2.9482655e-06 7.249449e-05 6.0498485e-05
0000f0 49 dd 45 36 dc ae 64 38 1f 29 8e 38 fc 0a 9e 38
       2.9484092e-06 5.4522287e-05 6.778747e-05 7.536073e-05
000100 37 60 36 38 67 df ef 35 78 1a 4d 38 3a 5b 1b 38
       4.348179e-05 1.7871906e-06 4.890046e-05 3.703984e-05
000110 9b e0 ef 35 65 aa 1f 38 eb d4 35 38 bf 21 3a 38
       1.7872256e-06 3.8067246e-05 4.3352058e-05 4.4377284e-05
000120 d2 3f 7e 37 ad cf 3a 35 e4 30 94 37 14 ce 76 37
       1.5154439e-05 6.959261e-07 1.7665741e-05 1.4710724e-05
000130 46 d0 3a 35 c9 d6 56 37 46 17 a8 37 07 5c 92 37
       6.959348e-07 1.2805403e-05 2.0037998e-05 1.744741e-05
000140 1a 44 05 36 e2 da ae 33 cc 48 0b 36 16 5b f1 35
       1.9858185e-06 8.142321e-08 2.0754987e-06 1.7982409e-06
000150 6e dc ae 33 b5 66 c6 35 f7 bd a8 35 3f 7f 0e 36
       8.142602e-08 1.4782041e-06 1.2572262e-06 2.1233716e-06
000160 7d fc 10 38 b0 9b be 35 b9 87 0e 38 96 ad d8 37
       3.4567423e-05 1.4201414e-06 3.398184e-05 2.5830039e-05
000170 56 9e be 35 1e 5e cd 37 7e 5d 0c 38 1f fa 23 38
       1.4202185e-06 2.4481731e-05 3.3465672e-05 3.909517e-05
000180 9b 1e b7 37 31 9d 59 35 d9 85 a7 37 46 5f 96 37
       2.1829552e-05 8.1067543e-07 1.9970279e-05 1.7925759e-05
000190 b7 9d 59 35 77 ad 91 37 71 cc 97 37 82 34 ae 37
       8.1068305e-07 1.7366123e-05 1.8095803e-05 2.0766867e-05
0001a0 cd 06 3c 37 26 01 f2 34 0a 0e 43 37 7d d9 08 37
       1.1207257e-05 4.5076848e-07 1.16261745e-05 8.15687e-06
0001b0 f5 01 f2 34 e0 47 12 37 ee dc 35 37 fe b5 42 37
       4.5077437e-07 8.719013e-06 1.083988e-05 1.1605674e-05
0001c0 11 45 55 36 4d ad 07 34 4a 1a 5f 36 45 e8 3f 36
       3.1779675e-06 1.2635901e-07 3.3244892e-06 2.8596417e-06
0001d0 7d af 07 34 6a a0 60 36 bd 12 32 36 c1 78 58 36
       1.2636697e-07 3.3471974e-06 2.6534974e-06 3.2256796e-06
0001e0 6e e2 f3 37 bb 87 8d 35 14 a5 de 37 1e 3e a1 37
       2.9073297e-05 1.0544821e-06 2.6541333e-05 1.9221621e-05
0001f0 62 89 8d 35 7c 84 a9 37 fd 8b ed 37 a5 29 d1 37
       1.0545302e-06 2.0208063e-05 2.8317789e-05 2.4934134e-05
000200 5b c2 74 37 f8 42 27 35 67 7e 87 37 f0 5a 45 37
       1.4588785e-05 6.23098e-07 1.6152115e-05 1.1763288e-05
000210 fe 3f 27 35 fd 6e 6c 37 79 e4 49 37 21 ae 6b 37
       6.230547e-07 1.4092538e-05 1.2033729e-05 1.4047634e-05
000220 27 a4 72 36 45 11 17 34 50 07 58 36 05 6a 76 36
       3.615636e-06 1.4069253e-07 3.2190765e-06 3.6718568e-06
000230 43 13 17 34 36 da 3b 36 1b bb 33 36 2a 0b 4c 36
       1.4069978e-07 2.7992187e-06 2.6781988e-06 3.0404867e-06
000240 ce b7 d2 36 9e 50 7f 34 64 3b a0 36 02 11 a6 36
       6.2798854e-06 2.3778054e-07 4.7752856e-06 4.9491655e-06
000250 ef 51 7f 34 09 d6 9d 36 b7 df ca 36 d5 09 b0 36
       2.3778533e-07 4.7038816e-06 6.046113e-06 5.2463533e-06
000260 aa ee 43 36 c0 c1 eb 33 5d b3 20 36 43 f1 25 36
       2.9196185e-06 1.0978283e-07 2.394626e-06 2.4727349e-06
000270 fb c3 eb 33 63 4e 4c 36 17 f4 11 36 21 6e 11 36
       1.0978689e-07 3.0443996e-06 2.1748763e-06 2.1670787e-06
000280 9f b4 45 38 05 6a fe 35 a1 f1 31 38 bd 99 15 38
       4.7136677e-05 1.895533e-06 4.2425123e-05 3.566755e-05
000290 42 6d fe 35 66 94 0e 38 ce 1c 3c 38 fc 33 4c 38
       1.8956273e-06 3.3993645e-05 4.484952e-05 4.8685804e-05
0002a0 ed 20 22 38 19 ce d0 35 91 33 2b 38 17 cb 01 38
       3.8654474e-05 1.555719e-06 4.0817602e-05 3.094514e-05
0002b0 4d d0 d0 35 60 f7 ef 37 bb 62 24 38 36 f9 2a 38
       1.5557831e-06 2.8606213e-05 3.9192597e-05 4.0763254e-05
0002c0 4d f4 99 37 17 12 51 35 66 01 aa 37 4b a5 80 37
       1.8352783e-05 7.788489e-07 2.026623e-05 1.533576e-05
0002d0 96 15 51 35 1f f1 6b 37 68 75 8a 37 48 7d 96 37
       7.788998e-07 1.4063232e-05 1.6505554e-05 1.7939732e-05
0002e0 cc 48 85 37 1b 8f 2f 35 79 59 8e 37 06 31 4a 37
       1.5888734e-05 6.5400826e-07 1.6969383e-05 1.2051552e-05
0002f0 19 90 2f 35 d1 6c 4b 37 14 51 87 37 06 76 91 37
       6.540227e-07 1.2125079e-05 1.6131009e-05 1.7340306e-05
000300 42 53 be 37 f4 de 78 35 de 35 b4 37 ab ea 91 37
       2.2688535e-05 9.271164e-07 2.1482756e-05 1.7394623e-05
000310 2b df 78 35 4d 04 8f 37 2b 54 aa 37 5a 9a c1 37
       9.271195e-07 1.7048931e-05 2.0304773e-05 2.3079268e-05
000320 68 98 e6 36 04 eb ac 34 d3 c4 12 37 32 c2 dd 36
       6.8722766e-06 3.2208493e-07 8.748105e-06 6.6089206e-06
000330 19 ee ac 34 c0 5d dc 36 76 50 f8 36 c6 6d 08 37
       3.2210735e-07 6.567425e-06 7.400343e-06 8.13179e-06
000340 b4 ad 1f 38 66 16 c4 35 de cf 21 38 1a 11 10 38
       3.8070328e-05 1.4609657e-06 3.8578983e-05 3.4348202e-05
000350 c5 17 c4 35 8f 77 01 38 43 91 17 38 9c 91 2d 38
       1.4610056e-06 3.0867344e-05 3.613649e-05 4.1382023e-05
000360 00 4d 97 38 ff 62 56 36 95 68 95 38 90 22 7d 38
       7.2145835e-05 3.1946108e-06 7.1243536e-05 6.035209e-05
000370 26 66 56 36 97 e8 5a 38 56 eb 93 38 9c 55 93 38
       3.1947943e-06 5.2191866e-05 7.053341e-05 7.025452e-05
000380 7e b5 14 38 ef f9 b4 35 bb 67 03 38 1b 14 fc 37
       3.5454977e-05 1.3483785e-06 3.132944e-05 3.0050103e-05
000390 60 f6 b4 35 52 23 c1 37 24 6f 18 38 e3 d6 0c 38
       1.348275e-06 2.302384e-05 3.634313e-05 3.357873e-05
0003a0 83 0b ee 36 86 5f a6 34 b5 ed f8 36 a8 a0 19 37
       7.094293e-06 3.0989412e-07 7.4186487e-06 9.156916e-06
0003b0 70 61 a6 34 61 2d c9 36 1e d5 ce 36 ab 31 f3 36
       3.0990805e-07 5.9955496e-06 6.1640885e-06 7.2477465e-06
0003c0 82 e6 85 38 76 82 3d 36 0a 36 8b 38 a4 f2 70 38
       6.3848696e-05 2.8239133e-06 6.638102e-05 5.7446436e-05
0003d0 b8 81 3d 36 2f a0 4b 38 7a d6 8c 38 5a f9 8a 38
       2.82387e-06 4.8548154e-05 6.7156696e-05 6.626798e-05
0003e0 4f 64 04 37 68 8c b0 34 b7 3f 07 37 60 3d f0 36
       7.891168e-06 3.2884714e-07 8.061462e-06 7.1597024e-06
0003f0 a6 8f b0 34 68 fc 1d 37 9a e5 07 37 02 cf fa 36
       3.2887073e-07 9.416697e-06 8.100085e-06 7.4746795e-06

exp_avg f4 [128]
000000 6c f4 25 ba a2 ce e5 39 13 e8 85 b9 c5 32 a1 b9
       -0.0006330672 0.00043832237 -0.00025540646 -0.0003074614
000010 00 0f 3a b9 87 43 61 b8 64 bf 35 b8 d0 71 ae ba
       -0.0001774393 -5.370707e-05 -4.333201e-05 -0.0013309065
000020 1d dd 9c ba 7e 67 3b ba 09 e6 6b 38 eb d0 22 ba
       -0.0011967752 -0.00071489054 5.6242603e-05 -0.0006210941
000030 dd 3e b8 39 62 7b 5f ba 0b ea ab b9 58 cc 83 39
       0.00035142052 -0.00085251604 -0.00032790037 0.00025138515
000040 73 04 84 ba dd 68 a3 b8 8f 2d 00 ba 29 ba 23 b9
       -0.0010072127 -7.791978e-05 -0.0004889601 -0.00015614241
000050 28 1c c8 b9 c4 a6 8e 3a 0f ea 80 b9 90 0f 90 b9
       -0.0003816795 0.001088344 -0.0002458845 -0.00027477415
000060 9e cb 49 ba 28 90 c2 37 24 07 5e ba 13 01 e3 ba
       -0.0007697883 2.319373e-05 -0.0008469692 -0.0017319046
000070 3e 35 ee 38 9f e6 d7 b8 9f 81 cc ba 1a 15 c4 b9
       0.000113586415 -0.000102949554 -0.0015602595 -0.00037399755
000080 48 88 ba b9 24 38 8a b9 a8 34 6a ba 45 49 09 3a
       -0.00035578222 -0.0002636324 -0.0008934238 0.0005237053
000090 e0 b0 39 ba d0 3f 10 3a bb 50 85 38 22 7f 03 ba
       -0.00070835464 0.0005502673 6.3569714e-05 -0.00050161977
0000a0 79 4b 4e b9 a3 cb c2 b9 5a df 34 ba f6 b4 41 ba
       -0.00019673807 -0.00037154285 -0.0006899737 -0.0007389331
0000b0 16 ff 1d 39 d5 b7 da 38 55 f7 3e 39 fa a0 85 39
       0.00015067714 0.000104292914 0.0001821195 0.00025487674
0000c0 a9 cd 68 ba c3 dc 53 ba d2 28 13 ba ba 33 8f ba
       -0.00088807434 -0.0008081907 -0.00056136877 -0.001092545
0000d0 6d 38 6e 39 13 09 e9 b9 59 fd 23 b9 ed 79 8a b9
       0.00022718469 -0.00044447984 -0.0001563927 -0.00026412253
0000e0 40 af 57 39 73 fe 5a ba 27 f7 6c b9 06 fe 95 b8
       0.00020569284 -0.0008353956 -0.00022598785 -7.152189e-05
0000f0 8b 1a 39 ba d8 e0 d2 b9 bb f4 cf b9 5b 78 c8 b8
       -0.0007061145 -0.00040221843 -0.00039664455 -9.559161e-05
000100 49 70 4f b9 bd 90 9e b9 2f 43 1e 38 81 2c f3 38
       -0.00019782888 -0.00030243947 3.7732705e-05 0.000115954324
000110 cf b1 b3 39 e4 8c 88 b8 2e c3 4b b9 7b 87 42 ba
       0.00034274018 -6.511228e-05 -0.00019432299 -0.0007420701
000120 0a 23 00 b9 11 98 89 ba e7 cb 04 b9 02 e2 4c ba
       -0.00012220084 -0.001049759 -0.0001266446 -0.000781566
000130 91 aa b7 39 df e0 10 ba c9 a5 14 3a f8 13 04 3a
       0.00035031562 -0.00055266725 0.0005670456 0.0005038376
000140 52 ad 26 3a 5e 9c 1b 37 dd 8b fb b9 35 3a 60 ba
       0.0006358224 9.275127e-06 -0.00047978657 -0.00085535954
000150 8f 37 ac b8 b6 43 ee b9 ad d0 3e b8 d9 ac a2 b9
       -8.211948e-05 -0.00045445346 -4.5493874e-05 -0.0003102783
000160 6a 1c 18 39 5f 17 e1 b9 28 3b b9 b9 b9 a3 93 39
       0.00014506435 -0.00042932757 -0.00035330025 0.00028160008
000170 a4 49 78 b9 af 9b 21 ba 5a aa 2c b9 d7 4e 08 ba
       -0.00023678556 -0.0006164861 -0.00016466659 -0.00051997363
000180 6f 35 1b 39 b9 ac 9e 39 a0 ef 30 3a 0f 8e b9 ba
       0.00014801857 0.00030264797 0.0006749574 -0.0014156717
000190 19 f6 91 38 e7 f9 33 ba 8d 41 73 ba 3f 2c c4 b8
       6.959978e-05 -0.00068655465 -0.0009279482 -9.35425e-05
0001a0 86 e8 51 3a 7e 77 7b 3a 74 0b 81 b9 6d 0c 1f b8
       0.0008007366 0.0009592696 -0.0002461333 -3.7920126e-05
0001b0 57 9e 94 ba d8 d6 10 ba 73 7d 29 b9 20 99 72 ba
       -0.0011338693 -0.0005525178 -0.0001616383 -0.0009254385
0001c0 6e 17 9d b9 9b c0 bb b9 85 fb 04 b8 37 c3 06 ba
       -0.0002996283 -0.00035810922 -3.17055e-05 -0.00051407836
0001d0 c5 56 31 b8 14 a3 50 39 35 02 d6 b9 f4 05 28 3a
       -4.22809e-05 0.00019897177 -0.00040818905 0.00064095785
0001e0 31 8c 36 ba 45 e6 f2 37 7c a7 24 b9 05 aa 02 3a
       -0.0006963639 2.8955876e-05 -0.00015702652 0.00049844413
0001f0 36 f6 46 b9 b1 0c 35 b8 2a 38 dc 39 b1 64 85 b9
       -0.00018974472 -4.3165583e-05 0.00042003515 -0.00025442758
