ML-Agents/results/rollerball001/RollerBall/RollerBall-444921.pt (torch, 447963 bytes, 36 tensors)

network_body._body_endoder.seq_layers.0.weight f4 [128, 8]
000000 75 8b 0e 3f 2b 62 be 3e fc ff eb be 3e cc 7f 3e
       0.55681545 0.3718427 -0.46093738 0.24980256
000010 ed 91 e1 3e 4a 4e 18 be ad f7 11 be 3d 6c fd 3e
       0.44056645 -0.14873615 -0.14254637 0.49496642
000020 41 42 16 bf a1 12 b7 be 18 18 3b be 6d a1 9c be
       -0.58694845 -0.357564 -0.1827091 -0.30591908
000030 bd 8a c7 3d d7 28 7b be d1 dc 17 3e 33 47 c8 be
       0.09743259 -0.24527298 0.14830329 -0.3911682
000040 30 e3 81 3f 9d d7 3e bc e2 d9 76 bd 5c 75 4a be
       1.0147457 -0.011648086 -0.060266383 -0.19771332
000050 b7 da 1e 3e cb 3b 23 bd be 0e 0d bf ff f4 9c bd
       0.1551312 -0.039851945 -0.5510062 -0.07663917
000060 f0 13 e9 be 93 71 51 be fe fa 0f 3e 84 f1 3b be
       -0.45523024 -0.20453481 0.1406059 -0.1835385
000070 03 b5 d3 bd cc b4 7b 3e dc 30 04 3e 73 71 47 bc
       -0.103372596 0.24580687 0.12909263 -0.0121730445
000080 dd ee cb be af 93 21 3c ce f7 05 bd 95 6d 01 3e
       -0.39830676 0.009861871 -0.032707028 0.12639458
000090 d6 8e 02 bf ec 90 9b bd 33 68 ab 3e d3 63 f1 bd
       -0.509992 -0.07596001 0.33477935 -0.11786618
0000a0 22 51 43 3d d9 8a b5 be 68 bf 04 3f bc 01 15 bd
       0.047684796 -0.35457495 0.5185456 -0.036378607
0000b0 95 66 30 be b7 51 48 bd 70 17 26 bd 58 03 dd be
       -0.17226632 -0.048906054 -0.040549695 -0.43166614
0000c0 34 8b 97 3c 4a ef 54 be be 7d ca 3e 1a a3 20 bf
       0.018498994 -0.20794407 0.3954906 -0.62748873
0000d0 21 cb 8a 3b 31 18 54 bd 23 e7 82 3e d7 19 f5 3e
       0.0042356406 -0.051780883 0.25566968 0.47871277
0000e0 45 c0 27 3d a9 00 73 bf b9 85 2e bf 2a ce 0a bf
       0.040954847 -0.9492288 -0.68172795 -0.5422083
0000f0 2d f4 12 3f ff 66 4b 3e af 09 3c bf 99 be f3 3e
       0.5740383 0.19863509 -0.73452276 0.47606352
000100 c9 4a 2e bf 69 e7 36 3e 0b 7b 80 3b 95 61 1c 3e
       -0.68082863 0.17861713 0.003920918 0.152716
000110 9f 83 bf 3e ba 49 90 bc 8b 2b c2 3e c4 e1 b4 be
       0.37405106 -0.01761328 0.37923846 -0.35328496
000120 6e 4e 9c be f4 05 c0 3e f3 67 3a 3f 00 b4 d6 be
       -0.30528587 0.37504542 0.72814864 -0.41934204
000130 da 0f b1 be 0c e1 55 be 65 85 74 bd 26 ed 66 3d
       -0.34582406 -0.2088663 -0.059697527 0.056378506
000140 af 6a 6f bc e2 ba 76 3b d8 93 70 bd df b1 45 3d
       -0.014612838 0.0037648012 -0.058734745 0.048265334
000150 04 7d 15 3e 36 ae d6 bd 51 42 a1 3e cc e0 88 3d
       0.14598471 -0.10482447 0.31495908 0.066835016
000160 a0 30 0d bf 7a da 0a 3f f2 87 ec be 62 d2 cf be
       -0.5515232 0.5423962 -0.46197468 -0.40590197
000170 e1 8d 39 3e ae d2 09 be ad 11 0d 3f d7 56 f9 be
       0.18120529 -0.13459274 0.55105096 -0.48699066
000180 65 5e cb bd 4c 88 da be bc 10 c9 3e fa 87 f4 3d
       -0.09930114 -0.4268211 0.3927058 0.11939998
000190 f5 e7 4f 3e c1 61 38 3e 82 29 87 3e a6 3d ae be
       0.20303328 0.1800604 0.26398855 -0.3403141
0001a0 91 36 c2 be 80 e1 9f be 94 b6 ec 3e 3a e0 32 3e
       -0.37932256 -0.3122673 0.46233046 0.17468348
0001b0 48 84 9e be 46 40 a4 be 57 52 0a bf 24 6e 54 be
       -0.30960298 -0.32080287 -0.5403189 -0.2074514
0001c0 b4 85 1a be f9 94 f2 3d df 1f a5 3d 9c 57 33 3e
       -0.15090066 0.118448205 0.080627196 0.17513889
0001d0 11 39 96 3e a6 be 59 be 2a 71 ad be 71 7c 10 bd
       0.29340413 -0.21264133 -0.338754 -0.035274927
0001e0 d5 2b 69 be 08 9b 92 3e 3a c9 86 3e 22 5c 09 3f
       -0.22770627 0.28633904 0.263254 0.5365621
0001f0 da a0 cb 3c 5b fc 87 3e 67 6a bf be e9 c6 f6 be
       0.024856973 0.2655972 -0.37385866 -0.4819863
000200 5d 10 1f 3e f1 3c 86 3e c6 69 49 be 5d e0 65 3d
       0.15533586 0.2621837 -0.19669256 0.056122173
000210 56 a8 59 3d e4 42 15 3e 8f 81 88 be f3 f0 14 3e
       0.053139053 0.14576298 -0.26661345 0.1454504
000220 62 3c 71 3e 09 1e 25 be 18 72 56 be fa ec c4 3e
       0.2355819 -0.16124739 -0.20941961 0.3846205
000230 27 12 15 be db aa da 3e f2 11 e1 bc 9d 4b 4b bf
       -0.14557706 0.42708477 -0.027474377 -0.7941225
000240 e5 3d 42 be c5 2b 19 be 67 2a b1 bd 2b 82 2b 3e
       -0.18968923 -0.14958103 -0.08650666 0.16748874
000250 34 db a7 3d fa 82 4f be 70 36 c0 be 5f 24 07 be
       0.081961066 -0.20264807 -0.37541533 -0.13197468
000260 3e 02 44 3d aa 8b b9 3e 25 70 ad 3d 3c 35 30 be
       0.0478537 0.36239368 0.084686555 -0.17207807
000270 fa b5 8a bd f3 c6 f8 be 08 fa 39 3e 7e 11 b2 bd
       -0.067729905 -0.48589286 0.18161786 -0.086947426
000280 25 2d dd 3b 97 90 0d bf de 83 5a bc 64 9b 05 3e
       0.0067497664 -0.5529875 -0.013337104 0.13047558
000290 c8 13 39 be 23 7d 15 bf e1 4b cd 3c 74 65 33 3e
       -0.18073952 -0.5839407 0.025060596 0.1751917
0002a0 42 21 10 3f 08 30 62 3e 5d ea 49 3e 98 1b 19 be
       0.5630075 0.22088635 0.19718309 -0.14951932
0002b0 62 4e ac bd 1a c3 a8 bd f9 c0 af 3d 80 cd 3a bf
       -0.08413388 -0.08240338 0.085817285 -0.7296982
0002c0 1b b5 85 3d 98 31 08 be df 45 9f be 27 24 1c bf
       0.06528684 -0.13300169 -0.31107995 -0.60992664
0002d0 38 ff 82 bd 6e 9f 6a bd 65 80 43 3e a2 b0 2c 3e
       -0.06396335 -0.05728095 0.19091947 0.16864255
0002e0 3f 5e 89 3e 76 1b f0 be 31 4d 04 bf 22 9a 0d 3f
       0.26829717 -0.4689595 -0.51680285 0.55313313
0002f0 ff 21 16 be c8 69 2c 3f 5f a8 9d 3e e8 08 62 be
       -0.14661406 0.6734891 0.3079252 -0.2207371
000300 b9 e1 c7 3d 1e d3 55 3e 42 19 89 bd 01 fb 04 bf
       0.0975985 0.20881316 -0.06694271 -0.519455
000310 17 db f6 be bb fe f3 3e af e8 bf bd 49 cc c5 be
       -0.48214027 0.4765528 -0.09370553 -0.3863242
000320 59 98 f5 3c 01 02 86 3e eb da d9 3d a7 db f9 3d
       0.029979872 0.26173404 0.106374584 0.122000985
000330 6e ed b8 3e d4 fc fd be 54 25 22 3f 88 b1 83 3e
       0.36118644 -0.49606955 0.6333821 0.25721383
000340 31 4f 00 be 39 b0 e5 be 55 9a d8 3d 5a dd 20 3f
       -0.12530209 -0.4486101 0.105763115 0.62837756
000350 bc 75 03 bf 3a 41 ca bc c5 3f c0 be b5 30 b9 bd
       -0.51351523 -0.024689306 -0.37548652 -0.09042493
000360 c6 f0 84 be d4 ce 87 3d 8b 3b 56 be 80 3b 60 be
       -0.25964946 0.06631246 -0.20921151 -0.21897697
000370 f6 99 e8 3e 9b a6 3d 3f ed 3b e5 bd 6f 48 ec 3d
       0.45429963 0.74082345 -0.111930706 0.11537253
000380 73 24 4c be 90 1f ae 3e ae 51 02 be 97 16 58 bd
       -0.1993578 0.34008455 -0.12726471 -0.05275592
000390 e5 96 a3 3e 10 5c f1 3d 6b f4 e8 3e 33 8b c7 3a
       0.3195106 0.11785138 0.45498976 0.001522398
0003a0 29 c5 46 3f 12 5d 28 bf fb 54 60 3e 6c bd b2 be
       0.7764459 -0.65767014 0.21907417 -0.34910142
0003b0 6e 4d 4e be 8e f5 71 3f eb 13 9f bd e8 a2 59 be
       -0.20146725 0.9451531 -0.07767471 -0.2125355
0003c0 0d 30 f3 be a7 a0 7b be 04 96 33 3e fd f1 52 3f
       -0.47497597 -0.24573003 0.17537695 0.82400495
0003d0 f3 26 a2 be 5a 7d 23 3f a0 90 a7 be af 97 c6 3d
       -0.3167034 0.63863146 -0.32727528 0.096969
0003e0 21 83 f1 3d a5 b2 5e be 1d ae b8 3b fa 0d 7b 3e
       0.11792589 -0.21747835 0.0056359903 0.2451705
0003f0 e5 41 50 3e d7 2d e9 3e 25 42 c2 be 80 d8 3c 3e
       0.20337637 0.45542786 -0.3794109 0.18441963

network_body._body_endoder.seq_layers.0.bias f4 [128]
000000 9d d4 4d 3d 3f 03 9b bd 8a 21 4e 3d ef e2 0d bb
       0.050251592 -0.075689785 0.050324954 -0.0021650156
000010 70 2c 60 3d ee f1 0e 3d 25 c1 c7 bd 43 7f a7 3d
       0.05472988 0.03489869 -0.09753636 0.0817857
000020 a7 42 d0 3d ad f2 94 bb 9c 18 d0 3c 94 cd 03 bd
       0.10168963 -0.004545531 0.02540236 -0.032178476
000030 96 c9 3f 3d 00 ed 9b bb 27 cf e1 bd 01 c5 4f bd
       0.046823107 -0.004758477 -0.11025839 -0.050724987
000040 e8 e4 b3 bc c7 09 db bc 85 6a 62 bd 5d 46 5d 3d
       -0.021959737 -0.02673806 -0.055277366 0.05402218
000050 a0 c4 fe bd 05 d4 e1 bd 1d 28 f6 3c ed 86 90 bd
       -0.12439847 -0.11026768 0.030048424 -0.07056985
000060 32 fc 66 bd 37 d9 67 3d 93 d8 1b be 03 f5 a0 3d
       -0.056392856 0.056603637 -0.15219335 0.07859232
000070 b3 ed 8c 3d 45 cf b6 3b b1 fd 85 3c 76 82 be 3c
       0.06881275 0.0055789077 0.016356321 0.023255568
000080 c4 ba bf bd ea ae 17 bd 6b 13 1c be 9a 33 55 3d
       -0.093617946 -0.037032045 -0.15241782 0.052051164
000090 dd 31 79 bc da ef 51 3c 3f 95 30 3d 7e 6a f0 3d
       -0.015209642 0.012813533 0.043111082 0.11739062
0000a0 bd 43 ac bd 02 48 ab 3c 95 81 dd bd ee 06 d0 bc
       -0.084113576 0.02090836 -0.108157314 -0.02539393
0000b0 75 b9 b3 3d 78 17 5f bd f9 8d 5c bc ab 0a f6 3b
       0.087756075 -0.05446574 -0.013461583 0.007508596
0000c0 d4 9b 98 3c ed eb 86 3b 50 37 66 3e bf 64 28 3d
       0.018628992 0.00411748 0.22482038 0.041111704
0000d0 4a 11 a9 3b 22 9e 0d bd fb 8d bc 3c fd 34 f8 3c
       0.0051595317 -0.034574635 0.02301692 0.030298704
0000e0 62 3e a1 3d 74 cd af 3d 51 4e 62 bd cb df 7a bd
       0.07873227 0.08584109 -0.05525047 -0.06124858
0000f0 70 2b 62 3d e1 e7 fe 3c 4d ec af 3c 6e fe 13 bd
       0.055217206 0.031116428 0.021474982 -0.036131315
000100 bd 92 40 bc 9e 24 69 bd 81 9a e9 3d c3 20 58 be
       -0.011753735 -0.056919686 0.114064224 -0.21106248
000110 20 a3 39 3d 78 64 62 bd 94 1c 55 bd cb c2 11 3d
       0.045321584 -0.055271596 -0.052029207 0.03558616
000120 0c d2 4f bd 88 a4 45 bc de 30 a9 bc ee 62 4f 3d
       -0.050737426 -0.012063153 -0.020653185 0.050631456
000130 de ae b5 3d 66 08 df 3d 0d 02 d1 bc 2a 18 42 3c
       0.08871244 0.10890274 -0.025513673 0.0118465815
000140 ba d5 a4 3d aa 7a f7 3d 49 b6 c7 3c 01 92 3f 3d
       0.080485776 0.12083943 0.024378913 0.0467701
000150 b8 c6 a8 3d 33 34 42 3c 35 fe 8f ba c5 90 b8 3c
       0.082410276 0.011853266 -0.0010985794 0.022529969
000160 e8 14 40 bd 3f a8 0f 3d 28 98 d0 3d a3 37 a7 3d
       -0.046894938 0.03507256 0.101852715 0.08164909
000170 81 b0 b4 bd a6 de 7c 3d c2 34 3f 3d 5b da 25 3d
       -0.08822728 0.06173577 0.046681173 0.040491443
000180 d8 01 15 3e 3a ed 98 3d c9 e3 43 3d a0 69 1a bc
       0.14551485 0.074671224 0.047824655 -0.009424597
000190 13 78 f3 3d f7 92 20 bc 39 7e 27 be ad a5 cc bc
       0.11888137 -0.009800664 -0.16356744 -0.024981344
0001a0 29 33 6c 3d 31 de 54 bd a8 a5 92 3d 0d d1 e6 3c
       0.057665978 -0.05196971 0.07160503 0.028175855
0001b0 ba 53 0e bc 98 d4 c6 bd b0 e6 ef 3d ff 50 b3 3d
       -0.008686954 -0.09708518 0.11713922 0.08755683
0001c0 9e 01 8a 3d 8c b4 54 bd 69 ae c6 bd 71 c0 90 bb
       0.0673859 -0.051929995 -0.09701235 -0.004417472
0001d0 5f a1 6e 3d 33 43 5f bd ec 9a a5 3d bc 1b ab 3d
       0.058259364 -0.054507446 0.0808619 0.08354899
0001e0 bc 45 86 3d 40 b1 ce bc 1e 2a 2b 3c 9e 16 b4 3b
       0.065562695 -0.025231004 0.010447053 0.0054958602
0001f0 d3 68 96 3d 40 66 78 bc d2 ab a3 bd c9 5f 9d bd
       0.073442124 -0.015161097 -0.079917565 -0.07684285

network_body._body_endoder.seq_layers.2.weight f4 [128, 128]
000000 b8 14 a2 bd 33 c8 cf bd 46 c6 dc 3d cb 7c a2 be
       -0.07914108 -0.10145607 0.10780005 -0.31735834
000010 17 da 99 be 5b 33 9b bd f9 14 19 be df 1c b0 bd
       -0.30049202 -0.07578155 -0.14949407 -0.08599257
000020 d1 cb 96 bc c7 7e d0 bd 7f e6 89 3d c1 09 9d bd
       -0.018407734 -0.10180431 0.06733417 -0.07667876
000030 a5 49 01 bd 49 71 d3 bb 85 e1 d9 bd 54 13 2f 3d
       -0.031564374 -0.0064527136 -0.106387176 0.042743042
000040 cd 47 09 3e 06 63 8d 3e 6f ed 8b 3d 71 4d 75 be
       0.13406296 0.2761461 0.06832396 -0.23955323
000050 1a e3 9f bd 7e 20 26 be ca 6b 7c be 59 4a 25 3d
       -0.07806988 -0.16223332 -0.24650493 0.040354107
000060 dc 98 cf 3d 93 80 15 be a5 82 e4 3d 66 8f 75 3d
       0.101365775 -0.14599828 0.11157731 0.05995121
000070 05 23 16 be cd 3e 23 3d 18 29 87 3d 5e 1c b2 bd
       -0.14661796 0.039854813 0.06599635 -0.08696817
000080 37 fd 06 be 22 a4 d2 3d 0e 53 14 3e 3f d9 a2 bd
       -0.13182531 0.10285212 0.14484808 -0.07951593
000090 fd ab 05 bb 6e 94 a1 bd d4 92 18 bd 32 c4 a2 bd
       -0.0020396702 -0.07889639 -0.0372494 -0.079475775
0000a0 1a 51 26 3d fb 61 1a 3d dd 4d 51 bd 40 c8 77 be
       0.04060469 0.037691098 -0.051099647 -0.24197483
0000b0 87 3f f9 3c ae b2 d7 3d bd 27 d9 3d 79 93 3d 3e
       0.0304258 0.10532127 0.106032826 0.18513288
0000c0 ba 02 2c bd f7 63 68 be 70 37 32 3e a0 91 8e 3d
       -0.041994788 -0.22694384 0.1740396 0.069613695
0000d0 2a 99 77 be dc cb e0 bd bc 88 8b 3d a4 c8 10 bb
       -0.24179521 -0.10976383 0.068131894 -0.0022092247
0000e0 ea 0e 54 3e ec 1f 9b bd 17 2e 0b be 4c 19 b6 3d
       0.20708814 -0.07574448 -0.135918 0.08891544
0000f0 92 e6 ac 3d d6 83 8c 3d 4c 22 32 3e 3e 25 75 bd
       0.08442415 0.06861083 0.17395896 -0.05984997
000100 cb e1 be bd 04 b1 04 ba e1 5a bd bd 6a a1 6a bd
       -0.0932041 -0.0005061778 -0.092458494 -0.057282843
000110 4d 17 aa 3d 39 06 3c bd bc a4 2a 3e a9 5e d0 3d
       0.083052255 -0.045904372 0.16664404 0.10174305
000120 f1 4d 0f 3d 2c 09 d2 3c d1 45 58 bd 99 16 8f be
       0.03498644 0.02563914 -0.052800957 -0.27946928
000130 6a 05 9d be 30 29 8c be 76 14 5b bd 1a f5 b6 bc
       -0.30668193 -0.27375174 -0.05348631 -0.02233367
000140 a8 70 80 bc 9a 8a 59 be 10 9a 17 bd 76 db 92 3b
       -0.015678719 -0.21244279 -0.03701216 0.004481728
000150 5c 4b 39 bd 8e 80 ff bd b6 2d 6f be 5d 66 4a be
       -0.045237884 -0.12475692 -0.23357281 -0.19765611
000160 e5 19 05 3e 9f 71 e6 bb fd 09 4f be 8d b4 9c bd
       0.12998159 -0.0070325877 -0.20218654 -0.07651625
000170 22 c1 ef 3c 8a c3 6c 3e 1e 19 6c bd a1 e0 16 3e
       0.029266898 0.23121467 -0.05764114 0.14734127
000180 66 de 7b bd bc c3 b0 3d 25 48 01 bd 2c 00 9c bd
       -0.061491393 0.08631083 -0.031562943 -0.0761722
000190 c0 41 55 bb 19 82 35 3d 72 c9 4f bd 28 8c 85 bd
       -0.003254041 0.044313524 -0.050729223 -0.06520873
0001a0 21 cb 8f 3d f7 4b a4 bd 6b 84 dc bd 06 c1 02 be
       0.07021166 -0.08022302 -0.10767444 -0.12768945
0001b0 ac ba 80 bd ab f1 2f 3d a8 e1 1c 3b 1f 23 e6 3c
       -0.06285605 0.042955082 0.0023938213 0.028092919
0001c0 a5 fa 4e 3e a9 3c 28 bd 61 2c 24 bd 94 33 d5 3d
       0.20212801 -0.041073475 -0.040081386 0.10410228
0001d0 00 35 6e bd 70 5c 2f 3d c3 20 75 3d f0 4c 0a 3d
       -0.058156013 0.042812765 0.059845697 0.03376478
0001e0 9f 26 eb bd b7 b1 20 be 38 76 6a bc 14 ea bf 39
       -0.11481976 -0.15692793 -0.014310412 0.0003660476
0001f0 1a 72 f0 bd 1c 1c 1d 3e 75 4d 86 bd bd a3 e2 3c
       -0.11740513 0.15342754 -0.065577425 0.027665967
000200 e9 db 0d 3d 23 a6 06 3d 1b df af bd dc e6 9f 3b
       0.03463355 0.032873284 -0.08587476 0.0048798155
000210 ee 74 b8 3e 9e cf 4c 3e 57 20 b2 3d 10 d6 25 be
       0.3602671 0.20001075 0.086975746 -0.1619494
000220 6f 2c ad bc f3 d2 de 3d 4e 90 35 3e 4f 62 2b bd
       -0.021139352 0.10880079 0.17730829 -0.0418418
000230 2e 53 57 3d 6a f3 ee bb 48 18 ac 3d d1 90 59 3d
       0.05256956 -0.007292201 0.08403069 0.053116623
000240 71 7a d8 bd d2 bb 19 3e 1c ef 05 bd 9b 24 5c bd
       -0.10570229 0.15013054 -0.032698736 -0.053745847
000250 1c e3 3d bd e6 d6 63 3c fb 38 f2 3d 41 3c 41 3e
       -0.046359167 0.013906216 0.118272744 0.18870641
000260 8b ca 84 3d 28 1e 6c 3c 77 23 f9 3c 63 57 39 3d
       0.064839445 0.014411487 0.030412419 0.045249354
000270 02 55 54 bd 9c 7c 93 bd 32 ef 3c bd 51 6b de bd
       -0.051838882 -0.07201502 -0.046126552 -0.10860313
000280 d8 6b 6f be d1 6d 80 be 44 a4 65 3e 78 42 06 bc
       -0.23380983 -0.25083783 0.22425944 -0.008194558
000290 2f bc 0c be 64 fe 07 3c 63 a6 83 bd e5 d9 2d 3e
       -0.13743661 0.008300398 -0.0642822 0.16977651
0002a0 03 81 5c bd 4b 49 d3 bc f3 af 8d 3b fd 0a f3 bb
       -0.053833973 -0.025791785 0.0043239533 -0.0074170814
0002b0 5b 62 e9 3c c6 98 e4 bd d2 ef 8e bc 35 4c ec bc
       0.028489282 -0.11161952 -0.01744834 -0.028844932
0002c0 02 a2 15 bd 4c c3 76 3d d4 c8 0a be c1 5c 2d 3e
       -0.036531456 0.060244843 -0.13553172 0.16929914
0002d0 98 e8 0c bb 65 45 1e 3e 12 d5 bf bd c4 5c 7e 3d
       -0.0021500941 0.1545616 -0.09366812 0.062100187
0002e0 b6 43 56 bd 74 62 4b be 07 a9 63 3e 44 e3 24 3e
       -0.052310668 -0.19861776 0.22232448 0.1610232
0002f0 a4 a7 57 3d 53 99 18 bd 23 b6 59 3d 72 c9 2f 3d
       0.05265011 -0.037255596 0.053152215 0.042916723
000300 7a 15 95 be ad 9d 75 bd ad 38 e0 3c 60 f4 88 3d
       -0.29117948 -0.059964824 0.027370775 0.06687236
000310 13 a5 a9 3d 17 ff 98 bd a9 31 00 3e d0 4f 57 be
       0.082834385 -0.074705295 0.12518944 -0.2102654
000320 ae 41 1d bd 87 e6 74 3d 48 9d 6f be b4 df 7c bd
       -0.038392715 0.05979016 -0.23399842 -0.061736777
000330 d9 f3 c2 bc 9d 5d 2b bc 0e b8 70 bd 5f 6c 62 bb
       -0.023797916 -0.010459331 -0.05876928 -0.0034549457
000340 93 dd 25 3e 96 ee dc 3d 52 b2 97 bd 0c 78 ad 3d
       0.16197805 0.10787694 -0.07407059 0.08470163
000350 52 d0 1a 3e 4a cb 40 be dc f5 b2 3d 36 bc a8 3d
       0.1511853 -0.18827549 0.087383 0.082390234
000360 67 91 7d bd a4 e1 f7 3d bc e4 dd bd 50 0c 70 3d
       -0.061906245 0.121035844 -0.10834643 0.058605492
000370 cf c7 9b be 97 73 11 3e 0f 20 1a 3e 4c 47 11 3e
       -0.3042588 0.1420425 0.15051292 0.14187354
000380 ec 37 5b be f2 18 dd bd 95 ff 5a bc 29 33 7f 3e
       -0.21408051 -0.107957736 -0.0133666 0.2492186
000390 92 fb 66 bd 79 32 e4 bb 0d 49 c3 3c a1 71 05 bd
       -0.05639226 -0.0069640246 0.023838544 -0.032579068
0003a0 6d 99 f6 3d 39 a5 4f 3e 2c db f3 bd 50 0f 1f 3d
       0.120409824 0.20277871 -0.11907038 0.038832963
0003b0 ea 54 bf 3d 70 68 28 be 1c bc 5f 3d 8e d2 e2 bd
       0.09342368 -0.1644609 0.054622754 -0.11075316
0003c0 3c 21 8c bd fc 3a 01 bd da 9d 2a bd f5 5d 1d 3d
       -0.068422765 -0.031550393 -0.041654445 0.038419683
0003d0 41 b0 64 3d 87 dd 88 3d 77 a9 86 be be ca 95 3d
       0.05583215 0.06682878 -0.26301166 0.07314061
0003e0 40 9b 83 bd 66 2b 02 bd 61 ab 76 3d da b5 6c 3e
       -0.06426096 -0.03177967 0.060222033 0.23116246
0003f0 eb 10 19 be 9d 55 ba bd 6f b0 c5 bd dd c7 37 be
       -0.1494786 -0.09098361 -0.09652793 -0.17947336

network_body._body_endoder.seq_layers.2.bias f4 [128]
000000 ad 14 98 bb 56 3f 5e 3c 25 54 36 bd 42 99 98 3b
       -0.0046411366 0.013564905 -0.04451384 0.0046569416
000010 bb 0a 9f 3d 6e a1 cb 3d 4f 08 af 3d c1 c6 3c bc
       0.077657185 0.099429 0.085465066 -0.011521996
000020 ea 2f c4 3d d9 5c 29 bd 04 23 02 3d 3f fd 3a 3d
       0.095794514 -0.041348312 0.031771675 0.04565167
000030 32 4b 07 3d e4 6f ea 3d ce 41 6a bb 2e ee 5c 3d
       0.033030696 0.11447123 -0.003574479 0.053938083
000040 2f 35 6c 3d 03 80 62 bd cd c4 9f bd 4d d8 b8 3b
       0.057667907 -0.055297863 -0.07801209 0.0056410194
000050 b7 cc cb 3d f8 c6 f0 3d bf 42 64 3d a0 4e a3 bb
       0.09951156 0.117567 0.055727717 -0.004983738
000060 e2 4e cc 3c 67 ed 30 3d 24 d1 5c 3d a3 a6 fd bc
       0.024939958 0.043195155 0.05391039 -0.030963248
000070 66 14 27 3d c3 95 ef 3c 12 71 68 3d 3b a6 ab 3c
       0.040790938 0.029246217 0.056748457 0.020953288
000080 e3 43 15 bc 94 eb b4 3d bb d8 8d 3d c1 21 30 3d
       -0.009110424 0.088339955 0.06926104 0.04300094
000090 e4 43 7c 3c 3d e2 89 bc 60 07 2e 3c d6 c1 de 3d
       0.015397046 -0.016831512 0.0106218755 0.10876815
0000a0 48 1c ba 3d 11 36 03 be c0 a4 80 bd 98 e2 bc 3c
       0.090874255 -0.12813593 -0.062814236 0.023057267
0000b0 eb c4 da 3b 1d c5 fe 3c 4f 8a 4f 3d 4f d7 8b 3c
       0.0066763065 0.03109985 0.05066901 0.01707044
0000c0 8c 55 42 3d 49 4c eb bc 5a 00 2d 3d 9e 89 5a bd
       0.047444865 -0.028722899 0.042236663 -0.0533539
0000d0 33 60 33 3c 67 45 bf 3d ea 70 b2 3d 40 50 b5 bd
       0.010948229 0.09339409 0.08712943 -0.08853197
0000e0 c8 19 9c 3d 2f 9f 1e 3d 87 13 78 3d 22 ac c0 bd
       0.07622105 0.038726028 0.060565498 -0.09407832
0000f0 f2 5e a0 3d 0e d7 80 3d a8 0d 92 bd 78 ab 4c 3d
       0.078306094 0.062910184 -0.07131511 0.049968213
000100 76 dc c4 bb 1e b8 ae bd 4c 10 86 bd 31 7f d1 3c
       -0.0060077263 -0.08531211 -0.06546077 0.025573345
000110 e3 07 cd 3c 87 ef 83 3d b4 0d ff bc 38 8a 08 3d
       0.025028175 0.064421706 -0.031134464 0.03333494
000120 9f e0 a2 3d cb 61 f5 3c 32 44 8b 3d 0c 89 3a 3c
       0.07952999 0.029953858 0.068001166 0.011385214
000130 14 5d 4b 3d 09 3b ff 3c bb 2d 38 bd 23 8a 5e 3d
       0.049649313 0.03115608 -0.044965487 0.054330956
000140 1e 98 a5 3d c0 28 36 3d 2f 72 1e bd 00 02 02 3d
       0.08085655 0.044472456 -0.038683113 0.03174019
000150 c3 42 13 3d 88 9e 2d bd 02 cc 8f bd 9c 97 4d 3d
       0.03595234 -0.042387515 -0.07021333 0.050193414
000160 76 10 5f 3c 74 c2 41 3c 36 eb 88 bc f5 d1 04 3c
       0.013614764 0.011826146 -0.01671372 0.008106698
000170 0b f2 02 bc cf 63 48 3d e8 99 ce 3d 49 cd 0e bd
       -0.007992278 0.04892331 0.10087949 -0.034863744
000180 6e 4d 0b 3c 3e 10 6e 3d a1 d6 22 3d 0f 68 a8 bc
       0.008502347 0.05812096 0.039755467 -0.020557432
000190 5e f0 12 3e 43 b1 b8 3d ca 62 41 3d 0c 01 a0 bc
       0.14349505 0.09018185 0.047213353 -0.01953175
0001a0 c7 2f ea 3b 46 69 38 bc 48 55 2a 3e 5f 51 3a bc
       0.007146809 -0.011255568 0.16634095 -0.011371939
0001b0 e9 f1 48 bc 2d a2 42 3d d0 33 73 3d 91 59 49 3d
       -0.012264707 0.047517944 0.059375584 0.049157683
0001c0 73 d3 c8 3d 00 04 76 3d fe 9d ab 3d d7 5e a0 3d
       0.09805956 0.06006241 0.08379744 0.07830589
0001d0 3b b8 c7 bb 95 c8 00 3c c4 37 42 bd c3 b4 25 3b
       -0.00609496 0.0078603225 -0.047416463 0.0025284744
0001e0 23 ad 9f 3b 93 7d c1 bd e3 f0 a2 3d 23 a6 25 3d
       0.0048729344 -0.094477795 0.07956102 0.040441643
0001f0 01 f5 dc 3c d6 e6 b2 3d 4e e3 da 3d a5 93 80 bd
       0.026972296 0.08735435 0.10687886 -0.06278161

action_model._continuous_distribution.log_sigma f4 [1, 2]
000000 b0 00 01 bf 1b a4 20 bf
       -0.50391674 -0.62750405

action_model._continuous_distribution.mu.weight f4 [2, 128]
000000 0a b8 8c bc d7 5b 98 bc 06 28 22 3d c7 5e b5 3d
       -0.0171776 -0.01859848 0.03958895 0.08855968
000010 6b bf 1e 3d 31 55 29 be bd 9e 0b be 06 85 6c bd
       0.03875677 -0.16536404 -0.13634773 -0.05774405
000020 7f 4a ca bd 37 c8 45 3c 32 80 9a 3d f9 66 47 bd
       -0.0987749 0.012071661 0.075439826 -0.048682187
000030 34 e5 56 bd 6f 27 1e be 7c 35 3a 3d 9a 9f 27 be
       -0.05246468 -0.1544473 0.045461163 -0.16369477
000040 dc df 0c bd 93 dc 27 3d 6d aa 8a 3a 46 16 aa 3c
       -0.034393176 0.04098184 0.0010579355 0.020762574
000050 a9 03 94 3c 35 0e e0 3d dd a0 6b bd 4b 0f 46 3d
       0.018068152 0.1094021 -0.057526458 0.04835443
000060 42 28 b2 bd ca 1d 7d bd d8 5b 41 bc b9 21 45 3c
       -0.08699085 -0.061795987 -0.011801682 0.012031966
000070 68 cf 0c bd a4 60 da 3c 4b 98 38 3d 6d dc 8a bd
       -0.034377486 0.02665741 0.045067113 -0.06780324
000080 23 20 80 bd 9a 2c fe bd 10 48 e2 3c 1d 22 e8 bd
       -0.062561296 -0.12410851 0.027622253 -0.113346316
000090 39 8c bb 3d 86 8e d4 b9 fd eb b7 3c 35 07 cd bd
       0.09157605 -0.0004054198 0.022451395 -0.1001114
0000a0 17 bf ee bd 45 56 18 3d 1d 6b 8b 3d 6b 2e 39 bd
       -0.11657541 0.037191648 0.068075396 -0.045210283
0000b0 ae ad 61 3d e8 f9 76 bd 5d 41 a4 3d d1 d2 d2 3c
       0.055097274 -0.060296923 0.080202796 0.02573529
0000c0 dd 00 8a 3d 77 ff 17 3d b0 e4 e2 3c 6b 6e 03 bc
       0.06738446 0.037108865 0.027696937 -0.008021931
0000d0 0e e0 33 3d cc 6a a1 bd e9 43 93 bd 0c 45 9c bc
       0.043914847 -0.07881698 -0.07190687 -0.019075893
0000e0 7a ae a7 3d 33 20 55 3d bc d3 bc 3d cf f7 8f 3c
       0.08187576 0.05203266 0.092200726 0.017574219
0000f0 03 18 83 bd 9b 36 89 bc 88 37 ca 3c 09 85 7e bd
       -0.06401064 -0.01674967 0.024684682 -0.06213859
000100 d5 ba 31 bd 2c 34 5f 3d 91 73 4b bd ab 30 8e bc
       -0.043391068 0.054493114 -0.04967076 -0.017357191
000110 98 65 95 bd 85 d7 e8 bd ba 51 cb bc e6 bf c2 bd
       -0.07294768 -0.11369232 -0.024819244 -0.09509258
000120 21 86 58 3d 41 34 c8 3d 95 7b 0e be b7 d7 ec bd
       0.05286229 0.09775592 -0.1391433 -0.11564582
000130 3f f0 0c be d8 20 77 3d de 89 ca bd 57 3c b7 3c
       -0.13763522 0.060334057 -0.09889577 0.02236764
000140 08 01 c6 3c 74 6f 5b bd 69 70 00 3d ee 2d 43 3d
       0.024170414 -0.053573087 0.031357203 0.047651224
000150 b6 f9 9c bc 41 00 c3 3d fd 53 da 3c ae 05 95 3d
       -0.01916204 0.09521533 0.026651377 0.07276474
000160 c1 9d 15 bd a6 f4 4b 3d 56 a1 29 bd eb a2 a2 3d
       -0.0365274 0.04979386 -0.041413628 0.079412304
000170 8b 08 a1 bc a6 aa ef bc 1c 2c d7 bd c9 6b 8f 3b
       -0.019657394 -0.029256176 -0.1050646 0.0043768627
000180 c9 60 16 3d ff 30 ae bd 3b e2 e0 3c ea 0e 8c bd
       0.036713395 -0.08505439 0.027451625 -0.06838782
000190 c8 a9 2d be b6 37 4a 3d b5 f6 0e bb 34 ec 30 bc
       -0.16959298 0.049369536 -0.002181453 -0.010798503
0001a0 1f 96 8b 3d 27 85 18 bd 19 8d 8f 3c 78 26 a0 bb
       0.06815743 -0.03723636 0.017523335 -0.0048873983
0001b0 f9 73 01 3d 0f 51 41 3d c7 4d f2 3d 48 22 86 bd
       0.03160474 0.047196444 0.11831241 -0.065495074
0001c0 66 5e d9 bd 63 ce fc 3b 5c f7 09 be e3 30 fe 3b
       -0.10613708 0.007715033 -0.13473266 0.0077572926
0001d0 77 94 1c 3d bf a2 a1 bc 4f 21 a6 3d 1a 47 58 3c
       0.038227525 -0.019730924 0.08111822 0.013200546
0001e0 1d 96 73 bd 3d 77 04 3d fe 5c a2 3c 74 d4 da 3d
       -0.05946933 0.032340277 0.019819733 0.106850535
0001f0 21 80 9d 3d 0a 65 8c 3d fe 64 4d 3c 09 1f f4 bb
       0.07690454 0.06855209 0.012536285 -0.0074499887
000200 54 88 f0 bd 1a 9e 3e 3d 8a 93 e4 3d 27 3f 91 3c
       -0.117447525 0.046537496 0.11160953 0.017730309
000210 9d fe 0f 3d 36 d4 52 3c 72 53 24 3c c5 9b 9e bd
       0.035154928 0.012867978 0.010029661 -0.077445544
000220 b2 b1 c1 3c 35 2e c9 bd e8 2b 39 bd 41 ab 15 3d
       0.023644302 -0.098232664 -0.045207888 0.036540274
000230 ee 2e 3c 3c 21 d2 2b 3c 39 6d 67 3d a6 3a 5c 3d
       0.011485798 0.01048711 0.056500647 0.05376687
000240 45 e9 f2 bd b8 28 bc 3c b6 1e c9 bb b1 f8 9a ba
       -0.11860899 0.022968635 -0.006137694 -0.0011823383
000250 c1 a8 44 3d 90 e2 a0 3d c6 f0 93 bc 27 ed 36 3d
       0.0480125 0.07855713 -0.018059146 0.04465976
000260 78 13 33 bc 78 89 0e 3d 33 b3 d0 bd 01 23 32 bd
       -0.010929935 0.03479907 -0.101904295 -0.043490414
000270 e9 f6 bd 3c 24 31 31 bc 5b 24 03 be 0f 92 f3 bd
       0.023189025 -0.010814939 -0.12806837 -0.11893093
000280 af d0 a3 3c 7d 8e 07 bc a6 82 54 3d 0e 3f 91 3d
       0.019996969 -0.008273718 0.05188241 0.07092105
000290 36 34 62 bd bf c9 0f bd ee ea 39 bd 67 80 0b 3c
       -0.055225573 -0.03510451 -0.045390062 0.0085145
0002a0 c6 ed 8e 3c bf 73 6f 3c 3d 0b 54 3b 53 a6 90 bb
       0.017447364 0.014614998 0.0032355331 -0.0044143586
0002b0 73 cd 19 bd ed fb 14 bd 90 37 4d bd 5e 78 9c bd
       -0.037549447 -0.036373068 -0.050101817 -0.07640146
0002c0 7e 5e 7b 3b 0f 68 ba 3b a5 d5 5f bd 55 1d 7a bd
       0.0038355882 0.0056886743 -0.054647107 -0.06106313
0002d0 ad 93 90 3c 9c 24 95 bd a4 c0 dc 3c 30 49 95 3b
       0.017648542 -0.07282373 0.026947327 0.004555844
0002e0 90 15 7a 3d 7f 14 4f 3d 05 2d 33 3d 95 ee 77 bc
       0.06105572 0.050556656 0.043744106 -0.015132566
0002f0 8d 18 c5 3c ce 63 d5 bd a4 d1 20 3d 56 48 7c bb
       0.024059558 -0.10419427 0.03926243 -0.0038495264
000300 93 a0 80 bd fb 59 69 bc 7c 6d 8a 3d 9d 52 96 bd
       -0.06280627 -0.014242644 0.06759164 -0.07339976
000310 a2 06 a5 bc 8b 47 0b 3a e9 06 f3 bc 3c f1 a0 3d
       -0.020144764 0.000531309 -0.029666381 0.07858512
000320 95 a9 f8 bd 6d a5 d7 bd 72 cc 6a 3d 15 4b 19 3d
       -0.1214172 -0.10529599 0.05732388 0.03742512
000330 15 09 5d 3d 04 e7 4f bd 3b 75 19 bd e0 a8 d1 bd
       0.05396374 -0.050757423 -0.037465315 -0.102372885
000340 13 99 6a 3d ae 4b e6 bc 21 c8 06 3d 9b e1 88 bd
       0.05727489 -0.028112259 0.0329057 -0.06683656
000350 b2 13 cc bd ad cb 8d 3d 30 25 34 bd a5 d8 ef 3c
       -0.09964694 0.06923614 -0.043980777 0.029278109
000360 e1 ea 0a 3c 0b 2b 54 bd 28 14 1e 3e 41 3c 48 bd
       0.008478851 -0.05179886 0.15437376 -0.048885588
000370 d2 bf 69 3c a8 2e b5 bd 05 e7 a3 3c 13 7d 39 3d
       0.014266925 -0.088467896 0.02000762 0.045285296
000380 0c b7 d9 bd 16 70 e9 3c 26 59 55 3d 2f de 3a 3c
       -0.106306165 0.02849583 0.05208697 0.011405512
000390 97 da 6e bd 35 29 bc 3d b7 60 9c 3d 67 3b 9a 3b
       -0.058313932 0.09187547 0.076356344 0.0047067883
0003a0 15 07 eb bc 97 d4 c4 3c 5f 3f 1c be 17 db 4f bd
       -0.0286899 0.024027152 -0.15258549 -0.05074605
0003b0 a7 6c 92 ba 22 13 02 3d 44 8c 1e bd 36 6a 12 bd
       -0.0011171297 0.031756528 -0.038707986 -0.035745822
0003c0 7b e3 88 3d 68 6b dd bd aa 94 17 3c 69 5c 00 be
       0.066840135 -0.10811502 0.009251753 -0.12535252
0003d0 a9 20 0c bd 59 2f 2f bd 46 d6 3f 3d d3 d7 43 3c
       -0.034210835 -0.042769764 0.046835206 0.011953312
0003e0 9a ee a6 bd f7 8c ab 3d 67 5a 78 3d fb f8 17 bc
       -0.081509784 0.08376496 0.06063309 -0.00927567
0003f0 e6 86 a9 bd 88 50 ad 3d b3 ce 1a be a8 a5 0e bc
       -0.08277683 0.08462626 -0.15117912 -0.008706488

action_model._continuous_distribution.mu.bias f4 [2]
000000 96 ae 19 bc 7e 44 64 3c
       -0.009380003 0.013932345

exp_avg f4 [128, 8]
000000 e1 aa ac 3b 11 79 1b ba 16 7e a9 3c 58 71 36 3b
       0.005269394 -0.0005930821 0.020690005 0.0027838554
000010 67 7c 1b ba 8c b6 a9 3b 33 fe ec bb 1d e0 a8 3c
       -0.0005931318 0.005179232 -0.0072324513 0.020614678
000020 98 ee b3 3a eb f9 97 ba 84 d0 d7 3b 46 2b 3c 3b
       0.0013727723 -0.0011594867 0.0065861363 0.0028712316
000030 9f f3 97 ba b1 4e aa ba 3b 83 b6 3a b6 9f 08 bb
       -0.001159299 -0.0012993423 0.0013924608 -0.0020847148
000040 46 76 60 3c 70 a7 25 3b 02 41 b2 3b 9f 86 17 3b
       0.013700074 0.0025276802 0.0054398784 0.0023121012
000050 ed a9 25 3b 4b 70 32 bc 56 20 ef 3a 9e cc 33 3c
       0.0025278286 -0.010891031 0.001824389 0.0109740775
000060 45 bf e2 3b e5 85 9d ba d5 21 a9 bb c0 0d fb bb
       0.0069197738 -0.0012018053 -0.005161504 -0.0076615512
000070 0f 7f 9d ba 28 30 0a bc 24 db a7 bb db f0 52 39
       -0.0012016016 -0.008434333 -0.005122559 0.00020116886
000080 3c ec 2b 3d dd 3b 1e bc bc 8a 37 bd 3f 6a ee bc
       0.041973338 -0.009657827 -0.04481004 -0.029103396
000090 03 3c 1e bc 00 72 ee bc f5 cf 9a bc 50 3a 17 bc
       -0.009657863 -0.029107094 -0.01889799 -0.009230211
0000a0 62 26 b1 3c bf ad 9b bb 44 ee a6 bb 4b e0 72 3c
       0.021624748 -0.0047509368 -0.0050943214 0.014823983
0000b0 01 b3 9b bb 69 fd 17 bc f5 c9 a3 3c 2c 5c 27 3c
       -0.0047515635 -0.009276726 0.019993762 0.010214847
0000c0 13 f2 ae 3b f3 8d 97 3b ea 95 79 3c 49 da f9 bb
       0.005338916 0.004625076 0.015233496 -0.0076248986
0000d0 dc 8f 97 3b c8 07 5d bb b9 e2 ad 3a 18 5a 54 3c
       0.0046253037 -0.0033726562 0.0013266421 0.012960933
0000e0 1e 5d 85 ba 78 fb 7c 3a 2b 58 6a 3b d1 1a fe ba
       -0.0010174846 0.0009650509 0.0035758119 -0.0019386654
0000f0 de 0e 7d 3a f8 ef 14 bc 0a 1f 91 bb 60 fd e0 b7
       0.00096533995 -0.009090416 -0.004428749 -2.6820868e-05
000100 d9 f3 2c 3d 42 b8 41 bc 28 34 30 bd 5b 86 24 bd
       0.04222474 -0.011823716 -0.04301849 -0.040167194
000110 17 b9 41 bc eb f7 16 bd 08 e2 e5 bc 36 c0 54 bc
       -0.011823914 -0.036857527 -0.028061882 -0.01298528
000120 36 7a d4 3b 26 78 83 bb 3d fe 3c bb b3 cc 3a 3c
       0.0064842952 -0.0040121255 -0.0028838061 0.011401343
000130 d7 78 83 bb 45 dc 44 bc 10 30 6a 3b 01 66 6e 3a
       -0.004012208 -0.012015407 0.0035734214 0.0009094179
000140 72 27 1d 3c a1 1d d6 ba d1 b8 80 bb a7 a5 97 ba
       0.009591924 -0.0016335734 -0.003928282 -0.0011569754
000150 06 1f d6 ba 1d 3e a6 bb fc ce 6c ba c8 e0 d7 bb
       -0.001633615 -0.0050733224 -0.00090335286 -0.0065880753
000160 1a 68 77 ba ae 26 c1 ba a3 69 3c bb 35 45 e5 b9
       -0.00094378146 -0.0014736259 -0.0028749488 -0.00043729847
000170 01 25 c1 ba 23 dd 8e ba 4e 84 91 ba d8 92 30 bb
       -0.001473576 -0.0010899644 -0.0011102052 -0.0026942994
000180 9e d7 40 3c 9c 4c 91 bb a6 68 ba bc e7 6b 7c bc
       0.011770157 -0.0044341814 -0.022754978 -0.015406585
000190 bf 4c 91 bb 5d a3 b9 bc 41 45 77 bc b8 44 82 bb
       -0.0044341977 -0.022660905 -0.015092195 -0.003975477
0001a0 df 5a e3 3b 27 df 32 bb c6 78 76 bb 55 52 d0 3b
       0.006938323 -0.0027293654 -0.0037608608 0.006357471
0001b0 5f e2 32 bb 4b 04 5b bb eb 8d 32 3c df c0 32 3c
       -0.0027295572 -0.0033419307 0.010898094 0.010910242
0001c0 79 fc 98 3b c2 02 ac ba 9d e8 a1 bb 7b 18 7d b9
       0.004668769 -0.001312338 -0.0049410597 -0.0002413708
0001d0 6f 02 ac ba b2 1d 7d bb 53 34 03 3b 02 2e 9d ba
       -0.0013123284 -0.0038622436 0.0020020201 -0.0011991861
0001e0 45 71 9d ba ba a7 d9 b9 73 1a a6 3a 2b 1b cf bb
       -0.0012011906 -0.0004151443 0.0012672677 -0.0063203773
0001f0 21 b5 d9 b9 3e 20 e9 bb 93 f1 39 bc 99 dd 76 bb
       -0.00041524417 -0.0071144393 -0.0113491 -0.0037668704
000200 5a 9e a2 bb fe 2b e6 3a cf 42 8a 3c f2 40 9c b9
       -0.0049627246 0.0017560718 0.01687756 -0.00029803027
000210 c7 2f e6 3a 00 a6 07 3c 3f ce ab bb 6c 3d 5b 3b
       0.0017561846 0.008279324 -0.0052430923 0.0033453358
000220 ca 5d 4f bc 01 8b 07 bb a4 9d a6 39 de 9d 6a bb
       -0.012656638 -0.0020682218 0.0003177944 -0.0035799663
000230 03 8b 07 bb a3 48 8e bc 59 d2 84 bc 59 56 45 3b
       -0.0020682223 -0.01736862 -0.016213583 0.0030111282
000240 5a 67 e1 3a d9 fb 01 ba ea a3 c0 38 98 3a 72 3b
       0.0017196939 -0.00049584877 9.185805e-05 0.0036961194
000250 a2 f9 01 ba 81 0f 51 3b 31 94 8b 3b 8c 59 3b 3b
       -0.00049581577 0.003190011 0.004259609 0.002858731
000260 86 2f 72 b7 dc f3 b3 39 e8 7d 25 bc 04 75 6a 3c
       -1.4435389e-05 0.0003432323 -0.010100819 0.014310125
000270 a6 e3 b3 39 a2 7e a2 b9 41 17 e9 3b f9 22 33 3b
       0.00034311152 -0.00030993397 0.007113368 0.0027334078
000280 ff 16 48 bb d9 f9 84 ba 35 f8 fd bb 7c 46 1e 3b
       -0.0030531285 -0.0010145261 -0.007750536 0.0024150899
000290 55 fa 84 ba 52 4c 02 3b 3b 29 7e ba 25 94 21 3b
       -0.0010145406 0.0019881916 -0.0009695475 0.0024654951
0002a0 1c f8 07 3c 26 e1 f1 3a 27 de ca 3b cb d2 f1 3a
       0.0082989 0.001845394 0.0061910334 0.0018449662
0002b0 39 de f1 3a ef 67 b7 ba e4 03 44 3c c3 ab 27 bb
       0.0018453068 -0.0013992767 0.011963818 -0.0025584556
0002c0 b7 01 ee 3b a5 71 58 3b 1e fc 5a 3c 9d 55 f6 bb
       0.007263388 0.0033026722 0.0133657735 -0.00751753
0002d0 9b 77 58 3b 14 e1 71 bc 08 06 8e bb f8 e4 db 3b
       0.0033030275 -0.014763135 -0.004334215 0.006710645
0002e0 ac de bd bb 19 99 9a b9 8c 37 23 3b 0e ce c1 3a
       -0.005794367 -0.00029487236 0.0024904935 0.001478614
0002f0 8a 9e 9a b9 66 f5 f7 b9 01 25 f4 bb 2d cc 51 3b
       -0.0002949129 -0.00047294347 -0.0074507003 0.0032012567
000300 67 01 3d bc a9 48 85 3a 11 23 f2 3b 6a 56 1b 3b
       -0.011535979 0.0010168749 0.007389434 0.002370263
000310 e9 51 85 3a 1f 1b d9 3b 4d db cc bb 54 a6 e1 ba
       0.0010171506 0.0066255475 -0.0062517286 -0.0017215707
000320 4d ec 21 3c 5a 46 39 bb fd 8c 88 bc 9f 8e ab bb
       0.009882999 -0.0028270693 -0.016668791 -0.0052355076
000330 c4 45 39 bb 01 70 b7 bb ad 86 21 bc 89 c7 9e bc
       -0.0028270343 -0.0055980687 -0.009858769 -0.019382255
000340 53 8b 09 bc 6d 93 99 3a b0 85 13 3c 21 6e a3 3a
       -0.008395034 0.001171691 0.009004042 0.0012468734
000350 ac 94 99 3a 0d 29 8f 3b 72 63 61 bb 74 d5 27 ba
       0.0011717281 0.0043689073 -0.003439155 -0.00064023514
000360 da 31 cb bc e1 ec 74 3b 1b 06 15 3d 1d 69 49 3c
       -0.024804045 0.0037372636 0.036382776 0.012293127
000370 c0 f6 74 3b 17 eb c9 3c 36 82 ad bb a4 98 4b 3c
       0.003737852 0.024648232 -0.0052950634 0.012426529
000380 4a 93 06 3c 8b 17 ad bb 89 04 8f bc 79 62 a2 bc
       0.008213827 -0.0052823476 -0.017458217 -0.019822346
000390 0c 16 ad bb 98 58 93 bc 34 4e ea bc 0f 15 75 bb
       -0.005282169 -0.01798658 -0.028601743 -0.0037396585
0003a0 b5 3f 77 bb df d6 97 3b 14 7f ad 3c 50 e8 77 3c
       -0.0037727181 0.004633769 0.02117876 0.015131071
0003b0 50 d9 97 3b 8e 6e b0 3c a5 93 97 3c fa e3 42 3b
       0.00463406 0.021537092 0.01850302 0.0029737935
0003c0 29 9c 95 bc 1f 4e 52 3a e8 7c 45 ba fd 3a 6a bc
       -0.01826294 0.0008022505 -0.0007533566 -0.01429629
0003d0 15 58 52 3a 78 2e 68 bb 76 25 2d bc e0 e7 f1 bb
       0.00080239895 -0.0035428088 -0.010568013 -0.007382378
0003e0 4d 16 27 bd 3a 3e c4 3b 5b a8 02 3d 38 82 0e 3c
       -0.040792752 0.0059888633 0.031898838 0.008698039
0003f0 70 40 c4 3b 36 f4 1e 3d 5a 33 94 bb cc 54 49 3c
       0.005989127 0.038807116 -0.004522723 0.012288284

exp_avg_sq f4 [128, 8]
000000 f8 bd 15 3b db 04 e9 38 ea 9b 2c 3b 6c b9 94 3b
       0.0022848826 0.0001111121 0.002633805 0.0045387056
000010 1e 80 e5 38 76 a1 32 3b 3b 6c 94 3b c3 10 52 3b
       0.000109434346 0.0027256883 0.0045295036 0.0032053448
000020 3b 60 ba 3a 6c a6 91 38 c2 ab d1 3a ae 78 64 3b
       0.0014219353 6.945137e-05 0.0015996622 0.003486197
000030 07 90 88 38 fc fa 11 3b d0 06 00 3b 5d 7a 0c 3b
       6.5118125e-05 0.0022274842 0.001953531 0.002143524
000040 3f eb a0 3b 8b b2 62 39 19 f3 92 3b 29 da d0 3b
       0.004910856 0.00021619552 0.004484546 0.006373663
000050 f2 4e 5c 39 c0 a6 05 3c e1 7c 11 3c 5a 1a e7 3b
       0.00021010244 0.008157432 0.008879871 0.007052702
000060 27 49 4a 3b 09 09 c0 38 35 d2 07 3b 92 72 96 3b
       0.0030866356 9.1569564e-05 0.0020724658 0.0045912946
000070 cf e6 be 38 ad f7 01 3b 0f 98 81 3b 10 27 46 3b
       9.1028975e-05 0.0019831464 0.0039548944 0.0030235685
000080 95 48 b2 3c 00 77 5d 3a 28 6b 84 3c 04 ca 21 3d
       0.021763125 0.00084482133 0.016164377 0.039499298
000090 70 27 5f 3a cd f5 f3 3c b0 9c 03 3d 4a e3 b0 3c
       0.00085126515 0.029780293 0.03213185 0.021592755
0000a0 55 e7 22 3c 64 70 de 39 43 6a 2e 3c f7 0b 95 3c
       0.009942849 0.00042426877 0.010645452 0.018194182
0000b0 2b 81 e0 39 03 ce 31 3c 82 d5 c5 3c 1d e3 9c 3c
       0.00042820847 0.01085234 0.02414966 0.019151265
0000c0 0e 06 04 3b 51 15 c4 38 e5 62 1d 3b 2c 0e 8c 3b
       0.002014521 9.349979e-05 0.0024015245 0.0042741504
0000d0 b1 68 bc 38 f4 68 16 3b 2c 1a 96 3b 6d 50 79 3b
       8.984039e-05 0.002295074 0.0045807566 0.0038042322
0000e0 1f c6 c9 3b fc ba 78 39 3e e6 ac 3b 39 3d 3a 3c
       0.006157651 0.0002372078 0.0052764704 0.011367136
0000f0 e6 fd 78 39 07 6e b2 3b b8 fd 19 3c f6 1a 05 3c
       0.00023745708 0.005445245 0.00939887 0.008124104
000100 34 89 ea 3c d3 78 98 3a fc 85 ca 3c b7 d5 2d 3d
       0.028629877 0.0011632688 0.024722092 0.042440142
000110 3a c8 9a 3a c8 6a 1f 3d 0d 7c 31 3d 2e b2 0f 3d
       0.001180894 0.038920194 0.043331195 0.035082035
000120 f8 96 25 3b 53 7d 07 39 31 2a 3a 3b 44 c9 04 3c
       0.0025266986 0.0001292129 0.0028406496 0.008104626
000130 20 97 f8 38 49 df 1d 3b 37 39 b4 3b c4 8c 8d 3b
       0.00011853711 0.0024089387 0.0054999846 0.004319759
000140 72 9c ed 3a 0e 6c 94 38 f4 3c a5 3a a3 d6 48 3b
       0.0018128289 7.077317e-05 0.0012606666 0.0030645512
000150 ce 70 99 38 96 d4 18 3b 85 2b 5a 3b 99 ee f1 3a
       7.31662e-05 0.002332007 0.00332901 0.0018457948
000160 0d a1 e4 3a b6 d1 86 38 51 46 9b 3a f0 fa fa 3a
       0.0017443016 6.4286796e-05 0.0011846517 0.0019148272
000170 a8 58 8a 38 77 f4 06 3b 73 d0 2b 3b 8b fa fe 3a
       6.596866e-05 0.002059249 0.0026216775 0.001945333
000180 45 ff 62 3b db c8 19 39 fb cb 55 3b 71 ca bc 3b
       0.0034637016 0.00014666042 0.0032622803 0.0057614376
000190 ce ee 1a 39 52 ef ac 3b a4 cb c1 3b 05 b6 b1 3b
       0.00014775546 0.0052775526 0.0059141684 0.0054233097
0001a0 62 a9 9c 3b 57 4f 50 39 ff 2b a4 3b 4a bd 0b 3c
       0.004780934 0.00019865982 0.0050101276 0.008529017
0001b0 82 b0 50 39 c4 ee 92 3b 31 83 4f 3c c3 eb e3 3b
       0.0001990218 0.0044840295 0.012665556 0.006955595
0001c0 13 3e 93 3a 58 6e 4e 38 29 1d 9e 3a 70 a2 07 3b
       0.001123371 4.9216993e-05 0.0012063134 0.0020696186
0001d0 20 eb 4c 38 b6 50 8c 3a 1a f7 48 3b 6b dc cc 3a
       4.8856367e-05 0.0010705206 0.0030664862 0.0015629655
0001e0 61 de 1e 3b a7 d3 d0 38 15 09 15 3b 83 78 42 3b
       0.0024241435 9.957636e-05 0.002274101 0.0029673881
0001f0 d1 e2 d5 38 b8 1b 3e 3b 9a 46 95 3b b6 c1 84 3b
       0.00010198879 0.002900822 0.0045555355 0.0040514125
000200 a7 e1 9f 3b 59 f4 5e 39 85 00 99 3b f0 d9 3e 3c
       0.004879195 0.00021262596 0.0046692514 0.01164864
000210 d1 e6 5c 39 e3 36 b3 3b 13 1a 0f 3c af 94 c6 3b
       0.00021066821 0.0054691895 0.008734244 0.006060205
000220 21 60 e7 3b 6b 34 88 39 e2 cf c8 3b 99 c7 21 3c
       0.00706102 0.00025978996 0.006128297 0.009874248
000230 c2 44 8e 39 a6 ae e9 3b ec 07 17 3c 13 d3 18 3c
       0.0002713558 0.0071314154 0.009218197 0.009327668
000240 34 7e 50 3a ed 7f 14 38 9a 64 67 3a 80 23 af 3a
       0.0007953376 3.540509e-05 0.00088269415 0.001336202
000250 7e e2 0e 38 27 dd 4c 3a a0 cd 09 3b e3 08 81 3a
       3.4066376e-05 0.00078149367 0.0021027103 0.0009844567
000260 0f 30 80 3b 9b a0 3d 39 48 9a 91 3b d1 92 26 3c
       0.003911979 0.00018084275 0.0044434406 0.01016684
000270 4b f2 19 39 7d 5c 7a 3b 72 a0 b9 3b da 76 d3 3b
       0.00014681478 0.00382021 0.0056648785 0.006453377
000280 83 14 2d 3a 16 4a f9 37 d2 65 54 3a 64 09 8b 3a
       0.0006602483 2.9717612e-05 0.00081023306 0.0010607657
000290 eb 12 00 38 97 2a 8e 3a 00 cf 9d 3a 4a 36 9f 3a
       3.0535197e-05 0.0010846433 0.001203984 0.0012146917
0002a0 9f 40 27 3a 9e 14 ff 37 ca cd 3a 3a 76 2c 4f 3a
       0.0006380174 3.040797e-05 0.0007126002 0.00079030485
0002b0 59 66 01 38 e5 19 a0 3a f0 49 9b 3a 18 69 81 3a
       3.0851315e-05 0.0012214748 0.0011847597 0.0009873239
0002c0 0d 5a af 3b dd ae 72 39 24 59 c3 3b fd 2a 20 3c
       0.005351311 0.0002314406 0.005961554 0.009775874
0002d0 f9 da 6c 39 af 82 bd 3b 4d 8e 1a 3c 41 70 c6 3b
       0.00022588288 0.005783401 0.009433341 0.006055862
0002e0 39 b0 d8 3a 66 a4 8c 38 d8 9c cd 3a 50 bc 22 3b
       0.0016532011 6.706342e-05 0.0015687002 0.0024831481
0002f0 55 05 94 38 1d 68 de 3a 67 0e f3 3a 37 42 fe 3a
       7.058183e-05 0.0016968284 0.0018543721 0.0019398396
000300 6e b5 a5 3a a2 71 83 38 d1 78 c7 3a 64 ff 52 3b
       0.0012642571 6.2677325e-05 0.0015218501 0.0032195682
000310 d4 8b 80 38 ab 67 96 3a 38 c2 2b 3b 43 a5 18 3b
       6.129561e-05 0.0011474987 0.0026208293 0.0023291863
000320 18 5c a5 3b e4 18 55 39 a9 90 80 3b c5 1b 16 3c
       0.005046379 0.00020322535 0.003923495 0.009161894
000330 e7 e3 5a 39 bb 0e d4 3b 1d 0d 0f 3c 2c 8c c7 3b
       0.00020875 0.0064714826 0.008731154 0.006089708
000340 a4 50 27 3a 6e a5 d3 37 5d 84 13 3a 94 3a 7b 3a
       0.0006382561 2.5230194e-05 0.00056273286 0.0009583619
000350 5b 54 e4 37 d5 87 43 3a 58 60 ac 3a 2c f8 4b 3a
       2.7219e-05 0.00074589 0.0013151271 0.0007780816
000360 67 3b 33 3c 2a 2c f2 39 9b af 1f 3c e7 67 c7 3c
       0.010939456 0.00046190742 0.009746457 0.024341537
000370 74 33 f4 39 80 df 2e 3c e6 f0 ac 3c f7 91 72 3c
       0.00046577642 0.010673404 0.021110963 0.014805309
000380 f9 ce ac 3b 24 25 64 39 ca 81 91 3b 09 70 1b 3c
       0.0052736965 0.0002175761 0.004440521 0.0094871605
000390 57 fb 69 39 d3 f9 c1 3b d7 46 f5 3b 99 e9 d0 3b
       0.00022314243 0.005919674 0.0074852514 0.0063755033
0003a0 db d0 99 3b 8f 11 82 39 b7 24 b7 3b 41 3c 16 3c
       0.004694087 0.00024808614 0.0055890935 0.009169639
0003b0 22 00 80 39 e6 98 05 3c 8a 6f 4b 3c 29 76 15 3c
       0.0002441416 0.00815413 0.01241673 0.00912241
0003c0 c9 3e 81 3b 9a 93 26 39 7c 1a 79 3b 97 af bb 3b
       0.003944252 0.0001588598 0.003801017 0.005727719
0003d0 43 a2 30 39 7a 99 89 3b 73 8c 08 3c 73 04 ab 3b
       0.00016845115 0.004199204 0.008334267 0.0052190362
0003e0 4c 77 5b 3c 45 0a 09 3a 70 9b 21 3c f3 e6 f1 3c
       0.013395142 0.00052276655 0.009863719 0.02952907
0003f0 d7 6b 09 3a 73 f4 89 3c 31 15 94 3c cb a7 52 3c
       0.00052422046 0.016840195 0.018076511 0.012857388

exp_avg f4 [128]
000000 11 79 9b ba eb f9 17 bb 72 a7 a5 3b e5 85 1d bb
       -0.0011861642 -0.0023189734 0.0050553614 -0.0024036106
000010 dd 3b 9e bc be ad 1b bc f3 8d 17 3c 74 fb fc 3a
       -0.019315654 -0.009501873 0.009250152 0.0019301013
000020 40 b8 c1 bc 25 78 03 bc a1 1d 56 bb b0 26 41 bb
       -0.023647428 -0.00802425 -0.0032671469 -0.0029472522
000030 9b 4c 11 bc 27 df b2 bb c2 02 2c bb bc a7 59 ba
       -0.008868362 -0.0054587307 -0.002624676 -0.00083028874
000040 fe 2b 66 3b 00 8b 87 bb d9 fb 81 ba dc f3 33 3a
       0.0035121436 -0.004136443 -0.0009916975 0.0006864646
000050 d9 f9 04 bb 26 e1 71 3b a6 71 d8 3b 19 99 1a ba
       -0.0020290522 0.003690788 0.006605345 -0.0005897447
000060 a9 48 05 3b 5a 46 b9 bb 6c 93 19 3b e2 ec f4 3b
       0.0020337498 -0.0056541385 0.0023433818 0.0074745277
000070 8b 17 2d bc e0 d6 17 3c 25 4e d2 3a 3c 3e 44 3c
       -0.010564695 0.009267539 0.0016045017 0.011977728
000080 94 a0 5e ba 03 f8 f2 bb 4f fc 87 ba ff 19 a0 bb
       -0.0008492556 -0.007414819 -0.0010374876 -0.0048859115
000090 6a 74 c9 3a 48 76 8f 3a 62 b4 c8 bb d8 4c 33 b8
       0.0015369777 0.0010945285 -0.006125019 -4.2748492e-05
0000a0 18 97 01 3a e3 e7 49 3b ad 22 25 3b d7 8e 01 3b
       0.0004943474 0.0030808381 0.002519767 0.0019768977
0000b0 fc 83 aa bb 63 e5 cf bb 73 78 48 3b 0b 57 36 ba
       -0.005203722 -0.0063444837 0.0030589371 -0.00069557194
0000c0 fb a1 a8 ba 9a 6d 80 bb c9 04 26 3c 6f 0b 2c bb
       -0.0012865657 -0.0039193155 0.010132977 -0.0026251932
0000d0 75 a4 81 ba 77 cc 05 3a e4 7b a1 3b c2 99 8f bb
       -0.0009890931 0.0005104015 0.004928099 -0.004382343
0000e0 4d 65 22 3c 89 c9 79 3b d2 ae 1a bb 05 1f c8 ba
       0.009911847 0.003811451 -0.0023602736 -0.0015268034
0000f0 0d 37 6e 3b d0 81 20 3a 11 63 46 bc 26 bc 93 bb
       0.003634873 0.0006122859 -0.01210858 -0.004508513
000100 3f c8 c2 3b 31 4f 6c bb 91 a7 3f bc f2 f4 31 ba
       0.0059442814 -0.0036057944 -0.011697666 -0.0006788514
000110 1f 3f 09 3c e7 7f 12 bb ad 17 f4 bb 84 ef e1 3b
       0.008376866 -0.0022354068 -0.0074491114 0.0068950076
000120 0f ec f3 39 74 3a a8 ba 57 2d 14 3b a2 5e 62 bb
       0.0004652445 -0.0012834803 0.0022610032 -0.0034541269
000130 ee 8e 17 bc c2 07 5e bc ce 30 2b 3c 8b a5 df bb
       -0.009250386 -0.013551654 0.010448648 -0.006825154
000140 af 74 c7 3b ec 4d 85 bc b4 d7 fc 3b 0f 45 21 bc
       0.006086908 -0.016272508 0.0077161435 -0.009843125
000150 b0 94 b1 ba a0 40 07 3c 14 5a 58 3c 01 f5 21 bb
       -0.0013548341 0.008255154 0.01320507 -0.0024712684
000160 5d ce f4 3a 20 63 0b bb d7 d7 c9 bb 8b 4c 87 bb
       0.0018677224 -0.00212688 -0.0061597633 -0.0041289977
000170 9a 9c 52 bb a9 c4 02 bc 06 62 c4 bb 49 b5 aa bc
       -0.00321368 -0.007981458 -0.0059931306 -0.020838397
000180 19 7c f0 3b ef 6c 59 bc bf 05 92 3b 9a 67 8b 3a
       0.0073390123 -0.013270601 0.0044562514 0.0010635734
000190 82 c1 3e 3b b1 a1 1e ba 45 49 78 ba a5 7d 6c bb
       0.002910704 -0.00060513156 -0.0009471367 -0.0036085632
0001a0 50 63 4a bc b4 7c ef 3b 87 78 f3 3a 25 c1 a4 bb
       -0.0123527795 0.007308567 0.0018575349 -0.0050279074
0001b0 76 29 14 3a b7 65 25 3a 23 ff 37 3c 4c 76 e5 3b
       0.000565193 0.0006309407 0.011230263 0.0070026275
0001c0 48 04 3e bc 1c 74 08 39 4f cf 8d bb e5 a1 b4 ba
       -0.0115977 0.00013013225 -0.0043276916 -0.0013781158
0001d0 a3 11 c8 bb f1 e7 5c bb a6 1e 04 3c f4 75 76 bc
       -0.006105618 -0.0033707584 0.008063948 -0.015042771
0001e0 31 ae 25 3b a8 2e 06 3c 89 f4 99 3b 3e db c3 bb
       0.0025280828 0.008189835 0.0046983403 -0.0059770634
0001f0 44 c4 9b 3b 87 d3 c3 3b 68 3e a3 bb fc 0a ac bb
       0.0047536213 0.0059761438 -0.0049818046 -0.005250333
