ML-Agents/results/rollerball001/RollerBall/RollerBall-96332.pt (torch, 447900 bytes, 36 tensors)

network_body._body_endoder.seq_layers.0.weight f4 [128, 8]
0	0x3f0aa5e3	0.54159373
1	0x3ecd507d	0.4010047
2	0xbedb2c20	-0.42807102
3	0x3e7511c2	0.23932555
4	0x3eeefe18	0.46678233
5	0xbe292a00	-0.16519928
6	0xbe31cd11	-0.17363383
7	0x3f0b6df7	0.5446467
8	0xbf165c7c	-0.5873487
9	0xbea27a9b	-0.31734166
10	0xbe698303	-0.22803883
11	0xbeab990c	-0.33515203
12	0x3e098b33	0.13432007
13	0xbe7cdaab	-0.2469279
14	0x3defedf6	0.11715309
15	0xbee30823	-0.44342145
16	0x3f803310	1.0015583
17	0xbc4f1b31	-0.01264076
18	0xbc9628ea	-0.018330056
19	0xbe25f3f5	-0.16206343
20	0x3e1589b3	0.1460331
21	0xbcf5cef0	-0.030005902
22	0xbf1727ef	-0.5904531
23	0xbe08b196	-0.13348994
24	0xbef411c5	-0.47669807
25	0xbe493832	-0.19650343
26	0x3e11dd4a	0.14244571
27	0xbe2bd76c	-0.16781396
28	0xbdc42012	-0.095764294
29	0x3e9e6dfc	0.30943286
30	0x3dc10611	0.09424985
31	0xbc7e55cd	-0.015523386
32	0xbebc55d1	-0.36784223
33	0xbaeef5c8	-0.0018231208
34	0xbd426ecd	-0.04746895
35	0x3da68774	0.081313044
36	0xbf051de3	-0.5199873
37	0xbd1e075a	-0.03858123
38	0x3ea0c31b	0.31398854
39	0xbe098dd3	-0.13433008
40	0x3b9a843e	0.0047154715
41	0xbea1e277	-0.3161809
42	0x3f0fea2b	0.56216687
43	0xbd42dba3	-0.047572743
44	0xbe120c02	-0.14262393
45	0xbcd8a9cf	-0.026448159
46	0xbb213ff0	-0.002460476
47	0xbed53f99	-0.41650084
48	0xbd732636	-0.059362613
49	0xbe41abce	-0.18913195
50	0x3ece396e	0.4027819
51	0xbf23fd6f	-0.64058584
52	0x3cb868aa	0.022510845
53	0xbd825d98	-0.06365508
54	0x3e66b0bb	0.22528355
55	0x3efa87f9	0.48931864
56	0x3d4b770c	0.04967408
57	0xbf72c7e5	-0.94836265
58	0xbf2de8fd	-0.67933637
59	0xbf03b562	-0.51448643
60	0x3f131d76	0.5746683
61	0x3e54bf82	0.2077618
62	0xbf475b0a	-0.7787329
63	0x3f023e77	0.50876564
64	0xbf28ad4e	-0.6588944
65	0x3e1fcc63	0.15605311
66	0xbbb1a02b	-0.005420705
67	0x3de5fd57	0.11229961
68	0x3eb55a36	0.35420388
69	0x3c9788e7	0.018497897
70	0x3eae2c76	0.34018296
71	0xbec137d5	-0.3773791
72	0xbea6af86	-0.3255579
73	0x3ec5ea56	0.38655347
74	0x3f471a3c	0.77774405
75	0xbee5c387	-0.44875738
76	0xbeafa3f8	-0.34304786
77	0xbe603c64	-0.21898037
78	0xbd4f9220	-0.050676465
79	0x3d23e116	0.04000958
80	0xbd73b5f9	-0.059499715
81	0x3bf70e9b	0.007539583
82	0x3b262d93	0.0025356754
83	0x3de428fa	0.11140628
84	0x3e16d1c1	0.14728452
85	0xbc60c9f8	-0.013720028
86	0x3ea16a7e	0.3152656
87	0x3e382b07	0.17985164
88	0xbf0b0449	-0.54303414
89	0x3f0a5046	0.5402874
90	0xbef79834	-0.4835831
91	0xbee2a83f	-0.44268987
92	0x3e384087	0.17993365
93	0xbe0891f7	-0.13336931
94	0x3f0752a2	0.5286046
95	0xbf03e9f6	-0.5152887
96	0xbdb01af3	-0.0859889
97	0xbed7cf47	-0.42150328
98	0x3ec4af8e	0.38415188
99	0x3de4d9c0	0.11174345
100	0x3e5416a9	0.20711769
101	0x3e861de8	0.26194692
102	0x3e8ca8e5	0.27472606
103	0xbea3c288	-0.31984353
104	0xbee53f01	-0.4477463
105	0xbea52584	-0.32255185
106	0x3eff4f7c	0.4986533
107	0x3e0381b5	0.12842448
108	0xbea5332b	-0.322656
109	0xbe8a65ee	-0.2703089
110	0xbf000629	-0.500094
111	0xbe45102a	-0.19244447
112	0xbe5911c6	-0.21198186
113	0x3e2fef97	0.1718124
114	0x3d070478	0.032963246
115	0x3de6c418	0.11267871
116	0x3eaedde2	0.34153658
117	0xbe74b682	-0.23897746
118	0xbebe55d4	-0.37174857
119	0xbdcdc1a5	-0.100467004
120	0xbe647c48	-0.22313035
121	0x3e9b28b1	0.30304483
122	0x3e730e84	0.23736006
123	0x3f0498aa	0.51795447
124	0x3d24fadb	0.040278297
125	0x3e9e1b67	0.3088028
126	0xbebcf139	-0.36902788
127	0xbf004414	-0.5010388
128	0x3e2b99fc	0.16757959
129	0x3e945898	0.28973842
130	0xbe34296a	-0.17593923
131	0x3d996e38	0.07491726
132	0x3da693ed	0.08133683
133	0x3df62d89	0.12020404
134	0xbe898d6a	-0.26865703
135	0x3e45e3db	0.19325201
136	0x3e82747f	0.25479504
137	0xbe16873c	-0.14700025
138	0xbe43e862	-0.19131616
139	0x3eb7391b	0.35785756
140	0xbe08e54f	-0.13368724
141	0x3ef21f14	0.47289336
142	0xbcd48def	-0.025946585
143	0xbf3e4c35	-0.7433503
144	0xbe8244a0	-0.25442982
145	0xbe06816a	-0.13135305
146	0xbdd8b6aa	-0.105817154
147	0x3e158a27	0.14603482
148	0x3db7afab	0.08969053
149	0xbe55bd73	-0.2087305
150	0xbec1236c	-0.37722337
151	0xbe4233af	-0.18965028
152	0x3d29c009	0.041442905
153	0x3eb58544	0.35453236
154	0x3dcadb08	0.09905058
155	0xbe488f07	-0.1958581
156	0xbdb71695	-0.08939854
157	0xbeeacdd0	-0.45860147
158	0x3e4b973f	0.19881915
159	0xbdb86334	-0.090032965
160	0x3ce76145	0.028244624
161	0xbf105d13	-0.5639202
162	0xbd920a32	-0.07130851
163	0x3d947be4	0.07250193
164	0xbe3bca04	-0.18338782
165	0xbf131c32	-0.574649
166	0x3cc32afb	0.023824206
167	0x3e47d3fe	0.19514462
168	0x3f15028e	0.58207023
169	0x3e7d2033	0.24719314
170	0x3e4c9507	0.19978724
171	0xbda1a22e	-0.078922614
172	0xbd98aa3f	-0.07454347
173	0xbd9629e7	-0.07332211
174	0x3de0eedb	0.10983058
175	0xbf43cec4	-0.76487374
176	0x3d283da1	0.0410744
177	0xbe169e21	-0.14708759
178	0xbea8ea0f	-0.32991073
179	0xbf156803	-0.58361834
180	0xbda11b3a	-0.07866521
181	0xbd8d3134	-0.068941504
182	0x3e3bed00	0.18352127
183	0x3e47995c	0.19492096
184	0x3e977890	0.2958417
185	0xbedbff63	-0.42968282
186	0xbefc0ec7	-0.49230024
187	0x3f0f53d9	0.55987316
188	0xbde07f84	-0.10961822
189	0x3f3de77b	0.74181336
190	0x3ec572a2	0.3856402
191	0xbe243121	-0.16034366
192	0x3dfcb8f2	0.12339963
193	0x3e658a6a	0.22416082
194	0xbd6c9dcc	-0.057767674
195	0xbefa9a23	-0.48945722
196	0xbeee1883	-0.46503076
197	0x3ee22af4	0.44173396
198	0xbdf9e3cf	-0.12201654
199	0xbed9f913	-0.4257284
200	0x3d65b7a1	0.056083325
201	0x3e8497ef	0.25897166
202	0x3e1434d1	0.14473273
203	0x3d8411b5	0.0644869
204	0x3eb76f0e	0.35826916
205	0xbee1e871	-0.4412265
206	0x3f1dc8e8	0.61634684
207	0x3e9ae14f	0.30250022
208	0xbe298a97	-0.16556774
209	0xbed56353	-0.4167734
210	0x3d801726	0.06254415
211	0x3f2124f6	0.6294702
212	0xbef656e9	-0.48113182
213	0xbb80ceb7	-0.0039308923
214	0xbeba5167	-0.3639023
215	0xbe41e54a	-0.18935123
216	0xbe9e05d2	-0.30863816
217	0x3d9fd81b	0.07804891
218	0xbe51a44c	-0.2047283
219	0xbe6b0168	-0.22949755
220	0x3eee69e8	0.46565175
221	0x3f340d4b	0.70332783
222	0xbe29e0c1	-0.16589643
223	0x3dff2957	0.12459057
224	0xbe42a0f5	-0.19006713
225	0x3eb275c4	0.34855473
226	0xbdc61b73	-0.09673204
227	0x3c135856	0.008993229
228	0x3ea77b3c	0.32711208
229	0x3e211672	0.15731218
230	0x3ef67b4c	0.48140943
231	0x3d596c03	0.053081524
232	0x3f4a1f1c	0.7895372
233	0xbf2b5709	-0.6692968
234	0x3e693a5e	0.22776172
235	0xbeb1dca4	-0.34738648
236	0xbe58fa61	-0.21189262
237	0x3f6c5921	0.923235
238	0xbdae8563	-0.08521535
239	0xbe6058d5	-0.21908887
240	0xbedd2aaf	-0.43196627
241	0xbe773cec	-0.24144334
242	0x3e56beb5	0.20971186
243	0x3f504108	0.8134923
244	0xbea14aa1	-0.3150225
245	0x3f37541a	0.71612704
246	0xbea605e0	-0.32426357
247	0x3e16c81a	0.1472477
248	0x3dd8f489	0.105935164
249	0xbe4eec5d	-0.20207353
250	0x3d49bb09	0.049250636
251	0x3e801fc3	0.25024232
252	0x3e5a1b0f	0.21299385
253	0x3edf748c	0.43643606
254	0xbecd1ee2	-0.40062624
255	0x3e61e036	0.22058186

network_body._body_endoder.seq_layers.0.bias f4 [128]
0	0x3da2a5bc	0.079417676
1	0xbd114913	-0.03547008
2	0x3d4a1158	0.049332947
3	0x3bc03433	0.0058655976
4	0x3d304fa6	0.04304471
5	0x3d9619fd	0.073291756
6	0xbda13bab	-0.07872709
7	0x3da9400a	0.082641676
8	0x3da20b22	0.0791228
9	0x3be40aeb	0.0069593093
10	0x3cef0481	0.029176952
11	0xbd0c74bb	-0.03429101
12	0x3d559155	0.052140553
13	0xbc7675ce	-0.015042735
14	0xbd690768	-0.05689183
15	0xbd0b57a2	-0.03401912
16	0x3bb76962	0.0055972794
17	0xbc4ca9c3	-0.012491646
18	0xbd17c099	-0.03704891
19	0x3d3d12f4	0.046160653
20	0xbe0a9579	-0.13533582
21	0xbdabf360	-0.083960295
22	0x3c82c161	0.01596135
23	0xbd002af6	-0.03129097
24	0xbd282050	-0.04104644
25	0x3d5c8880	0.053841114
26	0xbdf67ebc	-0.120358914
27	0x3db8fe04	0.09032825
28	0x3d9e44ca	0.07727964
29	0xbbc653d6	-0.0060524745
30	0x3ca91831	0.020641418
31	0x3d1e5b75	0.03866144
32	0xbd714907	-0.058907535
33	0xbc991b7d	-0.018689865
34	0xbdd16410	-0.102241635
35	0x3d171f79	0.03689525
36	0xbc716349	-0.014733144
37	0x3d4c9b82	0.04995299
38	0x3d23b0f9	0.039963696
39	0x3d45bf67	0.04827824
40	0xbc9fffc5	-0.01953114
41	0x3d3fc338	0.046817034
42	0xbd5fb1b2	-0.054612823
43	0x3c0d32d0	0.008618072
44	0x3d9be2bc	0.076116055
45	0xbce031c8	-0.027367488
46	0x3ca1a044	0.01972974
47	0xbcada6d8	-0.021197721
48	0x3c8971a3	0.016777819
49	0xbd2df285	-0.042467613
50	0x3e4deb7a	0.20109358
51	0xbc181bf5	-0.009284009
52	0x3c9c48c8	0.019077674
53	0x3c85f4c9	0.016352074
54	0x3cc97297	0.024590774
55	0xbc32e5df	-0.010919063
56	0x3d812311	0.063055165
57	0x3da74e98	0.081692874
58	0xbcaac10d	-0.020844007
59	0xbd93fe15	-0.07226197
60	0x3d8b394e	0.067980394
61	0x3cc0b247	0.02352251
62	0xbcd9dfcc	-0.026595972
63	0x3c714339	0.0147255
64	0xbba0ffdf	-0.0049133147
65	0xbd08e54c	-0.0334218
66	0x3dde2c83	0.10848334
67	0xbe2e7482	-0.17036632
68	0x3ced10ab	0.028938612
69	0xbcdc2409	-0.026872652
70	0xbcc1ee1a	-0.023673106
71	0x3d5552f9	0.052081082
72	0xbc1e60c5	-0.009666626
73	0x3c3d89d9	0.01156851
74	0x3cdf277a	0.027240504
75	0x3cdc67d5	0.02690498
76	0x3d97849e	0.073983416
77	0x3d9ceeac	0.076627105
78	0xbcdf137c	-0.02723097
79	0x3c8804cc	0.01660385
80	0x3d92bd87	0.07165056
81	0x3dccf0de	0.10006879
82	0x3c5d3fbe	0.013503967
83	0x3d11f2eb	0.035632055
84	0x3dad1a24	0.084522516
85	0x3c4f197d	0.012640354
86	0xbb60507d	-0.0034227662
87	0xbc773048	-0.015087195
88	0xbcf1c968	-0.029514983
89	0x3b937a52	0.0045006657
90	0x3d844a5c	0.064594954
91	0x3d8a2881	0.06746007
92	0xbd760634	-0.06006451
93	0x3d2ae802	0.041725166
94	0x3d00349d	0.031300176
95	0x3d76b365	0.060229678
96	0x3ddeeb9a	0.10884781
97	0x3da8f3a0	0.08249593
98	0x3d8d75ca	0.06907232
99	0x3b9043dd	0.004402621
100	0x3d98df0a	0.07464416
101	0x3d012fa3	0.03153957
102	0xbded2f6d	-0.115813114
103	0xbc9ba44a	-0.018999238
104	0x3d74f7df	0.0598067
105	0xbcb2f5b3	-0.021845674
106	0x3d29df31	0.041472618
107	0x3c75edb7	0.015010289
108	0xbaece031	-0.0018072185
109	0xbd938985	-0.07203964
110	0x3dbaa0cf	0.09112703
111	0x3d71fd6a	0.059079565
112	0x3d47a918	0.048745245
113	0xbce9f379	-0.02855848
114	0xbda652d4	-0.08121267
115	0xbcbd66a4	-0.023120232
116	0x3d062cb6	0.032757483
117	0x3ca83343	0.020532256
118	0x3db238e2	0.08702256
119	0x3d70898d	0.05872493
120	0x3d43d9c0	0.047815084
121	0xbc8a8f42	-0.016914014
122	0x3c781810	0.015142456
123	0x3c0db383	0.008648756
124	0x3dab99eb	0.08378967
125	0xbbf12808	-0.0073595084
126	0xbda595b1	-0.08085192
127	0xbdde661b	-0.10859319

network_body._body_endoder.seq_layers.2.weight f4 [128, 128]
0	0xbe054ad1	-0.13016821
1	0xbd8c8144	-0.06860593
2	0x3dfe546c	0.12418446
3	0xbe832162	-0.25611407
4	0xbeb2ccac	-0.34921777
5	0x3d09d9eb	0.03365509
6	0xbddd5be5	-0.10808543
7	0xbdbe5f17	-0.09295481
8	0xbd3f8678	-0.0467591
9	0xbdaa0ba7	-0.08303004
10	0xbcd03c67	-0.025419427
11	0xbd8ebda9	-0.069697686
12	0xbcd758b6	-0.026287418
13	0x3d842b16	0.064535305
14	0xbd9467fb	-0.07246395
15	0x3d3c12f8	0.045916528
16	0x3de2e485	0.11078743
17	0x3e8979a5	0.2685062
18	0x3d848242	0.06470157
19	0xbddb20c9	-0.10699613
20	0xbd18e5e4	-0.037328616
21	0xbdfb8a29	-0.12282211
22	0xbe0499a7	-0.12949239
23	0xbc63aaba	-0.013895685
24	0x3de02a4b	0.10945567
25	0xbe3e6fe5	-0.18597372
26	0x3de1009b	0.109864436
27	0x3d8b1802	0.067916885
28	0xbe523efe	-0.20531842
29	0x3d074cfe	0.03303241
30	0x3d8d8450	0.06910002
31	0xbd9d9f2a	-0.07696374
32	0xbe5bbfcf	-0.21459888
33	0x3d36ea45	0.04465701
34	0x3dd553df	0.10416388
35	0x3ccdeede	0.025138315
36	0xbb6a8515	-0.003578489
37	0xbe0b7bfe	-0.13621518
38	0x3daab9ed	0.08336244
39	0xbdde7b53	-0.10863366
40	0x3ce5643a	0.028001893
41	0x3d8b0a31	0.06789053
42	0xbdc086e9	-0.09400732
43	0xbe410e31	-0.1885307
44	0x3b10c06d	0.002208735
45	0x3d953d30	0.07287061
46	0x3e0ddb4c	0.13853186
47	0x3e40559d	0.18782659
48	0x3c7017b2	0.014654087
49	0xbe55bfef	-0.20873998
50	0x3e58e6af	0.21181749
51	0x3d27c0b6	0.040955268
52	0xbe4a2539	-0.19740762
53	0xbd35ee33	-0.044416618
54	0x3db79c82	0.08965398
55	0xbcc52a34	-0.024067976
56	0x3e4c8ef9	0.19976415
57	0xbdd5ea5e	-0.104450926
58	0xbdbd2fa8	-0.09237605
59	0x3d310332	0.043215938
60	0x3def5218	0.1168558
61	0x3d05b387	0.032641914
62	0x3e11e540	0.14247608
63	0xbdca49fd	-0.098773934
64	0xbdd21715	-0.10258309
65	0xbc9c5c0a	-0.019086856
66	0xbc1860aa	-0.00930039
67	0xbcca1912	-0.024670158
68	0x3e07730e	0.13227484
69	0xbda07144	-0.07834104
70	0x3dae382e	0.08506809
71	0x3dea73ae	0.114478454
72	0x3d625d82	0.055264957
73	0x3d3ffd67	0.046872523
74	0xbb3118e4	-0.0027022893
75	0xbe879253	-0.26478824
76	0xbe5f9c9c	-0.21837085
77	0xbe82b500	-0.25528717
78	0x3d73c7f6	0.05951687
79	0xbd5c7ac7	-0.053828027
80	0x3c191117	0.009342453
81	0xbe41a385	-0.18910034
82	0xbccdf0e5	-0.025139282
83	0xbcf73453	-0.030176317
84	0x3c8db685	0.017298946
85	0xbcf029ac	-0.029316746
86	0xbe2a9d6e	-0.16661617
87	0xbe6601fb	-0.22461693
88	0x3de2cd27	0.11074286
89	0xbc6ef3dc	-0.014584508
90	0xbe0fd8b1	-0.14047505
91	0xbd9c22f5	-0.07623855
92	0xbcc0a0e2	-0.023514215
93	0x3e23dfb9	0.16003312
94	0x3cdca074	0.026931979
95	0x3d941c67	0.0723198
96	0xbd8d8e69	-0.06911928
97	0x3de45e5a	0.11150809
98	0xbbe8c98f	-0.007104106
99	0xbd262f2e	-0.040572338
100	0xbca0a086	-0.019607794
101	0x3bdcfbbe	0.006743877
102	0xbd77bff8	-0.06048581
103	0xbd1d61c6	-0.038423322
104	0x3cf871b9	0.030327665
105	0xbd3e4f3b	-0.04646228
106	0xbd5e4e0e	-0.054273658
107	0xbd40c4b6	-0.0470626
108	0x3d84cbe0	0.064841986
109	0x3d067ca7	0.03283372
110	0x3c401948	0.0117247775
111	0x3d0cd4f5	0.03438278
112	0x3e371bbd	0.17881675
113	0xbd342e91	-0.04398972
114	0xbd375235	-0.044756133
115	0x3de3f0c0	0.11129904
116	0x39cb557b	0.00038782865
117	0xbc5adb33	-0.013357925
118	0x3d2cd283	0.042192947
119	0x3cccb8aa	0.024990398
120	0xbcc5dd4d	-0.024153376
121	0xbdcae70a	-0.099073485
122	0xbcaddce3	-0.021223491
123	0xba8a1833	-0.0010535776
124	0xbe155897	-0.14584576
125	0x3dfb8e1f	0.12282967
126	0xbd49a7cb	-0.049232285
127	0x3d28226f	0.041048463
128	0xbd95c8ac	-0.07313666
129	0x3d568cf2	0.05238051
130	0xbe0f8344	-0.14014918
131	0x3d354f70	0.04426521
132	0x3eae9e78	0.34105277
133	0x3e4a6276	0.19764122
134	0x3db66533	0.08906021
135	0xbe085855	-0.13314946
136	0xbc8f5231	-0.017495247
137	0x3e174fac	0.14776486
138	0x3e09e208	0.1346513
139	0xbce8c40f	-0.0284138
140	0x3d8f10ce	0.06985627
141	0x3c43c871	0.011949644
142	0x3debdf41	0.11517192
143	0x3d5c1d6e	0.053739004
144	0xbda34744	-0.07972577
145	0x3deab04d	0.11459408
146	0xbc052cbe	-0.008128343
147	0xbcfc0776	-0.030765276
148	0xbc48c3dc	-0.012253728
149	0xbd8980f5	-0.0671405
150	0x3df74f9d	0.12075732
151	0x3df430f7	0.11923402
152	0x3ddc6c73	0.107628725
153	0xbd0a8209	-0.033815417
154	0x3c67a10d	0.014137519
155	0x3da26f9e	0.079314455
156	0xbda4ba37	-0.0804333
157	0x3cd3f83b	0.025875201
158	0xbc7029b7	-0.014658383
159	0xbd7f5e12	-0.06234557
160	0xbe9baa23	-0.30403242
161	0xbea5e512	-0.3240133
162	0x3db69a9d	0.08916209
163	0x3c991e6d	0.018691266
164	0xbe77ba74	-0.2419222
165	0x3bac71cb	0.0052625886
166	0xbc65c62a	-0.014024297
167	0x3d99248a	0.074776724
168	0xbe45ff3e	-0.19335648
169	0xbcc18e09	-0.023627298
170	0xbdad79da	-0.08470507
171	0xbc67f862	-0.01415834
172	0x3d30f984	0.043206707
173	0xbe1850a5	-0.14874513
174	0x3b42e8fa	0.0029740916
175	0xbd8517f3	-0.064987086
176	0xbc23cfaa	-0.009998241
177	0x3d163027	0.036667015
178	0xbdc10c11	-0.094261296
179	0x3e3b7a18	0.18308294
180	0x3d015951	0.03157932
181	0x3e40b45d	0.18818803
182	0xbd85576a	-0.065108135
183	0x3d9ff450	0.07810271
184	0x3c3142bf	0.010819136
185	0xbe00e75a	-0.12588254
186	0x3e3a5a1d	0.18198438
187	0x3e14668b	0.14492242
188	0x3db0559d	0.086100794
189	0xbda96d5a	-0.0827281
190	0x3d838c4c	0.06423244
191	0x3bf04e64	0.0073335636
192	0xbe72adb7	-0.2369908
193	0xbcdd3b45	-0.027005801
194	0x3d251354	0.040301636
195	0x3d9e3076	0.07724087
196	0x3d5e2ffa	0.054244973
197	0xbdb98512	-0.09058584
198	0x3df08406	0.117439315
199	0xbe173348	-0.14765656
200	0xbd9290e7	-0.07156544
201	0x3d6bbb6b	0.057551783
202	0xbe80313b	-0.2503756
203	0xbcbf4c33	-0.023351764
204	0xba11abee	-0.00055569306
205	0x3cd42e99	0.025901126
206	0xbbc4769d	-0.005995585
207	0xbcb6d8ce	-0.022320177
208	0x3e274fe4	0.1633907
209	0x3dbd5a33	0.0924572
210	0xbd4a819b	-0.049440008
211	0x3da1c10a	0.078981474
212	0x3d8eb116	0.0696737
213	0xbe334fb7	-0.17510878
214	0x3d96f635	0.07371179
215	0x3d4cc127	0.049988892
216	0xbd9754e7	-0.07389241
217	0x3dd7edff	0.10543441
218	0xbd72943b	-0.059223395
219	0x3d86bcd6	0.06578986
220	0xbead2476	-0.3381688
221	0x3dbad8b0	0.09123361
222	0x3e2d9ea5	0.1695505
223	0x3db7d174	0.08975497
224	0xbe2a225b	-0.16614668
225	0xbdf9615c	-0.12176773
226	0xbcf1e7c6	-0.029529463
227	0x3e690754	0.22756702
228	0xbbf661ba	-0.007518974
229	0xbc154313	-0.00911023
230	0x3d8fc9a6	0.07020883
231	0xbcedd426	-0.029031824
232	0x3dc66d6c	0.09688839
233	0x3e41ab38	0.18912971
234	0xbde2dfe8	-0.11077863
235	0x3d2eacd0	0.042645276
236	0x3e05e4ae	0.13075516
237	0xbdf9b3d5	-0.12192503
238	0x3d86576d	0.06559644
239	0xbe2f9838	-0.1714791
240	0xbd9d2fba	-0.07675119
241	0xbd16b4cb	-0.03679351
242	0xbcfb0465	-0.030641744
243	0x3d53b382	0.051684864
244	0x3dd6e9ae	0.104937896
245	0xbcd74130	-0.026276201
246	0xbe3ebc03	-0.18626408
247	0x3dda382b	0.106552444
248	0xbd950960	-0.07277179
249	0x3ca9eeba	0.020743717
250	0x3d9d9917	0.07695215
251	0x3e37b0ca	0.17938533
252	0xbe1a8ecd	-0.15093537
253	0xbd6779e3	-0.056512725
254	0xbd2ee52c	-0.042699024
255	0xbe2acae0	-0.16678953

network_body._body_endoder.seq_layers.2.bias f4 [128]
0	0xbc8d3395	-0.01723651
1	0x3ccb009c	0.024780564
2	0xbd03e0c3	-0.03219677
3	0x3c5a3e0a	0.013320455
4	0x3d55a478	0.052158803
5	0x3dabe0a8	0.08392459
6	0x3db6fd66	0.08935051
7	0xba69979d	-0.0008910837
8	0x3dacd8e1	0.08439804
9	0xbd90b33d	-0.07065437
10	0x3d1917f5	0.037376363
11	0x3d6b1f36	0.057402812
12	0x3d13876d	0.036017824
13	0x3dcd359f	0.10019993
14	0xbc77817a	-0.015106553
15	0x3d795b25	0.060877938
16	0x3d1593d2	0.036517926
17	0xbc0fde93	-0.008781093
18	0xbd46538f	-0.04841953
19	0x3ca13a41	0.019681098
20	0x3d9248f4	0.07142821
21	0x3dd4a004	0.10382083
22	0x3d1daab5	0.038492877
23	0xbd637743	-0.05553366
24	0x3d065abc	0.032801375
25	0x3d0aba91	0.03386933
26	0x3d51382e	0.051078968
27	0xbca9897a	-0.020695437
28	0x3d5e20f8	0.05423066
29	0x3d0e72f1	0.034777585
30	0x3d3351f7	0.04377934
31	0x3c48d68c	0.012258183
32	0xbb6baa23	-0.0035959564
33	0x3d80ce83	0.06289389
34	0x3d781bb1	0.060573284
35	0x3c81d43c	0.015848272
36	0x3c40f345	0.01177675
37	0x3b0f46af	0.00218622
38	0x3d2c5647	0.042074468
39	0x3dac9680	0.08427143
40	0x3d975868	0.07389909
41	0xbd96068c	-0.073254675
42	0xbd753d5a	-0.059872963
43	0x3cc2d8f9	0.023785101
44	0x3c3824e3	0.011239263
45	0xbbde28a3	-0.0067797466
46	0x3d2fc210	0.04290968
47	0x3c6b094c	0.014345478
48	0x3d8bfcdd	0.06835339
49	0xbc4f9e78	-0.012672059
50	0x3ce7bb3e	0.028287526
51	0x3ad52be6	0.0016263693
52	0x3cdee0b7	0.027206762
53	0x3d6d764c	0.057974145
54	0x3da9d248	0.08292061
55	0xbd323995	-0.043511946
56	0x3d8d966c	0.06913456
57	0x3c9d4518	0.019197986
58	0x3c6ed5ea	0.014577368
59	0xbc05cea2	-0.008166941
60	0x3d57ec59	0.052715633
61	0x3d060d4e	0.032727532
62	0xbcbf1579	-0.023325669
63	0x3cd2fd2b	0.025755486
64	0xbc3f3086	-0.011669284
65	0x3c07a3f4	0.008278836
66	0xbd8df56b	-0.069315754
67	0x3d7f16ae	0.06227749
68	0xba92a2cd	-0.0011187434
69	0x3d649369	0.055804644
70	0xbc7448e8	-0.01490996
71	0x3d37cea9	0.04487482
72	0x3d96d03c	0.07363936
73	0x3d27476b	0.040839594
74	0x3d95c3e8	0.07312757
75	0x3ca71817	0.02039723
76	0x3d7691d7	0.060197677
77	0x3d17d819	0.03707132
78	0xbc892fcc	-0.016746424
79	0x3d265e40	0.040617228
80	0x3d6d8b0d	0.057993937
81	0x3d090efd	0.03346156
82	0x3d194068	0.03741494
83	0x3d3d546b	0.046223085
84	0x3d8cd8b7	0.068772726
85	0xbd82093a	-0.06349416
86	0xbd1819b7	-0.0371339
87	0x3d12fe0c	0.03588681
88	0x3c6f0f7b	0.014591093
89	0x3cd0a986	0.02547146
90	0xbca3ff37	-0.020019157
91	0x3cf64070	0.030060023
92	0x3d086593	0.033299994
93	0x3c83b2f3	0.01607654
94	0x3d92d18c	0.07168874
95	0xb9dca7c7	-0.00042086674
96	0x3cb9a0ae	0.022659626
97	0x3d730615	0.059331972
98	0x3d0c6626	0.034277104
99	0xbc88fc2d	-0.01672181
100	0x3dee4160	0.11633563
101	0x3d5fe426	0.05466094
102	0x3d4396f1	0.04775137
103	0x3c0b41ee	0.008499606
104	0x3d48a9db	0.04899011
105	0x3c2acbfa	0.010424608
106	0x3e00f6d6	0.1259416
107	0xbb8142cb	-0.00394473
108	0x3cbb6a19	0.02287774
109	0x3d10ee97	0.035383787
110	0x3d530da8	0.051526695
111	0x3ce0e50e	0.027452972
112	0x3d8696f0	0.06571758
113	0x3d4e0820	0.050300717
114	0x3d7f3258	0.06230387
115	0x3d826268	0.06366426
116	0x3cacabc2	0.021077994
117	0x3d29afdd	0.041427482
118	0xbcfcc5bc	-0.030856006
119	0x3c4f34f4	0.012646902
120	0x3c0fc37a	0.008774633
121	0xbd8a0614	-0.067394406
122	0x3cfdb8d3	0.03097192
123	0x3d01c60a	0.031683005
124	0x3d3a8f12	0.0455466
125	0x3d210a77	0.03931662
126	0x3dc20a31	0.094746
127	0xbce57017	-0.02800755

action_model._continuous_distribution.log_sigma f4 [1, 2]
0	0xbe519f76	-0.20470986
1	0xbe7c8dd1	-0.24663474

action_model._continuous_distribution.mu.weight f4 [2, 128]
0	0xbcffb837	-0.03121577
1	0xbc860dfb	-0.016364088
2	0x3dcb98c7	0.09941249
3	0x3d4bbde8	0.049741656
4	0x3cfc9b6e	0.030835833
5	0xbe266a6d	-0.16251536
6	0xbde8a3a5	-0.11359338
7	0xbd5500ee	-0.05200284
8	0xbdeb4aaa	-0.114888504
9	0x3c3023a2	0.010750683
10	0x3d78d075	0.060745675
11	0xbd85d7fe	-0.06535338
12	0xbd7182dd	-0.05896269
13	0xbe20750e	-0.15669653
14	0x3cd9ed31	0.02660236
15	0xbde228f1	-0.11042965
16	0xbd42e9dc	-0.047586307
17	0x3b1fbb2c	0.0024373038
18	0xbd4b2e68	-0.049604803
19	0x3d06eef6	0.032942735
20	0x3c4264bf	0.01186484
21	0x3dbea4fa	0.093088105
22	0xbd913d23	-0.07091739
23	0x3b39a5cd	0.0028327585
24	0xbd968925	-0.07350377
25	0xbd476428	-0.0486795
26	0x3c516971	0.012781487
27	0x3cf9c49f	0.030489264
28	0xbd0ea9ff	-0.03483009
29	0xbb30cb74	-0.0026976736
30	0x3cefd441	0.029276015
31	0xbd2f35b4	-0.042775825
32	0xbcecb45b	-0.028894594
33	0xbde8d974	-0.11369601
34	0x3d759358	0.05995497
35	0xbd818217	-0.06323641
36	0x3db6f3ac	0.089331955
37	0x3c9ca438	0.019121274
38	0x3cbed866	0.023296546
39	0xbdc29fae	-0.09503113
40	0xbdf33352	-0.11875023
41	0x3d1eeb6c	0.038798735
42	0xbcf5ec9e	-0.030020054
43	0xbd7c6f7b	-0.061629754
44	0x3d861d22	0.065485254
45	0xbd82d3cf	-0.063880555
46	0x3dc65e4e	0.09685956
47	0x3d40103e	0.04689049
48	0x3d72eb59	0.059306476
49	0x3d11095d	0.03540932
50	0x3c0db556	0.008649191
51	0x3c58827a	0.013214702
52	0x3d10997a	0.035302617
53	0xbd9f29c9	-0.07771642
54	0xbd9ff561	-0.07810474
55	0xbca7b83b	-0.02047359
56	0x3dabaafb	0.08382221
57	0x3d296c1d	0.04136287
58	0x3da21e45	0.0791593
59	0x3c70e1ae	0.014702244
60	0xbd782f7a	-0.060592152
61	0xbc233e90	-0.0099636465
62	0x3cd1dd52	0.025618229
63	0xbd88f764	-0.06687811
64	0xbc52ed64	-0.012873981
65	0x3d9c8297	0.076420955
66	0xbba669e1	-0.0050785397
67	0x3c8ac96d	0.01694175
68	0xbd8d61f3	-0.06903448
69	0xbde02c47	-0.10945945
70	0xbc82331a	-0.015893508
71	0xbdcb7bbd	-0.099357106
72	0x3d773c46	0.060360216
73	0x3de41ed5	0.11138693
74	0xbdcd1c88	-0.100152075
75	0xbddc3f69	-0.10754282
76	0xbdcd2b3b	-0.10018011
77	0x3d8a61b3	0.06756916
78	0xbd803732	-0.06260528
79	0xbc11c361	-0.00889668
80	0x3bd832ec	0.0065978672
81	0xbd7ba71d	-0.06143867
82	0x3d544109	0.051819835
83	0x3d7c6e1a	0.06162844
84	0xbc1d0850	-0.009584501
85	0x3cb0c368	0.021577552
86	0x3c0f7cd9	0.008757793
87	0x3d3219a4	0.043481484
88	0xbd982645	-0.07429174
89	0x3d8b2e43	0.06795933
90	0x3cc397bc	0.023876064
91	0x3dcf2b9b	0.10115739
92	0xbc8f6426	-0.01750381
93	0xbd26cd58	-0.040723175
94	0xbdaa7f02	-0.08325006
95	0x3cd79b87	0.026319278
96	0x3c6f89dc	0.014620271
97	0xbdb051a0	-0.08609319
98	0x3d1f5283	0.03889705
99	0xbd08c6cf	-0.033392724
100	0xbe19483a	-0.14968958
101	0x3d63af05	0.055586834
102	0xbbd23430	-0.0064149126
103	0xbcaf44e4	-0.021395154
104	0x3dc6b9e0	0.097034216
105	0xbcd4bd85	-0.025969276
106	0xb8d1f5b4	-0.000100116624
107	0xbd1a4b5b	-0.03766952
108	0x3d0559b4	0.03255625
109	0x3cd93ec8	0.026519194
110	0x3dfeb870	0.124375224
111	0xbd9a003b	-0.07519575
112	0xbdb06b7f	-0.08614253
113	0x3cb769e2	0.022389356
114	0xbe013c40	-0.1262064
115	0x3c259e87	0.010108597
116	0x3d9aa9fd	0.07551954
117	0x3ad43460	0.0016189925
118	0x3bebfb19	0.007201564
119	0x3bd4faf9	0.006499645
120	0xbd45c461	-0.048282985
121	0xbcaa777b	-0.020808926
122	0x3c3da7bc	0.0115756355
123	0x3dee7214	0.116428524
124	0x3dbd3d3a	0.09240194
125	0x3d5dd279	0.0541558
126	0x3cd326d8	0.025775358
127	0xbd54f8ca	-0.051995076
128	0xbdb6e1cd	-0.08929787
129	0x3d9edb75	0.07756702
130	0x3d8873a1	0.066626795
131	0x3d71f9b2	0.05907602
132	0x3d5aa9d6	0.053384624
133	0x3cc731a3	0.02431566
134	0x3c7f66ea	0.0155885015
135	0xbd9be49d	-0.07611964
136	0x3d15b850	0.036552727
137	0xbc878d5f	-0.016546903
138	0xbd671f0b	-0.05642609
139	0x3dcd472d	0.10023341
140	0x3d148c14	0.0362664
141	0x3c3ed1e5	0.011646722
142	0x3ca710dd	0.020393783
143	0x3d48cd2b	0.04902379
144	0xbdd07b87	-0.10179811
145	0x3d5d9822	0.054100163
146	0xbd20d4a1	-0.03926528
147	0x3cc30a49	0.023808615
148	0x3da9c69a	0.08289833
149	0x3da0c117	0.07849329
150	0xbc7dcd42	-0.015490832
151	0xbbf51300	-0.0074790716
152	0xbbc0b81e	-0.0058813235
153	0x3daff14f	0.08590948
154	0xbdb7de2e	-0.08977924
155	0x3c207b38	0.009795003
156	0x3d649813	0.05580909
157	0x3d117877	0.035515275
158	0xbdf2dc15	-0.118583836
159	0xbdccb8a9	-0.09996159
160	0x3ce86689	0.028369205
161	0x3c80e9ea	0.015736539
162	0x3d95c44f	0.073128335
163	0x3d34f02a	0.04417435
164	0xbd33897f	-0.0438323
165	0xbcbd662c	-0.023120008
166	0xbd988379	-0.074469514
167	0xba255e06	-0.0006308261
168	0x3d0d8756	0.034552895
169	0x3cd25ccb	0.025679013
170	0x3c3cc44a	0.011521408
171	0x3d46668c	0.04843764
172	0xbcff0aa6	-0.031133007
173	0xbc779521	-0.015111239
174	0xbcf5a614	-0.029986419
175	0xbd477d6f	-0.048703607
176	0xbcc5d824	-0.024150915
177	0x3cf3cc84	0.029760607
178	0xbd87f485	-0.06638435
179	0xbd834148	-0.06408936
180	0x3d24f7d6	0.040275417
181	0xbd84c0bf	-0.06482076
182	0x3cea3e1d	0.028594071
183	0xbba5a25a	-0.005054754
184	0x3d9eec3e	0.07759903
185	0x3db0e7fc	0.086379975
186	0x3d3aa135	0.045563895
187	0x3c85135a	0.01624458
188	0x3ccdc56b	0.02511855
189	0xbd0a0335	-0.033694465
190	0x3d9b9c83	0.075982116
191	0xbb8d0352	-0.0043033743
192	0x3bd3a9ac	0.0064594354
193	0xbc969151	-0.01837984
194	0x3c8b3b95	0.016996184
195	0xbd8d34d0	-0.06894839
196	0xbcd1028e	-0.025513913
197	0x3d1ae9d8	0.037820667
198	0xbd938d0c	-0.07204637
199	0x3d2bbc73	0.041927766
200	0xbdbad163	-0.091219686
201	0xbda44758	-0.0802142
202	0x3d7f0ab6	0.062266074
203	0x3b6c2247	0.0036031173
204	0x3d3d5ea0	0.04623282
205	0xbd06cc77	-0.032909837
206	0xbcd0c230	-0.02548322
207	0xbdb4c6c0	-0.08826971
208	0x3db55109	0.08853347
209	0xbd4d2b46	-0.050090097
210	0x3d463637	0.048391547
211	0xbd53ad9c	-0.05167924
212	0xbdbbcd0e	-0.091699705
213	0x3c289378	0.010289066
214	0xbd186b48	-0.037211686
215	0x3d8ddf0c	0.069273084
216	0x3ad1f746	0.0016019128
217	0xbcc01f7f	-0.023452519
218	0x3de8ad25	0.1136115
219	0xbd18d3d0	-0.037311375
220	0x3d80b50c	0.06284532
221	0xbd25ea3c	-0.040506586
222	0x3d302853	0.043007206
223	0x3d3ac943	0.045602094
224	0xbdcba090	-0.09942734
225	0x3d44fdbf	0.048093554
226	0x3da18fa3	0.07888725
227	0x3d08440a	0.033268012
228	0xbd3860f6	-0.045014344
229	0x3de23c89	0.110467024
230	0x3db67bc0	0.08910322
231	0x3d960474	0.07325068
232	0xbcec02ed	-0.028809989
233	0x3d328058	0.04357943
234	0xbdfe74bc	-0.12424609
235	0x3cbf4e39	0.02335273
236	0x3d24b805	0.040214557
237	0x3da6559c	0.081217974
238	0xbd084063	-0.03326453
239	0xbcc94eca	-0.024573702
240	0x3dca24d1	0.098703034
241	0xbdc427d6	-0.095779106
242	0x3ce301e9	0.027710872
243	0xbddcac06	-0.10774998
244	0xbce8192f	-0.028332321
245	0xbdbbb19d	-0.091647364
246	0x3cf69e98	0.03010492
247	0x3c9bdbea	0.019025762
248	0xbdabbea2	-0.0838597
249	0xbc8afd98	-0.016966626
250	0x3d8f187b	0.06987091
251	0x3b361724	0.002778479
252	0xbdb03643	-0.086040996
253	0x3dc4ebf4	0.09615317
254	0xbe00143d	-0.1250772
255	0xbc38f5e4	-0.011289094

action_model._continuous_distribution.mu.bias f4 [2]
0	0xbc16fa23	-0.009214911
1	0xbb33ba81	-0.0027424397

exp_avg f4 [128, 8]
0	0xba1d810f	-0.0006008306
1	0xb9c666d6	-0.00037842122
2	0x3c23ab8c	0.00998963
3	0x38b06ebf	8.412962e-05
4	0xb9c669c8	-0.00037844316
5	0xbbc79734	-0.006091023
6	0x3ac395cc	0.0014921962
7	0x3b69fabe	0.0035702433
8	0xbc24c0ba	-0.010055715
9	0x3ad9d19f	0.0016618258
10	0x3b2a7d4b	0.0026014622
11	0xbb77b381	-0.0037796202
12	0x3ad9e521	0.0016624072
13	0xbbea009f	-0.0071411873
14	0xbba70c8b	-0.005097931
15	0x38e393de	0.00010851746
16	0xbbce3067	-0.006292391
17	0xbad37bf0	-0.0016134959
18	0x3bf6e82a	0.0075350003
19	0xbb435177	-0.0029803196
20	0xbad3dfb8	-0.0016164696
21	0xbc480312	-0.012207763
22	0xba3b9bb6	-0.00071566866
23	0x3882a104	6.2288746e-05
24	0xbc46626e	-0.012108428
25	0x3ab6c584	0.0013944362
26	0x3b6447d7	0.003483286
27	0xbbdf99a4	-0.0068237353
28	0x3ab6eb3f	0.0013955607
29	0x39bccd4d	0.00036011115
30	0xbbb4b90a	-0.0055152224
31	0xbb444966	-0.0029950975
32	0xbc4f6a9f	-0.012659698
33	0x3b4551d5	0.003010859
34	0xbac1782a	-0.0014760543
35	0xbc731f64	-0.014839027
36	0x3b45766a	0.0030130395
37	0x3bd5b5c0	0.0065219104
38	0x3bb86cca	0.005628203
39	0xbc2a9929	-0.010412493
40	0xbc12ec92	-0.008967536
41	0x3b4a18fd	0.0030837648
42	0x3c0651d5	0.008198221
43	0xbc55b44c	-0.013043474
44	0x3b4a902b	0.0030908685
45	0xbb872098	-0.0041237585
46	0xbaf9f98d	-0.0019071564
47	0x3aa32ee0	0.0012449883
48	0x3c103baf	0.008803292
49	0x3a05c33e	0.0005102641
50	0x3b471b11	0.0030381123
51	0x3adf7fe0	0.001705166
52	0x3a062e02	0.000511855
53	0xba57cf9d	-0.0008232536
54	0x37e76793	2.7585576e-05
55	0x3c1b3b2e	0.009474559
56	0x3c211e39	0.009833866
57	0xbba5b574	-0.0050570313
58	0x3b823a83	0.0039742603
59	0x3c841ad1	0.016126068
60	0xbba5c135	-0.0050584325
61	0xbb060884	-0.0020451853
62	0xbbad04ee	-0.0052801287
63	0xbb4f6be0	-0.0031649992
64	0xbca7f03c	-0.020500295
65	0x3b99a6ee	0.004689089
66	0x3c0d8446	0.0086374935
67	0xbc7e87a1	-0.015535266
68	0x3b99c0dc	0.00469218
69	0xbab80308	-0.0014038989
70	0x3b5853e2	0.0033008982
71	0xbc14f84c	-0.009092402
72	0xbc7b7fe6	-0.015350318
73	0x3b5887bd	0.003303989
74	0xbb17b29d	-0.0023147233
75	0xbc778412	-0.015107172
76	0x3b5909c6	0.0033117398
77	0xbc2dfd7e	-0.010619519
78	0xbc6f5513	-0.014607686
79	0xbc81f81c	-0.015865378
80	0xbb875466	-0.004129934
81	0x398530d1	0.00025404108
82	0xbba97231	-0.0051710834
83	0xbad264db	-0.0016051786
84	0x3985752a	0.0002545503
85	0x3b79b8e1	0.0038104581
86	0xbad8717d	-0.0016513314
87	0x3932bea2	0.00017046419
88	0xbaa82813	-0.0012829326
89	0x3a854d61	0.0010170155
90	0xbad71102	-0.0016408267
91	0xbb4e7c4e	-0.0031507197
92	0x3a856d54	0.0010179677
93	0xbac9593e	-0.0015361679
94	0x3bd06e77	0.0063608247
95	0xb996b7a9	-0.00028747067
96	0xbc4e14a8	-0.012578167
97	0x3b07bd46	0.002071218
98	0xbc01f0ad	-0.007930917
99	0xbc1132ee	-0.00886224
100	0x3b080b4d	0.002075869
101	0x3c3f05a5	0.011659061
102	0x39cf8040	0.0003957767
103	0xbc3ce9dc	-0.011530366
104	0xbb2d0842	-0.0026402627
105	0x3a784218	0.0009470298
106	0x3bab3441	0.005224735
107	0xbbb6a7b1	-0.0055741896
108	0x3a7900b6	0.0009498702
109	0xbc1df78a	-0.009641537
110	0xbb96867e	-0.0045936694
111	0xba0dffc9	-0.0005416838
112	0xbc13453b	-0.008988674
113	0x3ac34143	0.0014896769
114	0x3b7fb020	0.003901489
115	0xbbc97329	-0.0061477614
116	0x3ac36599	0.0014907598
117	0xbc0038f5	-0.00782608
118	0xbbbdc0d1	-0.005790808
119	0xbad5a6db	-0.0016300337
120	0xbb31585d	-0.0027060725
121	0x3a945608	0.0011317143
122	0x3bdb2759	0.00668804
123	0x3aef5448	0.0018259371
124	0x3a948f75	0.0011334257
125	0xbb669172	-0.0035181907
126	0xbac7bdf4	-0.0015239106
127	0x3b392d3f	0.0028255729
128	0xbb8ca317	-0.0042919028
129	0xbadf3ddd	-0.0017031986
130	0x3bfe793d	0.0077659176
131	0x3be20d23	0.0068985387
132	0xbadfa964	-0.0017064032
133	0xbb12e062	-0.0022411575
134	0x3a4e4e19	0.0007869914
135	0x3b0483c2	0.0020220135
136	0xbad6f92b	-0.0016401162
137	0x39c8778b	0.0003823604
138	0xba8b9844	-0.0010650237
139	0x3b349dd8	0.0027559903
140	0x39c7e0d4	0.00038123748
141	0x395f30fa	0.00021285182
142	0xbabc6a81	-0.0014375002
143	0xbafb2c7a	-0.0019163035
144	0xbba2a796	-0.0049638255
145	0x3a9542c2	0.0011387693
146	0x3b24b338	0.0025131237
147	0xbbc84370	-0.006111555
148	0x3a954600	0.001138866
149	0xbbe033b9	-0.0068421033
150	0xbb98a424	-0.004658239
151	0xb9d369cd	-0.00040323884
152	0xbc29d9df	-0.010366886
153	0x3b0b7e7f	0.0021285114
154	0xbc257bb9	-0.010100299
155	0xbc279bf8	-0.010230057
156	0x3b0b71f7	0.0021277645
157	0xbbe37f43	-0.006942661
158	0xbb9990a1	-0.0046864306
159	0xbc18965b	-0.009313191
160	0xbb4b8513	-0.003105466
161	0xb925980d	-0.0001579227
162	0xbac6976c	-0.0015151328
163	0xbaa1326d	-0.0012298353
164	0xb925b94d	-0.00015804656
165	0xba043330	-0.0005043028
166	0xbb90ab92	-0.004414984
167	0xbb27fbf0	-0.0025632344
168	0xbab4eb2b	-0.0013802996
169	0xb9c0c6c6	-0.00036769192
170	0xbb409029	-0.00293828
171	0xbb35a77f	-0.0027718244
172	0xb9c190a6	-0.000369196
173	0xbb71da12	-0.0036903662
174	0x3b59d36c	0.003323759
175	0xbac00731	-0.0014650581
176	0x3bf8aa82	0.0075886855
177	0xba551801	-0.0008128882
178	0x3aeac238	0.0017910665
179	0x3b88184b	0.0041532866
180	0xba54d020	-0.0008118171
181	0xbba9aef9	-0.005178329
182	0xbc151498	-0.009099148
183	0x3b2b17a3	0.0026106618
184	0xbb6098b2	-0.00342707
185	0x3a41981b	0.0007385031
186	0xbbaf73c6	-0.0053543774
187	0xbaabbb45	-0.0013102075
188	0x3a417e52	0.0007381189
189	0x3ba2ba48	0.004966054
190	0x3ae2bcde	0.0017298718
191	0x3ab99728	0.0014159428
192	0x3b6a998e	0.0035797092
193	0xbad36ddb	-0.0016130762
194	0x3aec35ca	0.0018021401
195	0x3be0672f	0.006848238
196	0xbad3aab4	-0.0016148896
197	0xbb4d4042	-0.0031318818
198	0xbb2c1141	-0.0026255401
199	0x3b918ee4	0.0044420827
200	0xbb81db63	-0.0039629205
201	0x38ca494d	9.645764e-05
202	0xbc106599	-0.008813285
203	0x3939d16b	0.00017720989
204	0x38cd13a0	9.778817e-05
205	0x3a313f33	0.00067614316
206	0xbb9ae68c	-0.0047271904
207	0xbbb17b4d	-0.00541631
208	0xbac5be72	-0.0015086664
209	0x38fd27e8	0.00012071413
210	0x3b8e993d	0.0043517635
211	0x3af107bb	0.0018389145
212	0x38fcf223	0.00012061398
213	0xbbfefb0d	-0.0077813924
214	0xba8463cf	-0.0010100546
215	0x3a726ae1	0.00092474936
216	0x3a523153	0.0008018214
217	0xbb8248b1	-0.0039759506
218	0x3c94adde	0.018149313
219	0x3cb70f02	0.022346023
220	0xbb826670	-0.0039794967
221	0xbb45f2f7	-0.0030204633
222	0xbbedd6d3	-0.007258275
223	0x3be495f3	0.006975883
224	0xbb6009fe	-0.0034185643
225	0xba2840a8	-0.0006418326
226	0x3af754a3	0.0018869828
227	0x39551b03	0.00020323326
228	0xba285caa	-0.00064224994
229	0x3bf1b290	0.0073760226
230	0xbbcad768	-0.006190229
231	0x3ac8cee5	0.0015320448
232	0xbb540dfb	-0.0032356966
233	0xbade8cba	-0.0016979196
234	0x3bee5c1c	0.007274164
235	0x3a46b55e	0.00075801264
236	0xbadeda2f	-0.001700228
237	0xbc48c0de	-0.012253014
238	0xbb96a88c	-0.004597729
239	0x3b2004d4	0.002441694
240	0xbb4d8847	-0.0031361745
241	0x3a639d99	0.00086828467
242	0xbbd65fd7	-0.0065421867
243	0x3c2eda51	0.010672168
244	0x3a633365	0.0008667021
245	0x3b924dd3	0.004464844
246	0xba2c07c1	-0.0006562435
247	0x3b154139	0.0022774471
248	0xbc278b36	-0.010226062
249	0xba8a3b41	-0.0010546223
250	0x3b5755ea	0.0032857605
251	0x3b8b28e6	0.004246819
252	0xba8af0f3	-0.0010600373
253	0xbc1639ba	-0.0091690365
254	0xb919084e	-0.00014594311
255	0x37e72788	2.7555754e-05

exp_avg_sq f4 [128, 8]
0	0x3ade16e5	0.0016944079
1	0x389b47ab	7.404325e-05
2	0x3af6e332	0.001883602
3	0x3aaf6383	0.0013381097
4	0x3894977f	7.085408e-05
5	0x3b3bb355	0.0028640826
6	0x3aeb1360	0.0017934851
7	0x3b8a1b5e	0.004214688
8	0x3a33c7a8	0.0006858059
9	0x379f14bd	1.8963934e-05
10	0x39da6053	0.00041651967
11	0x3a193618	0.00058445474
12	0x37963b75	1.790908e-05
13	0x3a1501a8	0.0005684146
14	0x39e1c15d	0.0004305941
15	0x3a096059	0.0005240492
16	0x3b21fafc	0.0024716249
17	0x38ba74f8	8.890958e-05
18	0x3b0e74d3	0.0021737113
19	0x3ac899a2	0.0015304575
20	0x38aee435	8.3394734e-05
21	0x3b4d0832	0.0031285402
22	0x3b0f8b5f	0.002190314
23	0x3b3cad1f	0.0028789712
24	0x3b736419	0.003713852
25	0x38dad34e	0.000104344086
26	0x3b1c326f	0.0023833772
27	0x3ad43abf	0.0016191824
28	0x38c8602c	9.5546566e-05
29	0x3bb8ae85	0.0056360387
30	0x3b368dd5	0.0027855535
31	0x3b5c1ec6	0.0033587678
32	0x3c4cfd10	0.012511507
33	0x39aaf680	0.00032608584
34	0x3bfd8674	0.0077369753
35	0x3bcf0bf6	0.0063185645
36	0x3999ba1a	0.0002932109
37	0x3c8baada	0.017049242
38	0x3c0b9502	0.008519413
39	0x3c0a3d38	0.008437447
40	0x3c2444ae	0.01002614
41	0x39964b81	0.00028666484
42	0x3bd32fdf	0.0064449157
43	0x3beffd29	0.00732388
44	0x398f8a22	0.00027378002
45	0x3c446298	0.011986397
46	0x3c0e7de1	0.008697004
47	0x3be0009b	0.0068360097
48	0x3b5ad1b8	0.0033389162
49	0x38f2e2e9	0.000115817245
50	0x3b2f29f7	0.0026727894
51	0x3ae582c1	0.0017510281
52	0x38e8517d	0.000110778004
53	0x3bb352d7	0.0054725218
54	0x3b84c830	0.0040521845
55	0x3ba6e95b	0.005093736
56	0x3c620df8	0.013797276
57	0x39ba3266	0.00035514234
58	0x3bfab1ac	0.0076505747
59	0x3bf65092	0.007516929
60	0x39a61426	0.00031677
61	0x3c957695	0.01824502
62	0x3be34334	0.0069355015
63	0x3c2c3b2a	0.010512153
64	0x3cd5ed54	0.026114143
65	0x3a3492d6	0.00068883353
66	0x3c746173	0.014915812
67	0x3c4d7816	0.012540838
68	0x3a26de2d	0.0006365504
69	0x3d14987d	0.036278237
70	0x3c8849ed	0.016636813
71	0x3c85fe5a	0.016356636
72	0x3c10ca43	0.008837285
73	0x399c1dfc	0.0002977698
74	0x3bf73153	0.0075437217
75	0x3bfc7259	0.007704061
76	0x3994a50f	0.00028351738
77	0x3c1e49ed	0.00966118
78	0x3c134e43	0.008990827
79	0x3c5fb29f	0.013653426
80	0x3a1a7a86	0.0005892891
81	0x37c1eb11	2.3116854e-05
82	0x3a07982c	0.00051725167
83	0x399f36b0	0.0003036759
84	0x37b4d9f0	2.1559157e-05
85	0x3aa02ba2	0.0012220035
86	0x3a5b8eb3	0.0008375451
87	0x3a69dcdf	0.0008921157
88	0x3b011cc4	0.0019700984
89	0x385fedfa	5.3388976e-05
90	0x3aa86a36	0.0012849036
91	0x3a60dae5	0.00085775397
92	0x384c8bcf	4.8767597e-05
93	0x3b38ca1e	0.0028196643
94	0x3ac6e446	0.0015174232
95	0x3aa0beec	0.001226393
96	0x3be85f9f	0.007091477
97	0x39778910	0.00023606815
98	0x3bace351	0.0052761217
99	0x3b40baa8	0.002940813
100	0x3956b9e6	0.00020477883
101	0x3c7febea	0.015620211
102	0x3c169970	0.009191856
103	0x3bef430b	0.0073016933
104	0x3b945fa7	0.004528004
105	0x38ea4a50	0.00011171831
106	0x3b1172d9	0.0022193699
107	0x3b3930ae	0.0028257775
108	0x38dde935	0.000105815394
109	0x3b81f370	0.0039657876
110	0x3b5bf4b5	0.0033562605
111	0x3b5cba43	0.0033680357
112	0x3a4ad385	0.00077372073
113	0x379b18c8	1.848898e-05
114	0x39e77539	0.0004414709
115	0x3a1b7736	0.00059305446
116	0x3797f595	1.811496e-05
117	0x39e952b9	0.00044502856
118	0x3a0f5aa9	0.00054685265
119	0x3a448fe0	0.00074982457
120	0x3b3af94f	0.0028529947
121	0x38a4d137	7.859099e-05
122	0x3ac737c4	0.0015199115
123	0x3ac0263e	0.0014659835
124	0x38967602	7.174538e-05
125	0x3b8c4a8d	0.004281348
126	0x3af6b2ad	0.001882156
127	0x3adef7dd	0.0017011125
128	0x3bd51368	0.0065025575
129	0x3954588a	0.00020250879
130	0x3b8ed297	0.0043586004
131	0x3b4ae66f	0.0030960103
132	0x39377adb	0.00017498007
133	0x3c30edbe	0.01079887
134	0x3b9f83f7	0.0048680264
135	0x3bfe4a8a	0.0077603506
136	0x3b0f8d1e	0.002190418
137	0x38ad49c6	8.263024e-05
138	0x3b04ae4e	0.0020245495
139	0x3aa896e5	0.0012862353
140	0x389e3726	7.544299e-05
141	0x3b837418	0.004011642
142	0x3b19b311	0.002345268
143	0x3b1f7726	0.0024332493
144	0x39b71696	0.00034921308
145	0x374eb5ed	1.2320915e-05
146	0x398e94c1	0.0002719518
147	0x39814b2c	0.00024660805
148	0x374ac306	1.2085546e-05
149	0x39917272	0.00027741824
150	0x39d380cb	0.00040341014
151	0x39ee014c	0.00045395864
152	0x3b2a9c2d	0.002603303
153	0x38e04410	0.0001069383
154	0x3b2d1b7b	0.0026414085
155	0x3b24c476	0.0025141514
156	0x38dd0daa	0.00010540646
157	0x3aeb3491	0.0017944743
158	0x3b437c02	0.0029828553
159	0x3b98e7ac	0.0046662893
160	0x3988ca1d	0.00026090528
161	0x371fdb26	9.528163e-06
162	0x3974e7f8	0.00023356068
163	0x393b6a3a	0.00017873282
164	0x371e0806	9.419402e-06
165	0x393d8949	0.00018075587
166	0x39725184	0.00023109285
167	0x39dff672	0.0004271749
168	0x3a283c6d	0.00064176955
169	0x37d367ee	2.5201556e-05
170	0x3a29757d	0.00064643455
171	0x39c9dc55	0.00038501868
172	0x37c8d8a7	2.3942745e-05
173	0x3a7fc495	0.0009756771
174	0x3a6eaa76	0.000910438
175	0x3a5ec45e	0.0008497889
176	0x3bdc752b	0.0067278347
177	0x39602e3f	0.00021379533
178	0x3bb5b1ea	0.0055448906
179	0x3b8642c1	0.004097313
180	0x39560d09	0.00020413486
181	0x3c20f972	0.009825097
182	0x3c00e4db	0.007867063
183	0x3c02d7d4	0.007986028
184	0x3abf77ce	0.0014607848
185	0x38650611	5.4603504e-05
186	0x3a9fd65a	0.0012194619
187	0x3a2485c8	0.00062760385
188	0x38505ff6	4.9680435e-05
189	0x3b57bfd7	0.0032920742
190	0x3ae737ff	0.001764059
191	0x3ae8b2c0	0.0017753467
192	0x3b3497c0	0.002755627
193	0x3892fd2f	7.0089816e-05
194	0x3ad4939c	0.0016218307
195	0x3ad5afde	0.0016303023
196	0x3882aa77	6.2306346e-05
197	0x3b7991e7	0.003808135
198	0x3ae75643	0.0017649609
199	0x3ad200ac	0.0016021929
200	0x3b0362b8	0.0020047855
201	0x38adb73f	8.283415e-05
202	0x3b0d8f2d	0.0021600232
203	0x3a94e474	0.0011359588
204	0x38a5a837	7.8991456e-05
205	0x3b5c3ef8	0.0033606868
206	0x3b5e9928	0.00339658
207	0x3b8c646c	0.004284432
208	0x39b90ee0	0.00035297032
209	0x373f5b0f	1.1405688e-05
210	0x39750300	0.00023366138
211	0x394d28e8	0.00019565562
212	0x3736f28d	1.0904519e-05
213	0x39c0d7a2	0.00036781753
214	0x39b46769	0.00034409322
215	0x39c6becd	0.0003790766
216	0x3c49294b	0.012277911
217	0x39bc858d	0.00035957657
218	0x3bfdfcea	0.007751097
219	0x3bffe5d6	0.007809381
220	0x39a8d414	0.00032201468
221	0x3c9a35c1	0.01882446
222	0x3c1d2a25	0.009592568
223	0x3c4a6ec7	0.012355513
224	0x3b32621c	0.0027219122
225	0x38e3e73d	0.00010867275
226	0x3b28bdf6	0.0025747991
227	0x3b01cc1c	0.0019805497
228	0x38dae417	0.00010437535
229	0x3b91ea68	0.004452992
230	0x3b48800d	0.0030593902
231	0x3b87e2b1	0.004146897
232	0x3bbdbb7a	0.005790171
233	0x3945faae	0.0001888077
234	0x3b892807	0.00418568
235	0x3b19c65d	0.002346418
236	0x3927045a	0.00015927982
237	0x3c52ef9c	0.01287451
238	0x3bc8fbae	0.006133518
239	0x3bbbd300	0.0057319403
240	0x3c0835c0	0.008313596
241	0x39965300	0.0002867207
242	0x3bc2e465	0.005947637
243	0x3b482714	0.003054087
244	0x3987eec8	0.00025927112
245	0x3c85a1d8	0.016312525
246	0x3bf6b2ef	0.0075286548
247	0x3c08ac69	0.008341887
248	0x3c8d6fc9	0.017265217
249	0x3a051f75	0.0005078235
250	0x3c341e0c	0.010993492
251	0x3bf4780d	0.0074606
252	0x39e5efa7	0.0004385684
253	0x3cfd74cb	0.03093948
254	0x3c48ae51	0.0122485915
255	0x3c91c909	0.017796056

exp_avg f4 [128]
0	0xba4666d7	-0.0007568425
1	0x3b59d19f	0.0033236516
2	0xbb537bf0	-0.0032269917
3	0x3b36c582	0.002788872
4	0x3bc551d5	0.006021718
5	0x3bca18fe	0.00616753
6	0x3a85c341	0.0010205285
7	0xbc25b573	-0.010114062
8	0x3c19a6ee	0.009378178
9	0x3bd887bd	0.006607978
10	0x3a0530d1	0.00050808216
11	0x3b054d62	0.0020340313
12	0x3b87bd48	0.004142437
13	0x3af84216	0.0018940594
14	0x3b434144	0.002979354
15	0x3b145608	0.0022634286
16	0xbb5f3ddb	-0.0034063968
17	0x3a48778d	0.0007647209
18	0x3b1542c2	0.0022775386
19	0x3b8b7e80	0.0042570233
20	0xb9a5980d	-0.0003158454
21	0xba40c6c8	-0.00073538395
22	0xbad517ff	-0.0016257762
23	0x3ac1981b	0.0014770062
24	0xbb536ddd	-0.0032261529
25	0x394a4962	0.00019291558
26	0x397d27e3	0.00024142819
27	0xbc0248b1	-0.007951901
28	0xbaa840a9	-0.0012836653
29	0xbb5e8cbb	-0.0033958394
30	0x3ae39d97	0.0017365691
31	0xbb0a3b3e	-0.002109244
32	0xb8d0463b	-9.931294e-05
33	0x3a06a7f6	0.00051367225
34	0x3a7fa9d3	0.0009752784
35	0x3b21145b	0.0024578783
36	0x3a1c652f	0.0005966005
37	0xba08bcf2	-0.00052161433
38	0x3c07551b	0.008260037
39	0xba363179	-0.0006950121
40	0xba8ef97c	-0.0010908092
41	0xbab8a55b	-0.0014087366
42	0xb9595a01	-0.00020728262
43	0xb9a4566f	-0.00031344916
44	0xb9ffa3cf	-0.00048759437
45	0x3a444ab6	0.00074879394
46	0xbba44060	-0.005012557
47	0xba38614c	-0.00070335413
48	0xbb2925ab	-0.0025809805
49	0x3afbe6a7	0.001921852
50	0xbac99c45	-0.0015381655
51	0x3b423481	0.0029633346
52	0x3b0d1b2a	0.0021531084
53	0x3b6d5748	0.0036215354
54	0xbbb186a5	-0.005417662
55	0x38e69850	0.00010995625
56	0xbc245cb7	-0.010031871
57	0xbc193279	-0.0093504125
58	0xb914cb47	-0.00014190107
59	0x39b1d08b	0.00033915447
60	0xba9bcbda	-0.0011886314
61	0xbb114623	-0.002216705
62	0xba8d44f4	-0.0010777996
63	0xbb076837	-0.0020661482
64	0xbba9c6db	-0.005181176
65	0xb89fa164	-7.611772e-05
66	0x3ac7b8a6	0.0015237525
67	0x3a34d52a	0.0006898219
68	0x3b62519f	0.0034533513
69	0xbacfc33f	-0.0015851035
70	0x3aca4798	0.0015432714
71	0xbb21f137	-0.0024710426
72	0x38f9ab96	0.000119052056
73	0x3a993753	0.0011689462
74	0x3b42af32	0.0029706475
75	0x3b7efe78	0.0038909
76	0x3bcdff37	0.0062865275
77	0x3c39c6b8	0.011338882
78	0x3b20c639	0.0024532212
79	0x3c0dfc52	0.008666115
80	0x3b8b41b3	0.0042497753
81	0x3b805c9e	0.003917291
82	0xba832f05	-0.001000852
83	0xb8d0b868	-9.952561e-05
84	0x3b09f528	0.0021050666
85	0x3ada001a	0.001663211
86	0x3ac90a8c	0.0015338226
87	0x3b14f838	0.0022730958
88	0xbb07b34a	-0.002070623
89	0x3ac2461b	0.0014821918
90	0x3a1014fd	0.00054962916
91	0xba0b5ca3	-0.0005316233
92	0x389a14bf	7.3471565e-05
93	0xb97bded3	-0.00024020234
94	0x3aa515b4	0.0012594969
95	0x3a83b720	0.0010049082
96	0xbb81bdd4	-0.003959397
97	0x3c070c4e	0.00824268
98	0xbbf73afd	-0.0075448737
99	0xbb66ebb5	-0.0035235707
100	0xbba482cd	-0.0050204755
101	0x3aa7b7c5	0.0012795856
102	0x3a2edad9	0.0006670184
103	0xba08dbed	-0.000522076
104	0x3bff2b49	0.0077871424
105	0xbaa4ea10	-0.0012581963
106	0x3be1c4bf	0.006889909
107	0x3ac6341f	0.0015121734
108	0xb7ae2f03	-2.0764308e-05
109	0xba8d2d88	-0.0010771016
110	0xbbd2cb45	-0.006432923
111	0xb9ef4bd2	-0.00045642123
112	0x3afa314a	0.0019088176
113	0xb9c1bdd7	-0.0003695327
114	0x3b227289	0.0024787507
115	0x3a86bac2	0.0010279047
116	0x3b874fa5	0.0041293674
117	0xb7644ccd	-1.3607741e-05
118	0xbc09ba85	-0.008406286
119	0x3be2bde7	0.006919611
120	0xbb01e80f	-0.0019822156
121	0xb9b5bcb7	-0.00034663614
122	0xbc00040e	-0.007813467
123	0x3bc1e821	0.0059175645
124	0xbb4607d3	-0.0030217066
125	0xb9dc89a5	-0.00042064223
126	0x3b786bc5	0.0037906033
127	0x3abf8893	0.0014612846

exp_avg_sq f4 [128]
0	0x399b47ab	0.000296173
1	0x389f14be	7.585574e-05
2	0x39ba74f8	0.00035563833
3	0x39dad34e	0.00041737634
4	0x3aaaf680	0.0013043433
5	0x3a964b81	0.0011466594
6	0x39f2e2e9	0.00046326898
7	0x3aba3267	0.0014205695
8	0x3b3492d8	0.0027553346
9	0x3a9c1dfb	0.001191079
10	0x38c1eb10	9.246741e-05
11	0x395fedfa	0.0002135559
12	0x3a77890f	0.00094427256
13	0x39ea4a50	0.00044687325
14	0x389b18c6	7.3955904e-05
15	0x39a4d139	0.000314364
16	0x3a54588b	0.0008100352
17	0x39ad49c6	0.00033052097
18	0x384eb5ed	4.928366e-05
19	0x39e04410	0.0004277532
20	0x381fdb26	3.8112652e-05
21	0x38d367ee	0.000100806225
22	0x3a602e3e	0.00085518125
23	0x39650610	0.000218414
24	0x3992fd2f	0.00028035927
25	0x39adb73f	0.0003313366
26	0x383f5b0e	4.562275e-05
27	0x3abc858e	0.0014383064
28	0x39e3e73e	0.00043469103
29	0x3a45faaf	0.00075523084
30	0x3a965301	0.0011468829
31	0x3b051f75	0.002031294
32	0x38f967f7	0.0001189261
33	0x3a7b0e01	0.0009576977
34	0x392818d9	0.00016030985
35	0x39ff6a17	0.00048716433
36	0x38b12c62	8.448285e-05
37	0x3a896ab1	0.0010484067
38	0x3a2a1348	0.00064878585
39	0x397d0b7f	0.00024132243
40	0x383f4e97	4.561114e-05
41	0x39c0d03f	0.0003677625
42	0x37be44f2	2.268187e-05
43	0x3880f11a	6.148424e-05
44	0x39d907d3	0.00041395295
45	0x3a162dae	0.00057288527
46	0x39cf4b88	0.00039538392
47	0x38d0bf32	9.953826e-05
48	0x398bb8bb	0.0002664978
49	0x38eefb5f	0.00011395546
50	0x3afaac92	0.0019124916
51	0x3a21231e	0.00061468955
52	0x399ec3bc	0.00030281942
53	0x39cb19e5	0.0003873847
54	0x3a375012	0.00069928274
55	0x3985a2c5	0.0002548901
56	0x3afaea30	0.001914328
57	0x3b040aa7	0.002014795
58	0x39e23ee2	0.0004315293
59	0x382c9436	4.1146028e-05
60	0x3b0bea4c	0.0021349369
61	0x39ef7048	0.00045669288
62	0x392d4a65	0.0001652628
63	0x3a0b4cc4	0.0005313868
64	0x3a529a28	0.00080338353
65	0x38d02d5a	9.92666e-05
66	0x3a39d98e	0.0007089608
67	0x39069519	0.00012834779
68	0x3a248f15	0.00062774244
69	0x38ed2749	0.00011308358
70	0x39efe21b	0.00045754094
71	0x3ab32341	0.0013667123
72	0x38c3490a	9.311929e-05
73	0x390f9237	0.00013692012
74	0x39d00c87	0.00039682185
75	0x3967454c	0.00022055692
76	0x3aae1832	0.0013282357
77	0x3afd71ff	0.0019336342
78	0x39ed745e	0.00045290863
79	0x3a254abe	0.0006305388
80	0x3a6923db	0.00088935875
81	0x3a81c668	0.0009901049
82	0x3a304c8c	0.00067252736
83	0x3a16fe3b	0.0005759929
84	0x398f94a3	0.00027385828
85	0x3a083192	0.0005195375
86	0x3a81614b	0.0009870915
87	0x3985a8aa	0.000254934
88	0x3923e866	0.00015631467
89	0x3960683e	0.00021401138
90	0x396bd75b	0.00022491573
91	0x3aa08c96	0.0012248929
92	0x38459ede	4.7116417e-05
93	0x39791efc	0.00023758033
94	0x39cadd60	0.0003869338
95	0x3b0d9eb0	0.0021609478
96	0x3b209c89	0.0024507365
97	0x3a49c9b5	0.0007697598
98	0x3b3df2d7	0.0028983855
99	0x3a0b84c5	0.00053222134
100	0x3aa20316	0.0012360539
101	0x395ba894	0.00020948268
102	0x37f07dd5	2.8668825e-05
103	0x383b12e0	4.4601853e-05
104	0x39ddae0b	0.00042282077
105	0x3a526985	0.0008026588
106	0x3ab02646	0.0013439141
107	0x3a1ae48b	0.00059086893
108	0x39618282	0.0002150629
109	0x3838f6e5	4.4098957e-05
110	0x3bacad0b	0.0052696518
111	0x3b0241a3	0.0019875548
112	0x3a4dfb75	0.00078575994
113	0x396ca950	0.00022569788
114	0x3924b5d6	0.00015707998
115	0x38a43838	7.830601e-05
116	0x3a762377	0.000938944
117	0x3945b655	0.00018855308
118	0x3b0542c2	0.002033398
119	0x3a7702eb	0.0009422737
120	0x39234590	0.00015570805
121	0x3a87c896	0.0010359462
122	0x3b06842c	0.0020525558
123	0x3a0c005e	0.0005340631
124	0x3b237c8b	0.002494606
125	0x3a0d6e85	0.0005395192
126	0x395c0c33	0.0002098538
127	0x3877c911	5.9076647e-05
