ML-Agents/results/rollerball001/RollerBall.onnx (onnx, 76086 bytes, 7 tensors)

network_body._body_endoder.seq_layers.0.weight f4 [128, 8]
0	0x3f170b65	0.5900176
1	0x3f31aa25	0.69400245
2	0xbea22d40	-0.31675148
3	0xbe624cc7	-0.220996
4	0x3e6881da	0.22705784
5	0x3f174107	0.590836
6	0xbe9c6cbc	-0.30551708
7	0x3cdf0c02	0.027227405
8	0xbd9fad9a	-0.07796784
9	0x3ef23658	0.47307086
10	0xbed5fe15	-0.41795412
11	0xbde81d72	-0.11333741
12	0x3e87d0fc	0.2652663
13	0x3f190fe1	0.59789854
14	0xbe6adadd	-0.22935052
15	0x3eeef6f4	0.46672785
16	0xbc9505eb	-0.018191298
17	0xbe57fe25	-0.21093042
18	0x3e810f8d	0.25207177
19	0xbf1313f0	-0.574523
20	0xbf0249eb	-0.5089404
21	0xbe2db3f4	-0.16963178
22	0xbea46e0b	-0.32115206
23	0xbe0e5112	-0.13898113
24	0x3f3f5a8a	0.74747527
25	0xbebceff7	-0.3690183
26	0x3e4341b5	0.19068034
27	0xbd82a7ce	-0.063796625
28	0x3e9d0290	0.30666018
29	0x3ea73bce	0.32662815
30	0xbe600801	-0.21878053
31	0x3e3d20ff	0.18469618
32	0x3f16518b	0.58718175
33	0x3ec9fccb	0.39450678
34	0x3c70399d	0.014662174
35	0xbe814e42	-0.25255018
36	0x3cc814a0	0.024423897
37	0x3f7c54a3	0.98566645
38	0xbeb56263	-0.35426626
39	0x3d3f71bf	0.046739336
40	0x3edf6d75	0.43638197
41	0xbf601d4b	-0.875447
42	0x3dd21e10	0.1025964
43	0x3de16279	0.1100511
44	0xbebd5352	-0.3697763
45	0x3cbb8e35	0.022894958
46	0xbe423b40	-0.18967915
47	0x3dce05b9	0.10059685
48	0xbf27a13f	-0.65480417
49	0x3db05868	0.08610612
50	0xbe4ce6b5	-0.20009883
51	0x3f43c761	0.76476103
52	0xbd83b692	-0.06431307
53	0x3e6efdc6	0.23338994
54	0x3e98fd21	0.29880622
55	0x3e22796c	0.15866631
56	0x3e23d329	0.1599852
57	0xbe25ccb9	-0.16191377
58	0x3df1568d	0.117840864
59	0xbef62609	-0.48075894
60	0xbeeee7b6	-0.46661156
61	0xbc77b67c	-0.015119191
62	0x3e23c4d0	0.15993047
63	0xbedfb9e6	-0.43696517
64	0xbf0e2160	-0.55519676
65	0xbc657be2	-0.014006587
66	0x3dcc82ed	0.099859096
67	0xbdc3f7e8	-0.09568769
68	0xbf0ff021	-0.5622578
69	0xbe8e58e3	-0.2780219
70	0x3f0cfe95	0.5507596
71	0x3e7624ab	0.24037425
72	0x3f37a76b	0.71739835
73	0x3e125095	0.14288552
74	0xbe99d49a	-0.30045015
75	0x3d3039ff	0.04302406
76	0x3ba493fa	0.005022523
77	0x3ea2fe8a	0.31834823
78	0xbe03f2f4	-0.12885648
79	0xbe984352	-0.2973886
80	0xbe17fafa	-0.14841834
81	0xbec943c8	-0.39309525
82	0xbee028d0	-0.43781137
83	0x3e079d43	0.13243584
84	0x3f077eb4	0.5292771
85	0x3eb58569	0.35453346
86	0x3e1ee0d3	0.15515451
87	0x3e68066f	0.22658704
88	0xbe80a6ed	-0.25127354
89	0x3e175cfb	0.14781563
90	0xbd22b3ab	-0.039722126
91	0x3e290d09	0.16508879
92	0xbe1155d3	-0.14192896
93	0xbd8f1a1e	-0.06987403
94	0x3e0a897c	0.13529009
95	0xbe74b046	-0.23895368
96	0x3e91a2ad	0.28444424
97	0x3e471487	0.19441424
98	0x3e2e5479	0.17024411
99	0xbc8e1845	-0.017345557
100	0xbed2f2cc	-0.41200864
101	0x3f06cf14	0.52659726
102	0xbe8760b3	-0.26440963
103	0x3ec21fb5	0.37914816
104	0xbe6fd8ba	-0.23422518
105	0xbc7ea2d2	-0.015541749
106	0x3e4d2c41	0.20036413
107	0x3ee40cfc	0.44541156
108	0x3ef77b0b	0.48336062
109	0xbea3c314	-0.3198477
110	0x3ea2c725	0.3179256
111	0x3f0f7201	0.5603333
112	0xbe6a9b47	-0.22910796
113	0x3ea276ac	0.31731164
114	0xbf012700	-0.50450134
115	0x3debd5b4	0.1151537
116	0x3e5e4930	0.21707606
117	0x3d83053b	0.06397482
118	0xbed35905	-0.41278854
119	0x3e8eacef	0.27866313
120	0x3e402d0e	0.18767187
121	0xbf003260	-0.50076866
122	0xbf18354e	-0.59456336
123	0xbea66b8e	-0.32503933
124	0xbe51ffcc	-0.20507735
125	0x3e8ed277	0.27894947
126	0x3f2d69f3	0.6773979
127	0x3ed7a4c7	0.42117903
128	0xbc8ef8ad	-0.017452562
129	0x3e280e31	0.16411664
130	0xbe3da042	-0.18518165
131	0xbf217cd3	-0.6308109
132	0xbebe43c1	-0.37161067
133	0x3da57b34	0.0808014
134	0x3bc4e54c	0.0060087796
135	0x3e62b803	0.22140507
136	0xbde32e6f	-0.11092841
137	0x3e82ac45	0.25522056
138	0x3d1401db	0.036134582
139	0x3e0d2f09	0.13787474
140	0x3de04f13	0.10952582
141	0xbe7b934a	-0.24567905
142	0xbe721212	-0.23639706
143	0xbe89608c	-0.26831472
144	0x3eed8b9b	0.46395573
145	0xbc44ec77	-0.012019268
146	0x3d3423db	0.043979507
147	0xbebc9408	-0.3683169
148	0xbd9c62c7	-0.07636028
149	0xbe795da7	-0.24352132
150	0xbeca8c76	-0.39560288
151	0xbeeae12b	-0.45874915
152	0xbdededdc	-0.11617634
153	0x3e680a5c	0.22660202
154	0xbed90208	-0.42384362
155	0xbe413237	-0.18866812
156	0x3e61dabb	0.22056095
157	0xbec1de80	-0.37865067
158	0xbe65e792	-0.22451618
159	0xbe674fb9	-0.22589006
160	0xbe315cc5	-0.17320545
161	0xbe8632af	-0.26210544
162	0x3e009dd6	0.1256021
163	0x3f45e603	0.77304095
164	0xbeb5755c	-0.354411
165	0x3ef82a03	0.48469552
166	0xbed2f13d	-0.41199675
167	0x3db363c2	0.08759262
168	0xbf5ad01f	-0.8547382
169	0x3d87b42a	0.066261604
170	0xbf0ee61a	-0.5581986
171	0xbf40db7b	-0.753349
172	0xbe095873	-0.13412647
173	0xbf035dc9	-0.5131498
174	0x3ec13b1a	0.37740403
175	0x3d7335aa	0.05937735
176	0x3e2768a9	0.16348518
177	0x3df5db8a	0.120047644
178	0xbea008a2	-0.31256586
179	0xbcecae19	-0.02889161
180	0x3d0b50cf	0.034012612
181	0x3e5e20bf	0.21692179
182	0x3d318981	0.043344025
183	0x3e80becb	0.25145563
184	0x3e40aaea	0.18815199
185	0x3ebd4711	0.36968282
186	0x3f463ff0	0.7744131
187	0xbd3395bb	-0.043843966
188	0x3f124c27	0.5714745
189	0xbf736f59	-0.9509178
190	0xbcaa827e	-0.020814177
191	0xbef700cb	-0.48242792
192	0xbe71658a	-0.2357389
193	0x3eddc963	0.43317708
194	0x3ec7b040	0.39001656
195	0xbdae3d99	-0.085078426
196	0xbd284b83	-0.04108764
197	0x3e8b82e3	0.27248296
198	0xbca0a8b5	-0.019611696
199	0x3f50fdce	0.81637275
200	0xbe591259	-0.21198405
201	0xbf2cb25e	-0.67459667
202	0xbee57757	-0.44817612
203	0x3eac3ae6	0.33638686
204	0xbf4a5d62	-0.7904874
205	0xbda5981e	-0.08085655
206	0x3e558729	0.20852341
207	0xbec46b36	-0.38363045
208	0x3eba9177	0.36439106
209	0xbf2c4fde	-0.6730937
210	0x3efb3e91	0.49071172
211	0x3e5244f1	0.20534112
212	0xbc1acd23	-0.0094483225
213	0xbf0acde8	-0.5422044
214	0xbe23748a	-0.15962425
215	0x3e804593	0.2505308
216	0x3d50aad9	0.050944183
217	0x3de3fc89	0.11132152
218	0xbf342daf	-0.7038221
219	0x3ea04615	0.31303468
220	0x3f112a01	0.5670472
221	0x3f5b33a0	0.8562565
222	0xbe4f2f04	-0.20232779
223	0xbd3d1d4a	-0.04617051
224	0x3e8a628e	0.27028316
225	0x3d2e12a4	0.042498246
226	0xbed3bc16	-0.41354436
227	0xbed6e430	-0.41970968
228	0x3df96620	0.12177682
229	0x3df9967a	0.12186904
230	0xbded6f3a	-0.115934804
231	0xbe222147	-0.15833007
232	0x3e13e92a	0.14444414
233	0x3eaa81c4	0.33302128
234	0xbc99c9b3	-0.018772935
235	0x3ebd9d95	0.37034288
236	0x3e59763a	0.21236506
237	0xbf196f73	-0.59935683
238	0x3eb6e25e	0.3571958
239	0x3d2e113b	0.0424969
240	0xbf03e986	-0.51528203
241	0x3f22fd75	0.63667995
242	0xbf29cd0f	-0.6632852
243	0x3f01ca09	0.50698906
244	0x3f058750	0.52159595
245	0x3dfd3e49	0.123653956
246	0x3f27bfaa	0.6552683
247	0x3eb9d62d	0.36296216
248	0xbe56221d	-0.2091145
249	0xbe0c90e0	-0.1372714
250	0x3ea83295	0.3285109
251	0x3ee5add3	0.4485918
252	0xbf01e039	-0.5073276
253	0xbea6a257	-0.3254573
254	0x3f01605b	0.5053765
255	0x3e8e0997	0.2774169

network_body._body_endoder.seq_layers.0.bias f4 [128]
0	0x3dc3646e	0.0954064
1	0x3d4c8ce2	0.049939044
2	0xbd7725f6	-0.060338937
3	0x3ca58e79	0.020209538
4	0x3cbad7f5	0.022808054
5	0xbdcfb4f2	-0.101419345
6	0x3e7f1dfd	0.24913783
7	0x3cab4f1f	0.020911751
8	0xbcd6b94d	-0.026211405
9	0x3dbc8f59	0.09207029
10	0xbc9a3392	-0.018823419
11	0xbb0e2086	-0.0021686866
12	0xbd91b7b1	-0.071151145
13	0x3c8d01b5	0.017212728
14	0x3d222979	0.039590333
15	0xbd207265	-0.039171595
16	0xbcdba002	-0.026809696
17	0xbd86d738	-0.065840185
18	0x3dca52c5	0.09879068
19	0xbc60a0d9	-0.013710224
20	0x3db1a08f	0.08673202
21	0xbce8bb37	-0.028409583
22	0x3cd4da8b	0.025983116
23	0x3e0d6f1a	0.13811913
24	0xbd265790	-0.04061085
25	0xbe1f6a57	-0.15567909
26	0xbcba03ca	-0.022706885
27	0x3e140379	0.1445445
28	0xbb5c6240	-0.0033627898
29	0xbcc1a0d5	-0.023636261
30	0x3dc461bb	0.09588953
31	0xbce40763	-0.027835554
32	0xbdd1cfd1	-0.10244716
33	0x3d2005b0	0.039067924
34	0x3b0f3069	0.0021848923
35	0x3cedbc98	0.029020593
36	0x3be21240	0.006899148
37	0x3cad21e6	0.021134328
38	0xbd8afd38	-0.06786579
39	0x3d199a16	0.037500463
40	0xbd790d49	-0.060803685
41	0x3caa3b64	0.020780273
42	0xbd898107	-0.06714063
43	0x3b842a5d	0.0040333704
44	0x3d09c6a1	0.033636693
45	0x3bb38471	0.0054784347
46	0xbe09006a	-0.13379064
47	0xbdd5a66a	-0.104321316
48	0x3d9e5a4b	0.07732066
49	0x3e191ba7	0.14951955
50	0xbb92906b	-0.0044727824
51	0xbdb98e25	-0.09060315
52	0x3d196f8d	0.0374599
53	0x3dd757a7	0.10514765
54	0xbb9aafea	-0.0047206776
55	0x3b2dcaf6	0.002651868
56	0xbcca2c83	-0.024679428
57	0x3c9ccc46	0.019140374
58	0x3d2fce72	0.04292149
59	0x3d4c54e7	0.049885657
60	0x3a8e078e	0.0010835992
61	0x3dde137b	0.10843559
62	0xbe455b17	-0.1927303
63	0x3cef61f8	0.02922152
64	0x3c8060c1	0.015671136
65	0x3dcf7dd2	0.1013142
66	0x3c8b7330	0.0170227
67	0x3d720e90	0.05909592
68	0xbd5fbbd6	-0.054622494
69	0xbe177b2b	-0.14793079
70	0xbcaac8f8	-0.020847782
71	0xbd5f8773	-0.054572534
72	0xbd9516b5	-0.07279722
73	0xbd2ae8d2	-0.04172594
74	0xbd85c970	-0.06532562
75	0xbd4333bd	-0.047656763
76	0xbd9fb5b8	-0.07798332
77	0x3d850ec1	0.06496955
78	0x3dcea896	0.10090749
79	0x3d8dd8cc	0.06926116
80	0xbd7c22cd	-0.061556626
81	0x3ce7d58e	0.028300073
82	0x3b5a5d5e	0.0033319811
83	0xbb9973bd	-0.0046829865
84	0x3beb43f2	0.0071797306
85	0x3d1ad70e	0.03780275
86	0x3d3ac425	0.045597214
87	0x3d4ec0f9	0.050477
88	0xbd5466a0	-0.051855683
89	0x3c79dbd7	0.015250168
90	0xbd90fd40	-0.070795536
91	0xbdebde1e	-0.11516975
92	0x3dee42c6	0.1163383
93	0x3c806fb1	0.015678259
94	0x3db996b6	0.09061949
95	0xbd99ee2b	-0.0751613
96	0xbcd7d26c	-0.026345454
97	0xbd9b8595	-0.07593838
98	0x3cdd5046	0.027015816
99	0xbd5c232f	-0.05374449
100	0xbcb7b48c	-0.022424959
101	0xbd86dade	-0.06584714
102	0x3e1bd078	0.15216243
103	0xbcde1cc3	-0.027113324
104	0x3d90284f	0.07038938
105	0xbde05e63	-0.10955503
106	0xbdda0ee5	-0.10647372
107	0x3d3442f9	0.044009183
108	0xbdba3b46	-0.09093337
109	0xbde92e53	-0.11385789
110	0x3d300bf7	0.04298016
111	0x3da2acd4	0.079431206
112	0xbd89f656	-0.06736438
113	0xbd7ec56a	-0.062199987
114	0xbd1c72cc	-0.038195416
115	0x3c4b8973	0.012422907
116	0x3dbee9f5	0.093219675
117	0xbd6181d2	-0.055055447
118	0x3c5c490f	0.013445153
119	0x3d340d8d	0.043958236
120	0xbd0b7816	-0.03405007
121	0x3d8ded8f	0.06930076
122	0xbb5c78aa	-0.0033641257
123	0xbe14b794	-0.14523154
124	0x3d81642d	0.06317935
125	0xbd41d8dc	-0.047325954
126	0x3c0aff0e	0.008483661
127	0x3db806b8	0.089856565

network_body._body_endoder.seq_layers.2.weight f4 [128, 128]
0	0xbdfe7e04	-0.12426379
1	0x3dabb231	0.08383597
2	0xbce3b974	-0.027798392
3	0x3df66ab6	0.12032072
4	0x3c7d91be	0.015476642
5	0x3e0172a3	0.12641387
6	0x3e473639	0.19454278
7	0xbde6c9e5	-0.11268977
8	0x3cde16ab	0.027110418
9	0x3e18a608	0.14907086
10	0x3db762cb	0.0895439
11	0x3e4ee959	0.20206203
12	0x3e2b5005	0.16729744
13	0x3d0904ef	0.03345197
14	0x3d95fc93	0.07323565
15	0x3dc5eb51	0.09664024
16	0xbd4736ca	-0.048636235
17	0x3e3bdd2d	0.1834609
18	0xbe3d57db	-0.18490545
19	0xbc634c4b	-0.01387317
20	0x3e3d2e5e	0.18474719
21	0x3b91f7f4	0.004454607
22	0x3e23041a	0.15919533
23	0xbdf1e129	-0.11810524
24	0x3e0cf3a8	0.13764822
25	0xb8e4be1d	-0.000109072986
26	0x3a777729	0.00094400585
27	0x3d9c22e5	0.07623843
28	0xbd9355ce	-0.071941
29	0x3c9b748e	0.018976476
30	0x3e5ebc97	0.21751629
31	0xbe0e0cf3	-0.13872127
32	0x3cbc4b83	0.022985226
33	0x3e6f3f3c	0.23363966
34	0x3e13fe6f	0.14452527
35	0x3d88a41d	0.06671927
36	0x3e5b97fa	0.21444693
37	0x3e051c98	0.12999189
38	0xbe15e713	-0.14638929
39	0xbd85efed	-0.06539903
40	0xbe0c392d	-0.13693686
41	0x3d0f2b2e	0.03495329
42	0xbdcd2f3a	-0.100187734
43	0x3cb882cd	0.022523308
44	0xbe2a26b2	-0.16616324
45	0x3c09ee75	0.008418669
46	0xbe771445	-0.24128826
47	0x3cb230d3	0.021751797
48	0x3ccf4c0c	0.025304817
49	0xbd6a6f10	-0.057234824
50	0x3ddb9ab2	0.10722865
51	0x3d9b0a96	0.075703785
52	0x3cce84cc	0.025209807
53	0x3e2da97b	0.16959183
54	0x3c563881	0.013074995
55	0x3dbc63d8	0.09198731
56	0x3d4ea397	0.05044898
57	0x3dcec34d	0.100958444
58	0x3d25b620	0.04045689
59	0xbe01e3ab	-0.12684505
60	0x3d4c0b94	0.04981573
61	0x3e0300db	0.12793295
62	0xbdabbf3d	-0.08386085
63	0x3db59710	0.088667035
64	0xbddaef0b	-0.10690125
65	0xbde70ee3	-0.11282136
66	0x3e8ff144	0.2811376
67	0xbd2a3170	-0.041551054
68	0x3c92bbf9	0.017911898
69	0x3ddeb10b	0.10873612
70	0x3d3d411f	0.046204682
71	0xbb1d0e66	-0.002396488
72	0xbe0950d9	-0.13409747
73	0x3e0fc764	0.14040905
74	0xbe1c8e5b	-0.1528868
75	0x3da2ab66	0.07942848
76	0xbdef9aa7	-0.116994195
77	0xbdff7c38	-0.12474865
78	0x3e21e36b	0.1580941
79	0xbd2e5ef9	-0.04257104
80	0xbd59f633	-0.05321331
81	0x3baa54c5	0.0051980936
82	0x3dfcd56f	0.12345397
83	0x3d54418c	0.051820323
84	0x3b35361a	0.0027650655
85	0xbc834069	-0.016021924
86	0xbb6423bc	-0.0034811338
87	0x3e48481b	0.19558756
88	0x3c0fb12d	0.008770269
89	0x3cfee0db	0.031113079
90	0x3d27db9a	0.040980913
91	0xbb720aeb	-0.0036932777
92	0x3e83289c	0.2561692
93	0xbc6be062	-0.014396759
94	0xbe0891b3	-0.1333683
95	0x3db1f6aa	0.086896256
96	0x3ce252fc	0.02762746
97	0xbd676dbf	-0.056501146
98	0xbcc3b32b	-0.023889145
99	0x3ddfb989	0.1092406
100	0xbd19c2f1	-0.037539426
101	0xbda2b9ab	-0.079455696
102	0xbd7bbdb6	-0.06146022
103	0x3de4c31d	0.111700274
104	0xbd16f9cd	-0.036859322
105	0x3d345b08	0.044032127
106	0x3d064d32	0.032788463
107	0x3e031cf9	0.12804021
108	0xbcbfdcbd	-0.023420686
109	0xbd1c96a3	-0.038229596
110	0xbd823b55	-0.06358973
111	0x3de5f883	0.112290405
112	0x3da0d078	0.07852262
113	0x3de410af	0.11135995
114	0x3da5c7e4	0.08094767
115	0x3bf25cb7	0.0073963064
116	0x3e330351	0.17481734
117	0xbda0135e	-0.07816194
118	0x3ddf3ef5	0.1090068
119	0xbc92fa9a	-0.017941762
120	0x3c8cd3d9	0.01719086
121	0x3e07b7ca	0.13253704
122	0xbd581b00	-0.052760124
123	0xbdab3666	-0.08359985
124	0x3e005fdd	0.12536569
125	0xbdbd6a64	-0.09248808
126	0x3dcf5e6a	0.1012543
127	0x3d79c5fa	0.06097982
128	0xbd6de56b	-0.05808012
129	0x3c904748	0.017612115
130	0xbd947ce2	-0.07250382
131	0x3e4d617c	0.20056719
132	0xbd56783a	-0.05236075
133	0x3d8bafda	0.068206504
134	0xbcd3065c	-0.025759868
135	0x3d0b43e4	0.034000292
136	0xbdf517b0	-0.11967409
137	0xbd29eff5	-0.041488606
138	0x3d4e350f	0.05034357
139	0x3d4c67b1	0.049903575
140	0x3dbf0782	0.09327604
141	0xbe3d7b48	-0.1850406
142	0x3e17cf54	0.14825183
143	0x3dbf9717	0.0935499
144	0xbe426148	-0.18982422
145	0x3d41af2d	0.0472862
146	0xbe3c4f7d	-0.18389697
147	0xbdd76170	-0.105166316
148	0xbd305ffd	-0.04306029
149	0x3e6a9ed6	0.22912154
150	0x3c3424f4	0.010995138
151	0xbdfb4ee9	-0.1227091
152	0xbdca29f8	-0.09871286
153	0xbdc75e5b	-0.09734794
154	0xbe26153c	-0.16219038
155	0x3d246a90	0.04014069
156	0xbdc2229f	-0.0947926
157	0x3c9c105f	0.019050775
158	0xbc32183c	-0.010870036
159	0x3d184a1f	0.037180062
160	0xbe2cb7df	-0.16867016
161	0xbd48e20c	-0.0490437
162	0x3e5e8abe	0.21732613
163	0xbd0958cb	-0.033531945
164	0xbda80338	-0.08203739
165	0x3d70cf54	0.058791474
166	0xbdbe46e1	-0.09290863
167	0xbe4eb0be	-0.2018461
168	0x3e471fe0	0.19445753
169	0x3d44179f	0.04787409
170	0xbd8e7b72	-0.06957139
171	0xbe00e9ae	-0.12589142
172	0xbd9067bd	-0.070510365
173	0x3dc0cc66	0.09413986
174	0x3ccece68	0.025244907
175	0x3db82b4d	0.08992634
176	0xbddcbba5	-0.10777978
177	0xbe14127f	-0.1446018
178	0xbdc1e2b1	-0.09467066
179	0xbe0ad6f4	-0.1355856
180	0x3d851c81	0.06499577
181	0x3d271b42	0.04079748
182	0x3db279fd	0.08714674
183	0x3d912f69	0.07089121
184	0xbdcc337e	-0.09970759
185	0xbdb98a92	-0.09059633
186	0x3d92a15a	0.071596816
187	0xbd8d7ef5	-0.06908981
188	0xbd22194d	-0.03957491
189	0xbd145030	-0.036209285
190	0xbe1aaef6	-0.15105805
191	0x3e6359dc	0.22202247
192	0x3b2a39c0	0.0025974363
193	0xbd95707d	-0.07296846
194	0xbd026660	-0.031835914
195	0x3c8d18b4	0.017223693
196	0xbdcb46a9	-0.09925587
197	0xbd9e47fd	-0.077285744
198	0xbdf79162	-0.120882764
199	0x3e07491d	0.13211484
200	0xbe07f379	-0.13276471
201	0xbe387663	-0.18013911
202	0x3c83cccf	0.016088871
203	0xbd431e3c	-0.047636256
204	0xbc4e9c91	-0.0126105705
205	0xbd145d42	-0.03622175
206	0xbd3676a9	-0.044546757
207	0xbdcd777b	-0.10032555
208	0xbe3cc8ef	-0.18436025
209	0xbdbe7ca9	-0.09301121
210	0xbe9d7a8f	-0.30757567
211	0x3b45c063	0.0030174486
212	0xbe324b3d	-0.17411514
213	0xbd9c0d70	-0.076197505
214	0x3d845d7b	0.064631425
215	0xbe36be9b	-0.17846148
216	0xbe58dc6e	-0.21177837
217	0x3d56feb0	0.052488983
218	0xbc422048	-0.011848517
219	0xbe300a08	-0.17191327
220	0xbdb0de81	-0.08636189
221	0xbd5c0666	-0.05371704
222	0xbc860925	-0.016361782
223	0xbe059933	-0.13046722
224	0x3d6f14b7	0.058369365
225	0xbdf27f2a	-0.11840661
226	0xbca311e9	-0.019906001
227	0x3d56a5c6	0.052404188
228	0xbe237104	-0.15961081
229	0xbdf51013	-0.119659565
230	0xbdc7129a	-0.09720345
231	0x3e0a87d9	0.13528384
232	0x3e03dd79	0.12877454
233	0xbb1d26d3	-0.002397944
234	0xbd374403	-0.044742595
235	0xbd9455b8	-0.07242912
236	0xbd055c76	-0.03255888
237	0x3c808db4	0.01569257
238	0x3dadfe84	0.08495811
239	0x3da506c9	0.08057935
240	0x3d7a5c3c	0.061123118
241	0xbe01dcdf	-0.12681912
242	0xbcf51de1	-0.029921474
243	0xbda5d2a7	-0.08096819
244	0x3e2b743b	0.16743557
245	0xbc8a0452	-0.016847763
246	0xbe3b47a2	-0.18289044
247	0xbca203ff	-0.019777296
248	0x3e630a57	0.22171913
249	0x3d910a94	0.07082096
250	0x3cf515e1	0.02991766
251	0x3996f450	0.00028792256
252	0xbdc092aa	-0.09402974
253	0x3ddcaadb	0.107747756
254	0xbe330e01	-0.17485811
255	0xbd196036	-0.03744527

network_body._body_endoder.seq_layers.2.bias f4 [128]
0	0x3d85f372	0.06540574
1	0x3c91001c	0.017700247
2	0xbd7786d4	-0.060431316
3	0xbd1626e0	-0.036658168
4	0xbd4d98c7	-0.050194528
5	0x3ddc41c7	0.107547335
6	0xbce2f855	-0.027706305
7	0x390a49f3	0.00013188254
8	0xbd44d0d3	-0.048050713
9	0xbd45b703	-0.048270237
10	0x3c7ad290	0.015308991
11	0xbc36e58f	-0.0111631295
12	0xbd7fb8f8	-0.06243226
13	0xb9ce2676	-0.00039320037
14	0x3d8b710b	0.068086706
15	0x3daa62e8	0.08319646
16	0x3cc2a9ff	0.023762701
17	0x3dd0b68a	0.101910666
18	0x3cbf817e	0.023377176
19	0x3dad8e36	0.0847439
20	0x3bcd58aa	0.006266673
21	0x3e098a48	0.13431656
22	0xbda74aa2	-0.08168532
23	0x3e02ae59	0.12761821
24	0x3d56a9fe	0.05240821
25	0x3da31d4c	0.07964572
26	0xbcf9fa5e	-0.030514892
27	0x3dae2549	0.08503205
28	0x3df3ad40	0.11898279
29	0xbca6b38c	-0.020349286
30	0xbc985296	-0.018594068
31	0x3dbd3696	0.09238927
32	0x3d5b1aed	0.053492475
33	0x3d22bd4d	0.039731313
34	0x3ce7507d	0.028236622
35	0xbd1fa4c2	-0.038975485
36	0x3dd8ec0c	0.10591897
37	0x3d6cdc76	0.057827435
38	0x3d981ea1	0.07427717
39	0x3c9f9d76	0.019484263
40	0xbb8a5cf8	-0.0042225085
41	0x3da0b041	0.07846118
42	0x3da2a7fb	0.07942196
43	0xbc978c58	-0.018499538
44	0x3d502307	0.050814655
45	0x3d24bb98	0.040217966
46	0xbd84f070	-0.06491172
47	0x3d08711b	0.03331099
48	0xbda3e571	-0.08002747
49	0x3d09b6ee	0.03362172
50	0xbd170a87	-0.036875274
51	0xbb017c55	-0.0019757946
52	0xbd1ecdf5	-0.038770635
53	0x3d9a2af1	0.07527722
54	0xbdf485ed	-0.11939607
55	0xbd303245	-0.04301669
56	0x3cb71cc7	0.02235259
57	0xbc7841d2	-0.015152412
58	0x3dd41634	0.103557974
59	0x3dd50286	0.10400872
60	0x3cd8200b	0.026382467
61	0xbc256ac3	-0.010096255
62	0x3d788dc2	0.060682066
63	0xbd372bcd	-0.044719506
64	0x3d1927eb	0.037391584
65	0xbdcdcf9d	-0.10049365
66	0x3d525d9f	0.051358815
67	0xbd6ae515	-0.057347376
68	0x3cca9ec9	0.024733918
69	0x3d9f3740	0.0777421
70	0x3d96a55b	0.07355758
71	0xbd059c32	-0.032619663
72	0xbc2bf1b3	-0.010494637
73	0x3e19f144	0.15033442
74	0xbcc5f887	-0.024166359
75	0xba938a63	-0.0011256452
76	0x3ded4126	0.11584692
77	0x3bcdc1ac	0.006279191
78	0x3d9eada5	0.07747964
79	0x3cfb6ff6	0.030693036
80	0x3d9d6ffa	0.076873735
81	0xbba1435f	-0.0049213613
82	0x3dbc36b3	0.091901205
83	0xbd2d86ea	-0.042364992
84	0x3daf2cfc	0.08553502
85	0x3c96caa3	0.018407172
86	0xbcf06e17	-0.02934937
87	0x3d2b96ba	0.04189179
88	0xbc21ae27	-0.009868181
89	0x3e03ee79	0.12883939
90	0xbd361ed1	-0.044462983
91	0xbd149bc4	-0.036281362
92	0x3cb1ebb9	0.021718847
93	0xbd8676cc	-0.065656275
94	0x3c2f0254	0.010681707
95	0x3d346af3	0.044047307
96	0x3dabf99d	0.08397219
97	0xbd60b6c0	-0.054861784
98	0xbce0e687	-0.027453674
99	0xbd061334	-0.032733157
100	0xbcfaab79	-0.030599343
101	0x3e118aa8	0.1421305
102	0x3d2e72e5	0.04259004
103	0x3cf5c415	0.030000726
104	0x3da3b4ec	0.079934925
105	0xbc796a3d	-0.015223083
106	0x3c1b434e	0.009476496
107	0x3da5e11c	0.08099577
108	0xbcdb2a6f	-0.026753632
109	0xbcee12b6	-0.029061656
110	0x3d7ab5e1	0.06120861
111	0x3d9f950b	0.077920996
112	0x3ba220e8	0.0049477704
113	0x3d5b6c31	0.053569976
114	0x3dda11eb	0.10647949
115	0xbd99cfa1	-0.07510305
116	0xbb982c92	-0.004643985
117	0x3db718aa	0.08940251
118	0xbdbfcb71	-0.09364975
119	0xbbe83dd5	-0.007087449
120	0x3b9bccc7	0.004754636
121	0x3d22c4fa	0.039738633
122	0x3dad876c	0.08473095
123	0x3d09e9a6	0.03367009
124	0x3d79c08f	0.060974654
125	0x3d8bb7ac	0.06822142
126	0x3c1e3dc9	0.009658285
127	0x3dd23107	0.102632575

action_model._continuous_distribution.log_sigma f4 [1, 2]
0	0xbf14418f	-0.57912534
1	0xbf0cd38c	-0.55010295

action_model._continuous_distribution.mu.weight f4 [2, 128]
0	0xbdd4c2c1	-0.10388709
1	0xbbdda9b4	-0.006764615
2	0xbbc4a505	-0.006001117
3	0x3dbf9f01	0.093564995
4	0xbd55729e	-0.05211126
5	0xbda04e10	-0.07827389
6	0xba9df4d1	-0.001205111
7	0xbcff56c1	-0.031169297
8	0xbd1a6fc1	-0.037704233
9	0xbd56cde7	-0.052442458
10	0x3cb97988	0.022640958
11	0xbc703a99	-0.014662408
12	0xbb397bc8	-0.002830254
13	0x3dd6fe0b	0.104976736
14	0xbd579d94	-0.052640513
15	0x3dead810	0.11466992
16	0xbd3ff8b7	-0.046868052
17	0x3d602f8e	0.05473285
18	0xbdaff7d9	-0.08592195
19	0xbd1e090b	-0.038582843
20	0xbd77d92d	-0.06050985
21	0xbdcebb4b	-0.10094317
22	0xbc90f76c	-0.017696105
23	0x3c8c7444	0.017145284
24	0xbcee724a	-0.029107232
25	0xb8428be9	-4.6383506e-05
26	0xbcaa74e7	-0.020807697
27	0x3d01606c	0.031586096
28	0xbdc56d47	-0.096399836
29	0x3c3c3610	0.011487499
30	0x3da4b955	0.08043162
31	0x3da2061c	0.079113215
32	0xbdddedf3	-0.10836401
33	0x3c9f268d	0.019427562
34	0xbd9f7a51	-0.07787002
35	0xbd5f538c	-0.054523036
36	0xbdc1fa39	-0.09471554
37	0x3d376e1a	0.044782735
38	0xbcf090bd	-0.029365892
39	0xbdab88fa	-0.083757356
40	0x3cb63b5d	0.022245103
41	0xbd27cfb6	-0.040969573
42	0xbc9e5964	-0.019329734
43	0x3dc55c4d	0.096367456
44	0xbda843fb	-0.08216091
45	0xbb832ef0	-0.004003398
46	0xbbb3c3ef	-0.0054860036
47	0x3dd5c1a0	0.10437322
48	0xbce518d1	-0.027965935
49	0x3dc41101	0.09573556
50	0xbce3e8c8	-0.02782096
51	0x3d312984	0.043252483
52	0xbda157ec	-0.07878098
53	0x3dfc779f	0.123275034
54	0x3c38b03b	0.011272485
55	0xbc3b6832	-0.011438416
56	0x3da7585b	0.08171149
57	0xbd593073	-0.05302472
58	0x3df9daf2	0.12199964
59	0x3c42ab55	0.011881669
60	0xbda73289	-0.08163936
61	0xbd794798	-0.060859293
62	0xbde50993	-0.11183467
63	0x3d41757c	0.047231182
64	0x3db4757a	0.088114694
65	0xbd952386	-0.07282166
66	0x3c9f03c2	0.019410972
67	0xbd38e5ca	-0.04514102
68	0x3cc77777	0.024348957
69	0x3da11f9b	0.078673564
70	0x3daca038	0.08428997
71	0xbd7a0c0b	-0.06104664
72	0x3d9690fd	0.07351873
73	0xbd39217d	-0.045197953
74	0x3cd68cfc	0.026190273
75	0xbd7d496d	-0.061837602
76	0xbd8d7f52	-0.0690905
77	0x3de14001	0.10998536
78	0x3c4c9b42	0.012488188
79	0xbd8b41db	-0.0679967
80	0xbcd15317	-0.025552316
81	0xbc17c39b	-0.009262945
82	0xbd49068c	-0.04907851
83	0xbc7d1a16	-0.015448114
84	0x3c0a204e	0.008430554
85	0x3d897cd4	0.06713262
86	0x3d3fab14	0.046794012
87	0xbd883d36	-0.066523
88	0xbde38834	-0.11109963
89	0xbe14dd52	-0.14537552
90	0xbd0b8817	-0.034065332
91	0x3cd077c2	0.02544773
92	0x3dd5853a	0.104258016
93	0x3dbd1f88	0.0923453
94	0x3d023132	0.031785198
95	0x3d30fbf6	0.04320904
96	0xbdfb1172	-0.12259187
97	0xbd1926bb	-0.037390452
98	0x3d8cde97	0.06878393
99	0xbccf14f4	-0.025278546
100	0x3d7f677f	0.06235456
101	0x3d1b35ce	0.03789311
102	0x3c37707a	0.01119625
103	0xbda68e20	-0.08132577
104	0x3d61cf46	0.055129312
105	0xbc8b30f9	-0.016991125
106	0x3d93f6eb	0.0722483
107	0xbd7d423b	-0.06183074
108	0x3dc6db7b	0.09709831
109	0xbdef8a02	-0.11696245
110	0xbbce22a1	-0.006290749
111	0x3dfd4c12	0.12368025
112	0xbdae111a	-0.084993556
113	0x3dcb9d40	0.099421024
114	0xbe127e66	-0.1430603
115	0x3918f014	0.00014585286
116	0x3d4c121d	0.04982196
117	0x3e0daceb	0.13835494
118	0x3bec5070	0.0072117373
119	0x3e026d5f	0.12737034
120	0x3d152299	0.036409948
121	0x3d819eab	0.06329092
122	0xbcb52077	-0.022110207
123	0x3d11d042	0.035599
124	0xbd0c8a5a	-0.03431163
125	0xbdc9c251	-0.09851516
126	0x3da84b9b	0.082175456
127	0x39ad4438	0.00033047958
128	0xbd3175df	-0.0433253
129	0xbd04ad2c	-0.032391712
130	0x3ccba81a	0.02486043
131	0x3cacbb9e	0.021085557
132	0x3c56bf8e	0.013107194
133	0x3e285431	0.16438366
134	0x3d4af134	0.049546435
135	0x3c7df796	0.015500924
136	0x3d53f3f6	0.05174633
137	0xbd0f8d16	-0.03504666
138	0xbc85b01c	-0.016319327
139	0xbb8a706b	-0.004224827
140	0x3d4e6e57	0.050398197
141	0x3c714c44	0.014727656
142	0xbdb0966e	-0.08622442
143	0x3d1c4da2	0.038159974
144	0xbc13ca0d	-0.009020341
145	0x3e010428	0.12599242
146	0xbd8bf631	-0.06834067
147	0xbdacd2f7	-0.08438676
148	0xbd08fdfc	-0.033445343
149	0x3e088f59	0.13335933
150	0x3c57855e	0.013154356
151	0xbe031052	-0.12799194
152	0x3dc01e6c	0.093808025
153	0xbda2af33	-0.07943573
154	0x3c3f006e	0.011657817
155	0xbdb1eae5	-0.08687381
156	0xbdb6c9d8	-0.089252174
157	0x3c8ae420	0.016954482
158	0x3c49c41b	0.012314822
159	0x3da1aae3	0.07893922
160	0xbdbebdd8	-0.093135536
161	0x3db52952	0.08845772
162	0x3d2c010f	0.041993197
163	0x3d544a2c	0.05182855
164	0x3df514dd	0.1196687
165	0x3d5210e0	0.051285625
166	0xbd98b9f4	-0.07457343
167	0x3d1b61d6	0.0379351
168	0x3c0de254	0.008659918
169	0x3def9457	0.116982155
170	0x3dd99519	0.10624141
171	0x3b4ea183	0.0031529374
172	0x3da5dc05	0.08098606
173	0x3de6fa83	0.1127825
174	0x3d9a7491	0.075417645
175	0x3d6dea58	0.058084816
176	0x3c972937	0.01845227
177	0x3b950f31	0.00454893
178	0x3c0095dd	0.00784823
179	0x3d317bd3	0.04333098
180	0x3d6c92bb	0.05775712
181	0xbd23773f	-0.039908644
182	0x3d6addca	0.05734042
183	0x3ce63b73	0.02810452
184	0x3bb84b18	0.0056241862
185	0x3d829069	0.063752
186	0xbd22f5d1	-0.03978521
187	0xbdd5ed58	-0.1044566
188	0xbd9ab3e8	-0.07553846
189	0xbd001a4d	-0.031275082
190	0x3d3bc6b3	0.04584379
191	0xbc73cb4e	-0.014880015
192	0x3c2cc9c7	0.010546154
193	0xbd3340cd	-0.04376297
194	0xbd336d01	-0.043805126
195	0x3d0a2f09	0.033736262
196	0xbd0bacde	-0.034100406
197	0xbca32444	-0.019914754
198	0xbd11f695	-0.03563555
199	0x3e1861f7	0.1488112
200	0xbaeeb24c	-0.0018211096
201	0xbde8ac54	-0.11360994
202	0xba1e8b28	-0.00060479576
203	0x3c6e1435	0.014531185
204	0xbdc63bb2	-0.09679355
205	0x3c2521c6	0.010078853
206	0xbd49cf8f	-0.04927021
207	0x3cbfbffa	0.023406971
208	0xbcb581e2	-0.02215666
209	0x3d790120	0.06079209
210	0xbd9ca7b9	-0.07649178
211	0x3cb7daaa	0.022443134
212	0x3d85282d	0.065018035
213	0x3dc55a1f	0.0963633
214	0xbacf2f0a	-0.0015806865
215	0xbdcaf74a	-0.09910448
216	0x3d0c5928	0.034264714
217	0xbc8f6a69	-0.017506795
218	0xbd3c3321	-0.045947198
219	0x3d6385af	0.055547412
220	0x3d18e31f	0.037325975
221	0xbd7f6e3e	-0.062360995
222	0x3d111293	0.035418104
223	0x3cdd66bf	0.027026532
224	0xba8853ed	-0.0010400988
225	0xbc085042	-0.008319916
226	0x3be40408	0.0069584884
227	0x3c60ae82	0.013713481
228	0x3c88244b	0.016618868
229	0xbda13d75	-0.0787305
230	0xbd1857a6	-0.037192963
231	0x3db7440e	0.08948527
232	0xbd74926c	-0.05970995
233	0xbce17356	-0.027520817
234	0x3d07b1d8	0.03312859
235	0xbde6e409	-0.11273963
236	0x3d16d629	0.036825333
237	0x3de11a07	0.109912924
238	0x3e088a6c	0.13334054
239	0x3da5e412	0.081001416
240	0xbbdfa4a6	-0.0068250475
241	0xbd9ca015	-0.07647721
242	0x3c9f3169	0.01943274
243	0x3cfc7812	0.030818973
244	0x3d5f04e9	0.054448042
245	0xbc32e941	-0.01091987
246	0x3cb3b107	0.021935
247	0x3c6ff829	0.014646568
248	0xbb8e7a05	-0.004348042
249	0xbd410f0d	-0.047133494
250	0xbd9fc947	-0.078020625
251	0xbbde0754	-0.006775776
252	0x3db5e55f	0.0888164
253	0x3dc5f516	0.09665887
254	0x3dc063e8	0.093940556
255	0xbdc9a2a8	-0.09845477

action_model._continuous_distribution.mu.bias f4 [2]
0	0xbcd91e19	-0.02650361
1	0xbd1dbe92	-0.03851182
